fraud_model.pth (torch, 191186 bytes, 19 tensors)

model.0.weight f4 [256, 10]
00000000: 3353 ba3d b1a2 a83e 99cf 33bc 67ee 9dbc
00000010: 6a6e ae3c 9757 d33c 15c3 763e 3029 123e
00000020: 0c2b 2a3d 2724 2cbd e8e3 b1be 7891 8c3d
00000030: 4a79 ce3c e292 193d 1ef6 4d3d d6d5 0cbe
00000040: f0ed 7bbd e75d 83be 2463 953c 910b 08ba
00000050: 84f6 9abe 7c76 3e3e ad93 903d 3d76 57be
00000060: 7968 c13d cb45 e7bd 260a 1a3e 80be 3c3e
00000070: a490 0d3e c478 40bc 9fe4 2cbe 6920 4b3d
00000080: 67f3 ac3d d184 10be 74d4 5c3e dbd6 623d
00000090: e2b0 e53d 7570 403e bd0e d7bd 7a6e fc3c
000000a0: 902f d23d c504 34be 1b1a 313e aa2a 81be
000000b0: 036d 4dba 4916 f23d c46a 8ebe 1bbe 453e
000000c0: 52f9 20bd 7d7c 313d a021 cfbe bc47 c43d
000000d0: cf52 febd 99c2 b6bc 904d 0b3d 29dc a2bd
000000e0: 330e d7bd 03c3 8abd b14c 7abd bce5 383c
000000f0: 796b 33be e83d abbd c323 4b3c 3116 043e
00000100: 78c7 24bd a635 a33c 034b c1bd ad13 3a3e
00000110: dd54 083d f9d6 5dbe 5052 263c d47f 883e
00000120: 0650 043e c2f0 8b3d d5e0 2dbc 61f1 97bd
00000130: 0829 cd3d 9d63 083b b36c b4bd c47a 85be
00000140: 5719 913e 7ed9 703e 1f99 61bc fd70 b63d
00000150: 0f05 f3bc 4920 913d 8f87 90be d300 c5be
00000160: 759e b13c b59e 8b3d 8072 6d3e 023f 09bd
00000170: 63b5 243d 97cd a4be dff2 693d 0176 73bc
00000180: 0509 ba3d 72cd 2cbe 91fe 183e 2f60 45bb
00000190: 344e 35bf e69d b0b9 7c02 8fba 5b79 02bc
000001a0: 6729 8a3a cb73 a23c 37ca 773c c3de 86bc
000001b0: f860 d5ba 9fb3 c23b ddba 4b3e 7183 d53e
000001c0: 0c87 b73b 49c1 bf3b fec6 b5ba 412b b93d
000001d0: 65ba 86bd 1bbe bc3c f2d6 adbb a2ca 643b
000001e0: d4fd 433e f0a3 76be 66f9 943e b5df 6cbe
000001f0: a071 783c fdea f93d ee62 a7bd ba9b 593e
00000200: afa5 60bd 800a 7d3d a52f 6b3e 80f1 f43e
00000210: a05d 36bc 70ac 723d 52f2 a03c 9484 9abb
00000220: 1eca 1c3e f9b3 c43c 0cf3 31bd d99a fc3c
00000230: 944e c5bd 6277 9e3d 5efb abbd c497 67be
00000240: 4792 d73d cea0 c3bc d78f b63d d076 293e
00000250: 3a08 083e dfbb a73c 79db dabe 7030 bc3b
00000260: 1156 42bb bddb d93b f2e2 a7bb 0679 64bd
00000270: 0723 213a f8dd 9cbe 2481 8bbc 8624 903b
00000280: 2307 8dbe de93 84bd cdaa f1bc feb2 f33b
00000290: fc66 e83c 7f28 d4bd 9433 12bd e16c a3be
000002a0: 0dd5 2c3c 1e5e 633c 96f2 babd 9a42 43be
000002b0: 5abb 7f3c 4169 9fba 137f 2bbb 4b3f 9cbc
000002c0: 88e7 f3bc 63f0 a93e 778d 0dbc 1e6e 21b8
000002d0: 05fc 9b3e 6429 83bd 5225 fa3c 6865 d03d
000002e0: 604c 87bc 0cc4 81bc 4a96 1dbc b508 9bbe
000002f0: ee67 8a3d aed1 56bc b737 eebe de08 3bbe
00000300: 545b 90bc 9ddd 76bc c575 923c b527 f63d
00000310: 16f4 ea3d 29f7 1e3e 622f dc3d 722a 1ebe
00000320: 5d4c 18bf b9ea 333b 9b11 2a3b 4628 063c
00000330: c128 be3b 6e73 89bc adea 583b c1e4 9b3c
00000340: ba91 c33b 4015 a5bc 0b05 d1be 9d93 c13c
00000350: 160e 643c 18f3 e5bb e4ea 043c 5bd1 8e3d
00000360: 5fde 913b 48a3 97be 3ef5 9dbc 040e 7e3a
00000370: 99a5 673e 9dcc c43e 826f 4c3b 6950 ee3a
00000380: a13d f53a 0870 563c 209a 2b3c 1299 9a3c
00000390: 0222 f7ba 9714 9cbc f156 383e a14a dfbd
000003a0: fbed 363e 9086 f0bd 7f1b 6fbe 54a5 b8bd
000003b0: f4a9 1c3e b771 903d 781f 543d d898 d03d
000003c0: 21d3 45bc 10c9 2bbe e18b 45bc f53f 95bd
000003d0: 701b f4bc 3b14 263c 789a 173e 6b3a 423e
000003e0: 60d9 18be d130 09bc 1a2a 0f3c f526 6cbc
000003f0: 8285 bdba d7df 713d 0c32 a03c 5fe3 833c
0.090979 0.32936624 -0.010974788 -0.019278718 0.021292884 0.025798602 0.24097855 0.14273524
0.04154496 -0.042026665 -0.3474419 0.068636835 0.02520432 0.037493594 0.050283544 -0.13753447
-0.06150621 -0.2565758 0.01823575 -0.0005189712 -0.30266201 0.18599886 0.07059417 -0.21041198
0.09443755 -0.11292609 0.15042934 0.18432045 0.13824707 -0.011747543 -0.16884087 0.049591456
0.08444863 -0.14113165 0.2156542 0.055380683 0.11215378 0.18792899 -0.10500858 0.030814398
0.10262978 -0.17579944 0.17295115 -0.25227863 -0.00078363734 0.11820657 -0.2781583 0.193108
-0.03930027 0.043331612 -0.4045534 0.09583995 -0.12418138 -0.022309588 0.034009516 -0.079521485
-0.10500755 -0.06775477 -0.061108295 0.011285242 -0.17521466 -0.08361417 0.012398663 0.1289909
-0.04022929 0.019923043 -0.094381355 0.18171568 0.033284057 -0.21664037 0.010151461 0.26660025
0.12921152 0.0683303 -0.010612686 -0.07419086 0.10017592 0.0020811327 -0.08809795 -0.26070225
0.28339645 0.23520467 -0.013769417 0.089082696 -0.029665498 0.07086236 -0.28228423 -0.3847719
0.021682004 0.0681738 0.2318821 -0.033507355 0.040212046 -0.32188103 0.057116386 -0.014859677
0.090837516 -0.16875246 0.1494086 -0.0030117144 -0.70822453 -0.0003368698 -0.0010910775 -0.007963504
0.0010540903 0.019830605 0.015123895 -0.016463643 -0.0016279509 0.0059418227 0.19895501 0.41701844
0.0056008156 0.005851899 -0.0013868508 0.09041453 -0.06578521 0.023039868 -0.0053051645 0.0034910818
0.19139796 -0.24085975 0.29096526 -0.23132212 0.015163809 0.122030236 -0.08173166 0.21250811
-0.05484551 0.06177759 0.22967394 0.478405 -0.01113072 0.05924648 0.019646797 -0.0047155116
0.15311477 0.024011599 -0.04344468 0.030835556 -0.09634128 0.07737614 -0.08397554 -0.22616488
0.10525947 -0.023880389 0.08914154 0.1654923 0.13284388 0.020475326 -0.4274557 0.005743079
-0.002965335 0.0066485093 -0.0051234895 -0.05577948 0.0006146882 -0.306381 -0.017029352 0.004398885
-0.27544507 -0.06473516 -0.02950039 0.007437109 0.02836942 -0.103592865 -0.03569372 -0.31919006
0.010548842 0.01387742 -0.09128301 -0.19068375 0.015608633 -0.0012162105 -0.0026168271 -0.01907315
-0.029773489 0.33191213 -0.008639685 -3.8487946e-05 0.30465713 -0.06404379 0.030535374 0.10175592
-0.01651591 -0.015840553 -0.009618351 -0.3028008 0.06758104 -0.013111515 -0.46526882 -0.18265101
-0.017621674 -0.015067485 0.017878423 0.12019292 0.11472337 0.15523972 0.10751225 -0.15445879
-0.5949152 0.0027453138 0.0025950435 0.008188313 0.005803198 -0.016778674 0.0033098862 0.019029977
0.0059682997 -0.020151734 -0.4082416 0.023629958 0.013919374 -0.0070175044 0.008112643 0.06973525
0.0044515575 -0.2961676 -0.01928198 0.00096914195 0.22621764 0.38437358 0.0031194394 0.0018181923
0.0018710383 0.013088234 0.010473758 0.018871818 -0.001885474 -0.019052787 0.18001916 -0.10902906
0.1786422 -0.11744416 -0.23350333 -0.09015909 0.15299207 0.070529394 0.051787823 0.10185403
-0.012074263 -0.16775918 -0.0120572755 -0.072875895 -0.02979824 0.010136659 0.14805019 0.18967597
-0.14926672 -0.008373455 0.008738065 -0.014413585 -0.0014459344 0.05905136 0.019555114 0.01609963

model.0.bias f4 [256]
00000000: 7e94 c333 8930 80b4 734f 9e33 4c4d 12b3
00000010: d8ac 83b3 2a41 f933 300d 8d33 c82d 8332
00000020: 4e18 c733 27ca 49b3 e6b6 48b5 3bd1 a5b3
00000030: 7034 2834 a405 38b4 f387 3b32 8a1a 2eb4
00000040: 6f17 c0b2 768e eb33 cdaf 52b2 9df0 ca33
00000050: 714a 4c35 1011 ba33 3c53 9133 48a4 af30
00000060: b972 04b4 1750 99b3 ae06 7fb3 d5af 00b3
00000070: 6edb 10b4 a341 7c33 6aaf 6433 5ec5 c1b3
00000080: e8da 33b3 9aa9 65b3 51b9 7fb3 e4f6 8cb5
00000090: 27ad 87b4 fc71 aa32 f1d7 c3b4 faa3 fb33
000000a0: 30b4 b4b3 19ca 2e33 0f75 8db3 035c 4c33
000000b0: 3cf8 6533 c25e f832 20d5 5e33 8ff8 c934
000000c0: e069 a133 34d5 9933 1112 c533 5cb1 d832
000000d0: ebb5 db32 4414 abb4 ef1a 6eb2 652a 30b4
000000e0: 5335 fa32 db74 b1b1 a4f8 a4b2 60ea 9931
000000f0: ec26 aeb3 703c 2633 17d3 ca33 079e 92b2
00000100: a8e8 b5b4 0206 d833 ef38 f2b3 fedc 4333
00000110: 7cf9 8532 f5fa 3732 f946 5833 b760 bdb3
00000120: 4327 2434 6e0e 0532 427b 53b3 f187 0d32
00000130: 0041 74b1 5efa 82b4 582c 4634 1578 bfb3
00000140: 2229 97b3 b2ad 9733 142d b5b2 edba eeb2
00000150: 8bc6 4ab4 2990 21b4 4d6e 1cb4 a0fa 0e33
00000160: eaf8 df32 bc0d 2c33 8aca e7b4 c702 bb33
00000170: ea24 1db5 d656 0cb4 069f 5833 3c7d 7e32
00000180: b0fa 4b33 5694 8bb1 1e0d fe34 7c31 4fb3
00000190: d9dc b1b3 cfca 9e32 3063 8633 a31e 5e33
000001a0: fbf3 c532 2a49 54b4 5d39 2b32 f83c deb2
000001b0: e18b 72b3 7f85 36b2 a73b ceb4 d884 32b4
000001c0: d3ee 6f33 0a56 1ab4 464c 54b3 560e 82b5
000001d0: 6112 1d33 72b1 1832 e53b 6bb3 8395 9b33
000001e0: d687 a434 bb38 69b4 8fad fdb2 59d2 0533
000001f0: 434e 7cb3 470f ffb2 1471 a9b3 0cb9 d3b2
00000200: 6d9b f033 5149 1d33 7f2d 3534 f86a cdb2
00000210: b869 4ab3 0bb5 80b4 933e 87b4 e486 0133
00000220: c85a 9b32 46c9 15b4 9c21 5134 68f6 37b3
00000230: 05e5 b532 39df f2b1 3799 c8b3 7c9d 66b4
00000240: be90 23b3 9bbe bdb2 754a 8db3 21bd 2434
00000250: 2173 4c33 41b5 ac33 9eb9 9332 c63c bb33
00000260: 091a cf33 9d78 3431 4dec 1d35 4278 f833
00000270: 99b7 0e34 96b0 4cb3 00ed cfb2 34cf c931
00000280: 0cdd 9633 1e29 d733 227a ad33 1c07 2eb3
00000290: bfd3 c233 739a b634 84dc de32 80b1 5db4
000002a0: af32 5733 9d7a 42b3 6216 3132 b943 0c33
000002b0: e4fb 24b2 0a1f b832 da63 6532 7a6c 8132
000002c0: 2041 bcb3 2323 7833 1766 1334 0b40 41b2
000002d0: 14e2 8433 0092 22b5 d43f 7533 81de 87b3
000002e0: 2acd 42b3 7b14 a7b3 8d02 ff31 39f8 cbb3
000002f0: e25c 7f31 afc6 e234 aac2 75b3 312d e232
00000300: faa3 3834 6682 11b4 6a5e a3b3 0664 f0b2
00000310: 8aae 70b3 779c b5b3 12f4 d8b4 6db3 1633
00000320: 7052 79b2 b128 cf33 2125 0633 4ca8 f8b3
00000330: e893 ba32 b8d1 6fb3 c8d8 46b3 53fe efb2
00000340: 5c3c 9633 13c9 ef31 dc0f 0cb3 40d2 e8b3
00000350: 35ad e1b2 94b5 4ab4 a6d8 c4b2 54b8 b231
00000360: 3464 9eb2 f913 0c34 bc9a d7b3 10a5 c3b2
00000370: 8183 6b33 f7ec 3833 a5ce d432 07f3 2db3
00000380: 3552 b9b3 2144 67b4 8701 8932 2af0 fdb3
00000390: bce3 35b3 2915 36b3 7028 2ab3 2fab e833
000003a0: 911d 63b3 141f fbb3 704e a933 0869 19b4
000003b0: 93e9 03b3 427b a0b3 b1cd 08b4 cfa5 35b2
000003c0: 6654 0f33 68c3 8133 adeb 2db3 a178 8e33
000003d0: b2a5 38b3 5660 bbb2 a609 4333 c6db 6a33
000003e0: 1555 4eb4 db8d ccb1 403f d235 a4ba 0334
000003f0: 0153 0633 558c cf33 c484 2434 0ef9 33b4
9.107406e-08 -2.3877172e-07 7.3719e-08 -3.4063575e-08 -6.131603e-08 1.1606819e-07 6.568223e-08 1.5271226e-08
9.2710806e-08 -4.6982816e-08 -7.477196e-07 -7.72147e-08 1.5665296e-07 -1.7138387e-07 1.0915744e-08 -1.6214668e-07
-2.2362398e-08 1.0968954e-07 -1.2263581e-08 9.450125e-08 7.610425e-07 8.6644036e-08 6.767229e-08 1.2779617e-09
-1.2335194e-07 -7.139186e-08 -5.937789e-08 -2.996224e-08 -1.3490873e-07 5.873302e-08 5.3244925e-08 -9.023164e-08
-4.187578e-08 -5.347247e-08 -5.954036e-08 -1.0502667e-06 -2.5271694e-07 1.9842439e-08 -3.6478698e-07 1.17179255e-07
-8.414679e-08 4.069634e-08 -6.587117e-08 4.7581135e-08 5.3543985e-08 2.891409e-08 5.188224e-08 3.7620018e-07
7.516405e-08 7.163399e-08 9.1768136e-08 2.5226363e-08 2.5577682e-08 -3.1865977e-07 -1.3859547e-08 -1.64067e-07
2.912808e-08 -5.164663e-09 -1.9205181e-08 4.4795314e-09 -8.109586e-08 3.8704854e-08 9.444755e-08 -1.70685e-08
-3.3883157e-07 1.00593766e-07 -1.1279359e-07 4.5602967e-08 1.559669e-08 1.0709063e-08 5.035597e-08 -8.818591e-08
1.5287974e-07 7.7449e-09 -4.9239368e-08 8.23819e-09 -3.5543621e-09 -2.4396553e-07 1.8456319e-07 -8.9159734e-08
-7.0389675e-08 7.0630804e-08 -2.1091672e-08 -2.779185e-08 -1.8884946e-07 -1.5046739e-07 -1.456876e-07 3.3289894e-08
2.607381e-08 4.0059362e-08 -4.317447e-07 8.708371e-08 -5.8540775e-07 -1.3070107e-07 5.043605e-08 1.4813221e-08
4.749262e-08 -4.0622963e-09 4.732073e-07 -4.824095e-08 -8.282377e-08 1.8485848e-08 6.257903e-08 5.1716267e-08
2.3044768e-08 -1.9770656e-07 9.966553e-09 -2.5871927e-08 -5.6472235e-08 -1.0624148e-08 -3.8413893e-07 -1.662587e-07
5.5863733e-08 -1.4373668e-07 -4.9429467e-08 -9.689927e-07 3.6571127e-08 8.887911e-09 -5.4769675e-08 7.244946e-08
3.0646214e-07 -2.1720454e-07 -2.9532002e-08 3.1157786e-08 -5.87445e-08 -2.9692854e-08 -7.8902445e-08 -2.4647782e-08
1.1204143e-07 3.6621092e-08 1.687349e-07 -2.3913785e-08 -4.712794e-08 -2.3973584e-07 -2.5191238e-07 3.0157835e-08
1.8085657e-08 -1.3949929e-07 1.9476869e-07 -4.2832113e-08 2.117532e-08 -7.0685044e-09 -9.3410954e-08 -2.1477712e-07
-3.8083037e-08 -2.2089173e-08 -6.579368e-08 1.5342495e-07 4.760216e-08 8.042344e-08 1.7197461e-08 8.718921e-08
9.6439244e-08 2.6262008e-09 5.883092e-07 1.1570275e-07 1.3291573e-07 -4.7658055e-08 -2.4205747e-08 5.873426e-09
7.0251275e-08 1.0019197e-07 8.078156e-08 -4.0518998e-08 9.0723454e-08 3.4012518e-07 2.594448e-08 -2.0646803e-07
5.0104685e-08 -4.528066e-08 1.0307845e-08 3.2657884e-08 -9.60333e-09 2.1434534e-08 1.3352258e-08 1.5066906e-08
-8.7662784e-08 5.7773956e-08 1.3727582e-07 -1.124864e-08 6.1878524e-08 -6.056216e-07 5.710156e-08 -6.3269006e-08
-4.535574e-08 -7.780269e-08 7.4217668e-09 -9.4980756e-08 3.7160182e-09 4.2240342e-07 -5.7220554e-08 2.6330413e-08
1.719599e-07 -1.3551616e-07 -7.607453e-08 -2.7985163e-08 -5.6038097e-08 -8.45693e-08 -4.041072e-07 3.5087783e-08
-1.4512452e-08 9.6465904e-08 3.1233075e-08 -1.1579013e-07 2.172051e-08 -5.5837262e-08 -4.629763e-08 -2.7938915e-08
6.9958986e-08 6.978675e-09 -3.2610714e-08 -1.0841586e-07 -2.6272213e-08 -1.8878774e-07 -2.2915923e-08 5.2014375e-09
-1.8439188e-08 1.3045782e-07 -1.0039864e-07 -2.277605e-08 5.4834803e-08 4.3056357e-08 2.477402e-08 -4.0500733e-08
-8.629687e-08 -2.1538337e-07 1.5949594e-08 -1.1824916e-07 -4.234947e-08 -4.2394422e-08 -3.9617987e-08 1.083448e-07
-5.2879447e-08 -1.16937514e-07 7.8839435e-08 -1.4287446e-07 -3.071325e-08 -7.473001e-08 -1.2740817e-07 -1.0573287e-08
3.3371542e-08 6.042575e-08 -4.0494047e-08 6.6343325e-08 -4.2991537e-08 -2.1813474e-08 4.541075e-08 5.4682253e-08
-1.9216198e-07 -5.9533085e-09 1.5664627e-06 1.2268225e-07 3.1274798e-08 9.664715e-08 1.532199e-07 -1.676128e-07

model.1.weight f4 [256]
00000000: b6ba 0e3f a5c7 323f d4e6 093f 57bc e53e
00000010: 1c32 f03e 7132 eb3e 943c e83e c9cf ed3e
00000020: d573 133f 1348 fe3e 1879 4d3f 755a 1b3f
00000030: c036 063f e587 153f 7a30 b43e 34c3 4e3f
00000040: 48f3 033f ad59 0c3f 6be0 0f3f 98a4 073f
00000050: 1d7e 753f 96cf 373f 758e 373f d61f 003f
00000060: 6fcf e93e 9dc2 083f d3ea d93e 9779 073f
00000070: 556c 033f ccfa d03e 2a17 de3e 73d7 313f
00000080: 5b4a c23e 2256 2d3f 240e f23e 9494 6b3f
00000090: e6de 3c3f e060 ef3e 65ae 603f 7436 0c3f
000000a0: baf0 1f3f 92a2 1d3f ed9f 0d3f b019 083f
000000b0: 15f4 eb3e 5c8b 163f 6641 093f 75b9 2a3f
000000c0: 4ea8 d93e c085 0f3f 26e0 373f b03a aa3e
000000d0: e5b9 c63e e4ac 3f3f 6ae3 033f 1937 203f
000000e0: ded7 113f fea6 e93e 8c5c f73e cf66 003f
000000f0: 61b9 033f c7d9 eb3e 9ebc 053f b83a 183f
00000100: 206c 583f 635d e43e a618 f73e e95d da3e
00000110: 195c f63e e97a 9f3e f626 fd3e 69bb 033f
00000120: bd23 4d3f 0137 e53e 00a6 3d3f 99f5 183f
00000130: 7962 ff3e f83b 503f 1b7b 203f b94e ca3e
00000140: 3872 033f fef7 e53e 4b5d 2f3f 753d d93e
00000150: c9f3 f73e c442 4a3f 71de 0b3f 6418 173f
00000160: 21c6 0f3f 979c 083f 5973 313f dc3c 4d3f
00000170: c8ed 873f f9b3 1a3f 6395 ed3e ca6a 0e3f
00000180: b24b d63e b375 fe3e b933 333f 9582 da3e
00000190: 7ad4 e93e 5bad d93e 98bf 2b3f 4d07 ce3e
000001a0: b645 fd3e 39c4 273f 70ea 1b3f 3b1d 223f
000001b0: 885f f93e 1e5d 003f b6ca 473f c668 523f
000001c0: 50da ea3e bb84 143f d1b4 003f 755b 723f
000001d0: 0bd6 2c3f 298b 213f 8781 163f 375b 4b3f
000001e0: 8767 103f 22e2 f03e 0fa8 093f fcc1 013f
000001f0: 4393 be3e a62d 133f 03e4 273f 1f64 f53e
00000200: 6019 0d3f ef1e 023f f418 143f 8ea1 0c3f
00000210: 3758 113f eea2 0d3f c6ad 0c3f 0efa d83e
00000220: 4c23 d53e 2953 3e3f dd7b 103f 8d46 e53e
00000230: dc50 1e3f c99d 233f 2cc0 d63e 5434 123f
00000240: 14ab 103f 7589 143f 59e4 e23e a889 203f
00000250: c50c 0b3f 57c0 123f a881 f93e 0e63 133f
00000260: b8a3 053f ab6c 043f 1ad9 4f3f 0131 0f3f
00000270: 6831 373f b53a bf3e 0544 e43e 0ae2 f13e
00000280: db49 063f daed 033f bc2a 343f 2e5d 013f
00000290: d307 233f a211 3b3f 62bb 153f ac3e 163f
000002a0: b8f0 203f 7c90 123f 1a88 233f 87cf f83e
000002b0: f3e3 0c3f f5c3 063f dea4 043f 34ee 0b3f
000002c0: f609 2b3f ea1c e43e a871 263f c55b f53e
000002d0: 36c2 493f f9fa 573f 92f7 083f 16a2 f13e
000002e0: 2efc ea3e a3a0 0d3f 3555 f13e 6ad0 183f
000002f0: 6e0f ed3e ae26 2f3f 5473 353f 378a ff3e
00000300: 4b4f 0e3f 2d29 0e3f 437e 043f 41f8 ea3e
00000310: ca71 0a3f 0b6d e63e 2c11 5b3f 661c 083f
00000320: 0990 d03e fa75 ee3e cec4 023f 3376 123f
00000330: a02d c43e 4874 0b3f ca67 023f dbbe fb3e
00000340: 4d54 073f 9f2f d43e 8ce4 063f 080a 023f
00000350: 424d 1f3f 07ce 163f 75f2 0d3f 1235 073f
00000360: adb8 e73e 7d49 3d3f a9cd fe3e 0976 fa3e
00000370: 14d3 e23e c094 bc3e b5f0 013f 6098 ea3e
00000380: 99de e93e de7f 143f 01b1 f93e ce6d 573f
00000390: 5cdb 0b3f ddd8 0c3f fe27 e83e 41ab 0b3f
000003a0: bd22 ee3e e544 203f a795 1f3f da3b 333f
000003b0: 06da ee3e 2d5f 053f 85f8 043f d450 343f
000003c0: 06c5 ed3e 10d9 fa3e 1204 033f dc57 113f
000003d0: 23c6 073f bf39 db3e 22f0 e33e 7b8a e83e
000003e0: 11c2 053f 9b85 b73e 578e 883f 97a0 213f
000003f0: f836 f23e 09b6 383f d8d2 623f 46e5 003f
0.5575365 0.69835883 0.5386784 0.44870254 0.4691323 0.4593692 0.45358717 0.4644759
0.5759862 0.49664363 0.802629 0.606849 0.5242729 0.58410484 0.35193235 0.80766606
0.5154309 0.54824334 0.5620181 0.52985525 0.9589556 0.71801126 0.7170175 0.5004858
0.45666072 0.53421956 0.4256197 0.52919906 0.51337177 0.40816343 0.43377048 0.69469374
0.37947354 0.67709553 0.47276413 0.9202359 0.73777616 0.46753597 0.87766105 0.5477059
0.62476695 0.6157619 0.5532215 0.53164196 0.46084657 0.58806396 0.53615415 0.66689235
0.4251122 0.5606346 0.718264 0.332479 0.388137 0.74873185 0.5151888 0.6258407
0.5697001 0.45635217 0.48312795 0.50156873 0.5145474 0.46064588 0.5224093 0.594646
0.84539986 0.44602498 0.48260993 0.42649773 0.4811714 0.3114846 0.49443787 0.5145784
0.8013266 0.44768527 0.7408142 0.5974975 0.49879816 0.81341505 0.62687844 0.39513186
0.5134616 0.44915766 0.6850173 0.424297 0.4842818 0.79008126 0.54636294 0.5902159
0.56161696 0.5336394 0.6931663 0.8017099 1.061944 0.60430866 0.46403036 0.556317
0.41854626 0.49699172 0.700008 0.4267775 0.4566992 0.42515072 0.67089224 0.40239945
0.49467248 0.65533787 0.609046 0.6332585 0.48705697 0.50142086 0.7804369 0.8219112
0.45869684 0.5801503 0.50275904 0.946708 0.67514104 0.63102967 0.58791393 0.7943606
0.5640797 0.47047526 0.5377206 0.5068662 0.37221727 0.5749153 0.65582293 0.4792795
0.55116844 0.5082845 0.57850575 0.5493401 0.5677523 0.55326736 0.5495266 0.42378277
0.41628492 0.7434564 0.56439 0.44780388 0.6184213 0.63912636 0.4194349 0.57111096
0.56511045 0.5802224 0.4431484 0.62710047 0.5431636 0.5732474 0.48731732 0.5757302
0.5220294 0.51728314 0.81190646 0.5593415 0.7155976 0.37349477 0.44583145 0.47242767
0.52456445 0.5153481 0.7037771 0.50532806 0.63683814 0.7307378 0.5848905 0.5868938
0.6286731 0.57251716 0.6387955 0.4859583 0.5503532 0.52642757 0.5181407 0.54660344
0.66812074 0.4455331 0.65017176 0.47921577 0.7881197 0.8436733 0.5350276 0.47193974
0.45895523 0.5532324 0.4713532 0.59693015 0.46300834 0.68418396 0.708791 0.49910137
0.5558974 0.5553158 0.5175516 0.45892528 0.5407988 0.45005068 0.8557308 0.5316833
0.4073489 0.46574384 0.5108155 0.5721161 0.3831606 0.54474306 0.5093962 0.4916905
0.5286301 0.41442582 0.52692485 0.50796556 0.6222726 0.5890812 0.55448085 0.52815354
0.45258084 0.7394026 0.4976628 0.4891818 0.44301665 0.36832237 0.50757915 0.45819378
0.4567764 0.5800761 0.48767856 0.84151924 0.5463159 0.5501841 0.45343012 0.5455819
0.46510878 0.62605125 0.62337726 0.700132 0.46650714 0.5209835 0.5194171 0.70435834
0.4643938 0.4899373 0.51178086 0.5677469 0.5303671 0.42817494 0.44519144 0.45418152
0.52249247 0.3584412 1.0668439 0.63135666 0.47307563 0.72152764 0.8860297 0.50349844

model.1.bias f4 [256]
00000000: c207 7ebe ac5e 8bbe 98a8 08be 68d7 acbd
00000010: c497 d9bd 8176 ebbd cf2a 16bd 1ec4 81be
00000020: 2be7 5dbd 051d 9dbe 9239 adbe 9f2c e2be
00000030: 50e0 19be bbef b4be d742 0abe ba5a be3b
00000040: f2f8 2fbe 4b37 e7bc 8bcf a6be 52fe cabd
00000050: 575f bfbe 552a 203d 65ce f9be 8019 0ebe
00000060: 47f2 9cbd a191 fd3c d784 e33a 09f0 a9be
00000070: 295a cfbd ec40 dbbd e81d d6bc e97f bdbd
00000080: d277 c5bd 4b96 dfbe f6fe 17bd e0e3 bdbe
00000090: 9acf 4bbe 29c2 4bbe 950f a1be 9ee2 82be
000000a0: 3a7f 43bd 397e 18be 016a babe b457 c3be
000000b0: a795 e4bd d960 79be 0f1b 85be 6a98 35be
000000c0: 63de d1bd 119c d7be 6967 76be de45 18be
000000d0: 0f1c c03c b64c 58be b92f 40be 050f 97bd
000000e0: 6afa 73be f614 debd 2e63 c0be 2fea dbbd
000000f0: 4771 28be 20e7 86be 4d9b 9abe 1739 43be
00000100: e629 99be 17d6 c2bc 4eda e1bc 8002 1ebe
00000110: 5028 11be c356 15be 34cd f13d 8f6f 0cbb
00000120: 5079 d63c 3833 83bd d024 f1bd 58de 41be
00000130: 31f0 5bbe 38fd 88be 3502 e5be 7077 83bd
00000140: 5f46 e0bb 9bfe c4bd 4cf9 ccbe c4c6 16be
00000150: 2981 853c 636c ffbd 2d31 2dbe 2347 a9be
00000160: f243 463d 5b32 d1bd 77b3 69be 3c93 b73c
00000170: 5e63 efbe 1916 61bd 5fb1 12be b1ab 7ebe
00000180: 5391 54bd a45c 0dbe e3fb 77be b993 c9bd
00000190: 1a81 d5bd 09bd 25be 7843 02bf 46b3 bfbd
000001a0: a258 8dbe 517f 26be 1e64 c8be 9f06 d2be
000001b0: 12da e0be 2169 8dbe b9e9 9ebe dde0 713c
000001c0: 9e18 e8bd f9f4 debd 0351 31be 3681 b5be
000001d0: 28d1 61be b555 3bbe 74f2 a0be c3d0 85be
000001e0: ea57 0bbf 55be e7bc 4818 fdbd 4218 093d
000001f0: b580 47be 3ccf 3dbe da9b 47be 8405 2ebe
00000200: 1e12 02be 8a01 aabe 9958 66be b28a 74be
00000210: 7999 85be 2c82 cfbe 93be 38be 3114 82be
00000220: ddff 65be 9a68 63be 9ccd 2ebe 21c9 96be
00000230: 8493 3ebe 7e78 6dbe dc74 44be 628e 8cbe
00000240: dda1 50be a35c c7be 3377 b5bd a0d8 d1bd
00000250: 862c 96be 17ff 70be 16ca 52be da6f 43be
00000260: abcf a6be 2d96 24be 64b8 193d d52d bebe
00000270: 029b 6bbe 7e2e 91bd de99 bcbd db46 3abe
00000280: da43 aabe 89b1 7cbe 38d4 59be 5d3c 55bd
00000290: 0ac1 07be 3eb4 cd3c dde3 e0bd 1350 22be
000002a0: 6021 01bf c900 8cbe 9475 9cbe e8e7 15be
000002b0: d622 2fbd d048 97be 5c6c 06be 7701 69be
000002c0: aab8 613d 37f3 4fbe 7042 26be 6e92 343d
000002d0: c402 693c 073e 8cbe 55ec 863c 34be 39be
000002e0: 21a1 9fbe 8eae 16be f8aa 65be 15a0 8dbe
000002f0: 6ca5 69be 0086 64be ee2b 91be 0ed8 d1bd
00000300: 7445 abbe f947 85be 0c89 4dbe ec85 5dbe
00000310: ad92 d63c 17bd aebc 4e7a 98be 2105 96be
00000320: 7393 f6bc 5023 edbd 654e 1fbe dc5c 5ebe
00000330: ae2e 16be 3d96 cfbe 8a15 95be 16e0 30be
00000340: de24 c5be dca2 1ebe c099 833d 9e09 7fbe
00000350: c3e7 4abe 5ea6 94bd 8246 50be 48e7 f8be
00000360: 9c4d 43be 5242 63be 2119 4fbe 0e07 4fbd
00000370: a313 0dbd e261 0cbe 8b90 2ebe bbaf 34bd
00000380: 38b8 45be 4217 573d 884e 36be 7ff3 97be
00000390: a359 d2be 5c9c 1ebe 0524 26be 4903 e0bd
000003a0: 9678 52bd 1bf6 7ebe 6d9b aebe 870c 46be
000003b0: 3979 4abe 761f 5cbe 21a9 96bc 87d2 c0be
000003c0: f291 a5bd 1c89 9dbe c251 3dbe 6f68 95be
000003d0: 422e 30be 792f 95be 4b50 fcbd ced2 1fbe
000003e0: 2c4d cdbe 5ee0 d63d eb4f e5be 28b0 a2be
000003f0: 1555 5abe e90b 743b 33a0 b6be 4795 763b
-0.24807647 -0.27220666 -0.13345563 -0.08439523 -0.1062465 -0.11497212 -0.03666192 -0.25344938
-0.054175537 -0.30686203 -0.33832985 -0.44174668 -0.15026975 -0.3533915 -0.1350206 0.0058091553
-0.17184809 -0.028224608 -0.32580218 -0.09911789 -0.37377426 0.03910287 -0.4879028 -0.13876915
-0.07663398 0.03095323 0.0017358315 -0.33190945 -0.101246186 -0.10705742 -0.026137307 -0.092529126
-0.096419945 -0.43669352 -0.037108384 -0.37087917 -0.19903412 -0.19898285 -0.314572 -0.2556352
-0.047728755 -0.148919 -0.36409 -0.3815285 -0.111613564 -0.2435335 -0.25997207 -0.17733923
-0.10247495 -0.42111257 -0.24062885 -0.14870402 0.02345088 -0.21123013 -0.18768205 -0.073759116
-0.23825994 -0.10843842 -0.37575668 -0.10738026 -0.16449462 -0.2634821 -0.3019661 -0.19064747
-0.29914778 -0.023783727 -0.027569916 -0.15430641 -0.14175534 -0.14583878 0.118067175 -0.0021428799
0.026180893 -0.064062536 -0.117745996 -0.18932474 -0.21478345 -0.2675569 -0.44728246 -0.06419265
-0.0068443264 -0.09618875 -0.40033948 -0.1472426 0.01629694 -0.12471845 -0.1691329 -0.33062086
0.04840464 -0.10214683 -0.22822367 0.022409074 -0.467555 -0.054952715 -0.14325474 -0.24870183
-0.051896404 -0.13804871 -0.24217181 -0.09842629 -0.10425015 -0.16185392 -0.508842 -0.093603656
-0.27606684 -0.16259505 -0.39138883 -0.41020676 -0.43916374 -0.2761927 -0.3103769 0.014763084
-0.1133282 -0.108865686 -0.1731606 -0.35450143 -0.22052443 -0.18294413 -0.31434977 -0.26135835
-0.5443102 -0.028289 -0.12358147 0.0334704 -0.19482692 -0.18536085 -0.19493046 -0.16994292
-0.12702224 -0.332043 -0.22494735 -0.23881033 -0.26093653 -0.40529 -0.18041448 -0.2540603
-0.22460885 -0.22207871 -0.17070621 -0.29450324 -0.1861096 -0.23190495 -0.19185203 -0.2745238
-0.20374246 -0.38937864 -0.08860626 -0.10246396 -0.29330844 -0.23534809 -0.20584902 -0.19085637
-0.32580313 -0.16072913 0.037529364 -0.37144342 -0.2300835 -0.07088946 -0.09209035 -0.18191092
-0.33254892 -0.246771 -0.21272361 -0.05205952 -0.13257232 0.02511036 -0.109809615 -0.15850858
-0.5044155 -0.2734435 -0.30558455 -0.14639246 -0.04275783 -0.2954774 -0.13127273 -0.22754465
0.05510775 -0.20307623 -0.16236281 0.04408496 0.014221851 -0.27391073 0.016470114 -0.18138963
-0.3117762 -0.14715025 -0.224285 -0.27661195 -0.2281701 -0.22316742 -0.28353828 -0.10246287
-0.33451426 -0.26031473 -0.2007181 -0.21633118 0.026192987 -0.0213304 -0.2978081 -0.29300788
-0.030099606 -0.11579001 -0.15557249 -0.2171511 -0.14666244 -0.4054431 -0.29117996 -0.17272982
-0.3850469 -0.15491813 0.0642581 -0.24906012 -0.19814973 -0.072582945 -0.20339397 -0.48613954
-0.19072574 -0.22193268 -0.2022443 -0.050543837 -0.034442555 -0.13709214 -0.17047326 -0.044112902
-0.19308555 0.052512415 -0.17803395 -0.2967796 -0.41084012 -0.15489334 -0.16224678 -0.109381266
-0.05138453 -0.2489857 -0.34102955 -0.19340716 -0.19772805 -0.21496376 -0.018391194 -0.3766062
-0.080844775 -0.3076867 -0.1848822 -0.2918124 -0.17205146 -0.2913778 -0.12320002 -0.1560776
-0.4009794 0.104920134 -0.44787535 -0.31775022 -0.21321519 0.0037238544 -0.35669097 0.0037625597

model.1.running_mean f4 [256]
00000000: c03a 41bc 857f 213c 0a59 5ebb f6fa 32ba
00000010: aa5a 6bbb 3d24 353c 2eac 69ba bdaa 1abc
00000020: 7198 acba fef0 66ba d933 5a3c 74a6 45bc
00000030: ac9a f5bb 6f96 62bc 2faf 2dba 07ca 643c
00000040: a9e1 5e3c 0859 b7ba 5c79 65b9 2c07 f43b
00000050: dfc7 273c 0920 513c 447b 46bc 5593 07bc
00000060: d8ee 563a 7418 01bb 6a17 463b df19 f9bb
00000070: e04a 123b 89a9 04bb 5d32 88ba 0919 54ba
00000080: 54c2 aabb 60bc 4dbc a7b0 4eba de3a 6f3c
00000090: 3672 2b3c 885c 30bc 2838 543c 26dd 68bc
000000a0: f01c 6f3c 296d 84bb 881e 2a3c 0253 cc3b
000000b0: f527 383b 3058 45bb 177f 37bb 9703 24bb
000000c0: 69f3 91b9 26a1 633c c29f 04bb 4412 b13a
000000d0: a6bc 453b 70fa 4f3c 3691 8f3b 35a8 85bb
000000e0: 86f1 53bc c14e 0abc 4735 f5bb 8b1e c3ba
000000f0: f828 543a d61c 2abc 0e70 063b adcc 903b
00000100: d065 5b3c 5b6b 1c3b a754 eab7 dd5b f0ba
00000110: d890 103b abc6 e4bb 7426 8a3a 6ba3 d63b
00000120: 8d31 713c f609 29bb 6431 683c b353 633a
00000130: 61c4 043b 9eab 2e3c 6e00 1a3b 38bb 0ebc
00000140: e7fd 7f39 e284 9c3b d6bf 763c 813c 5e3b
00000150: 2e52 a9bb abec 92bb b66e c439 9919 df3b
00000160: 9110 083c cc45 5c3b 6af6 353c f209 653c
00000170: 7257 703c a38a 213c 0e5b 89bb 866b 6abb
00000180: eec2 2a3a 5d34 b6b9 f78a 4d3c 5e02 1cbc
00000190: 3398 a8ba cd87 853a 98f1 423b 6a7d 7f3b
000001a0: f3d9 f1ba 7e54 36bb b7f3 373c 238e 863c
000001b0: 5edf 33bc 1279 cdbb f736 88ba 863a 863c
000001c0: e735 e7b9 def1 df39 d157 cfbb 1f42 413c
000001d0: df71 d4ba fab5 ed3b 2442 e93b a9c3 4f3c
000001e0: bc31 29bc 55dd 433b 016a ff3b 5533 02bb
000001f0: e1c6 0cbc 69d0 703b f738 473c 2f6b 033b
00000200: 9a86 9eba b374 2cbc 278a 3c39 975c 413c
00000210: 323e dbba 28a5 6c3c 6131 8a3b 4b99 f4bb
00000220: 10c4 1bbc bc0a 2f3c 6a15 d53b 19d3 1a3b
00000230: dd5b 4c3c 1ae9 0bbb 652d 443b 9596 8b3b
00000240: 35a0 293c 48a1 07bc 9975 03bb 191c 0dbb
00000250: c274 38bc 8a0c 73ba 6f2e 34bc e8f0 3abc
00000260: 88cc acbb 3610 e8bb 930a 383c c29a 1cbc
00000270: eee9 ebba e1ea 2ebb 75ee 613b 9304 3d3b
00000280: c30f ad3a 9f64 5bbb 6169 19bb 5b2d dbbb
00000290: 3e82 64bb a7d0 6c3c 97bf 1b3c a371 143c
000002a0: 0068 853b 9c26 403b 84f3 1b3c 9997 5fba
000002b0: 70dd f53a 829e 1639 ccbe 8dbb 96eb 6f3c
000002c0: 32b8 3f3c af28 963b 4947 4bbc 4f44 7a3b
000002d0: 7a22 6d3c 87fb 303c 1202 223c 4831 38bb
000002e0: c4e9 c43b a2ad ffbb 8f54 e63b cb35 ef3b
000002f0: d820 23bc af29 313c e299 463c 164e 153c
00000300: 4d70 37bb 6549 1439 2442 a1bb 9752 d33b
00000310: 2f92 5c3c aa95 d2b9 fb18 323c 3b85 b13b
00000320: 05a9 4b3b 5bce f3bb 0ee1 81bb ed85 453b
00000330: c5bb 813a 2d64 013c a98c 22bc e8c0 ccb9
00000340: 8147 633a a476 ecba f689 e53a bde5 33bc
00000350: a6e3 50bc 8541 c8bb b7f4 713a 05db 35bc
00000360: f80b 6c3b b360 caba eb94 cabb e86b 8eba
00000370: 8a67 3ebb 7d60 bbbb 119c 00bc 850e 113b
00000380: c798 11bc 2f4b 0b3c b4e0 e1bb e12c 4c3c
00000390: 74c7 403c 4e26 e03b 79ce a0bb c1f0 223a
000003a0: 651d 863b 011e 1dbc ddcb b03b 99ac 463c
000003b0: b7b2 64ba 04cb fd3a 1dbd 3bbb 151e fd3b
000003c0: 2058 c93b 2ca8 8c3b 5e86 933b 45df 2dbc
000003d0: 9a64 e93b d621 4b3b a660 213c d43a 603b
000003e0: ff48 1dbc d8bd 44ba 69b2 6d3c ee48 263c
000003f0: 42cb c5bb 55bf 503c 0e17 623c 3dda 3cbb
-0.011793792 0.009857063 -0.0033927583 -0.0006827557 -0.0035912194 0.011056003 -0.00089139014 -0.009440121
-0.001316799 -0.00088097143 0.0133180255 -0.012063611 -0.007495245 -0.0138298115 -0.00066255307 0.013964183
0.013603606 -0.0013988325 -0.00021884352 0.007447144 0.010240524 0.012763985 -0.01211435 -0.008274873
0.00081990426 -0.0019698413 0.0030226358 -0.007601961 0.002232246 -0.0020242652 -0.0010390986 -0.0008090889
-0.005211154 -0.012557119 -0.00078845996 0.014601437 0.010464242 -0.010764249 0.012952842 -0.014212882
0.014594302 -0.004041333 0.010383256 0.0062354812 0.0028099988 -0.0030112378 -0.0027999335 -0.0025026554
-0.0002783791 0.013893401 -0.0020236825 0.0013509472 0.0030172258 0.012693986 0.004381324 -0.0040788897
-0.012936002 -0.008441628 -0.007483158 -0.0014886422 0.0008093263 -0.010382852 0.0020513567 0.0044189305
0.013390973 0.00238677 -2.7934393e-05 -0.0018337924 0.002205899 -0.006981691 0.0010540024 0.0065502427
0.0147212865 -0.002579329 0.014171932 0.0008671835 0.0020258653 0.010661034 0.0023498791 -0.008711629
0.00024413281 0.004776583 0.015060386 0.0033910575 -0.0051672673 -0.0044837794 0.0003746652 0.0068084714
0.008304731 0.0033610938 0.011106113 0.013979422 0.014669286 0.009859714 -0.004191763 -0.0035769655
0.0006514032 -0.0003475276 0.012545339 -0.009522049 -0.0012862742 0.0010187567 0.0029746052 0.0038984665
-0.0018451795 -0.0027821357 0.01122754 0.016425198 -0.010978548 -0.006270536 -0.0010392357 0.016385328
-0.00044099914 0.0004271408 -0.006327607 0.01179555 -0.0016208253 0.0072543593 0.0071184803 0.012680926
-0.010326799 0.0029886563 0.007794619 -0.0019867022 -0.008592338 0.0036745316 0.012159578 0.00200529
-0.0012094558 -0.01052587 0.00017980543 0.01180186 -0.001672691 0.014443673 0.004217312 -0.007464563
-0.009507194 0.010683712 0.006502797 0.002362436 0.012473074 -0.0021348656 0.0029934284 0.004259894
0.010353138 -0.008278199 -0.0020059107 -0.002153164 -0.011258306 -0.0009271583 -0.010997399 -0.011409976
-0.0052734055 -0.0070820106 0.01123299 -0.0095583815 -0.0017998794 -0.0026690292 0.0034474407 0.0028841838
0.001320355 -0.0033476723 -0.0023408758 -0.0066887564 -0.003486767 0.0144540435 0.009506128 0.009060296
0.0040712357 0.0029319888 0.009518508 -0.0008529365 0.001875801 0.00014364164 -0.0043257233 0.01464357
0.01170163 0.0045824866 -0.012407132 0.0038187688 0.014473552 0.010802156 0.009888189 -0.0028105546
0.0060093123 -0.007802681 0.007029123 0.007300114 -0.009956561 0.010813161 0.012121649 0.009112855
-0.002799052 0.00014141721 -0.0049212147 0.0064490545 0.013462587 -0.0004016583 0.010870214 0.0054174936
0.0031076085 -0.007440371 -0.003963596 0.003013964 0.0009897879 0.007897419 -0.009921231 -0.00039053638
0.00086700177 -0.0018040729 0.0017512429 -0.010980067 -0.012749588 -0.006111326 0.0009229886 -0.011099582
0.0036017876 -0.0015440196 -0.006182303 -0.0010865899 -0.0029053413 -0.0057182894 -0.007849709 0.0022133898
-0.008886523 0.008501812 -0.006893242 0.012461872 0.011766303 0.006840504 -0.004907426 0.00062156847
0.0040928596 -0.009589673 0.005395396 0.012126111 -0.00087241404 0.0019362872 -0.0028646656 0.0077245333
0.0061445385 0.0042925086 0.004502102 -0.010612314 0.0071225883 0.003099551 0.009849703 0.0034214752
-0.009599923 -0.00075050956 0.014507868 0.010149224 -0.006036193 0.01274093 0.013799442 -0.0028816604

model.1.running_var f4 [256]
00000000: f0e4 833e 6c85 5f3e 83e1 4f3e 1d5b 193e
00000010: e954 583e df5f 433e d359 073e 860d 333e
00000020: 42ac 713e 3ef3 453e 3238 a43e 732f 6c3e
00000030: 89ed 863e 6cb9 b13e 12ef 093e 9d8f 873e
00000040: 9f38 6a3e d55d f73d d4dd 163e 57a0 553e
00000050: fd66 663e 2131 6d3e 6058 563e c6f4 383e
00000060: 0ad4 c53d c448 4f3e 467b 273e fd15 453e
00000070: 8948 773e 6cc3 f03d 62a5 533e 2829 bb3e
00000080: 7787 033e 37bd 6a3e ca21 3f3e 4963 ca3e
00000090: 39c6 8b3e 32e4 813e 12af b63e a8a0 693e
000000a0: 43db 783e 8019 333e cbd8 8e3e 6fca 2a3e
000000b0: 2821 203e 81bb 233e 33d8 803e eec7 1f3e
000000c0: c95a 393e 7ae7 8a3e 6479 193e 256e cd3d
000000d0: c02d ce3d dfeb c13e d61e 813e 5d54 123e
000000e0: 2370 a13e 7402 383e 67b6 493e d489 7f3e
000000f0: 7a6a 1b3e 32d0 253e ed11 4d3e ba88 513e
00000100: 4edb b03e fa6c 5a3e d110 5f3e 8fee 1c3e
00000110: 0ffc 1f3e 6fd3 223e d71a f53d a255 003e
00000120: 3985 983e e05d 863e 2dd7 623e f7d7 8c3e
00000130: 9292 093e 9d2a 803e c38b 243e c73f 253e
00000140: f8b0 373e 3ce2 203e 335d a63e df1d 243e
00000150: bb47 1f3e 6e32 bb3d 9637 b03d 7269 7f3e
00000160: 1112 593e c881 623e e4d1 633e 38b3 8b3e
00000170: 26ae cc3e 7bea 6c3e d2e5 3a3e 21ca 083e
00000180: 7cf3 513e 598f 2e3e 6b9c 853e 3faa 533e
00000190: 0048 133e 01ad 0c3e bb58 633e 6185 4f3e
000001a0: e393 373e bb33 7a3e 4953 be3e 6b4e a23e
000001b0: b2aa 9a3e 4580 3a3e bfda 113e 7659 b93e
000001c0: 4077 063e 3055 9e3e dd52 723e e4bd 8b3e
000001d0: b6ef f03d bbf5 743e bcec 103e 5d22 b43e
000001e0: 2cd8 783e 60c5 753e e03e 133e 1f9d 8b3e
000001f0: 40d5 213e e3cd 103e cb0d 8f3e 42d4 213e
00000200: 1467 1a3e 219a 463e f0ca e13d e893 6d3e
00000210: af64 223e 50b4 933e 87d3 593e 4d24 573e
00000220: cb73 5e3e 9421 8d3e 1e0d 2b3e 1a6a f33d
00000230: 9172 793e ab0b 673e 99be 113e f727 103e
00000240: 1392 7c3e 26eb 923e 3d82 563e 9c01 8a3e
00000250: 9733 8a3e c5d9 473e 09c4 133e 3d46 443e
00000260: 2568 f93d d05e 3e3e f26b 363e 9abf 8a3e
00000270: 2efb 123e f122 933d a670 dc3d 6905 2b3e
00000280: 5f02 503e 0c0b 273e 953f 1c3e 70d7 1e3e
00000290: 934b 523e 4fbe 963e e43a 933e 1247 4a3e
000002a0: 7c6f 5e3e 6aeb 6f3e 64fd 673e e5c5 1d3e
000002b0: 7bc9 1f3e 3bde 393e 0b89 783e 2175 7e3e
000002c0: 4324 4c3e 5b2e 1e3e d8dd 843e 9c0b 753e
000002d0: b761 913e 0bad 693e 1d32 af3e 6c4a 103e
000002e0: 1d12 493e 8c27 593e 8334 123e 638c 573e
000002f0: 2237 8d3e d499 6b3e bbdd 863e e9d4 523e
00000300: 67cc 393e e74c 353e c6db 333e 133f 4d3e
00000310: 3682 623e 84c9 433e 7971 6d3e 819a 2d3e
00000320: d7a7 923e 0fe2 5c3e fdca 283e 15a3 4a3e
00000330: e8c5 d03d a477 403e 0e0c 053e bd8b c53d
00000340: e70a 173e aa98 3f3e 908e 8c3e 6755 783e
00000350: 1ee9 c13e 1555 2c3e 264b 4d3e 2a3c 9c3e
00000360: df0e 1c3e 6485 093e 8b44 de3d 8bd4 613e
00000370: d43c 6a3e ba94 103e 9040 2d3e ff83 263e
00000380: 6d2d 3a3e c847 cc3e ecb0 453e d17d 8e3e
00000390: 9f7c 483e 368b 643e 0c4d 553e 4e23 393e
000003a0: ff0e 5f3e 6cbc 2e3e 19ea ad3e eddc 973e
000003b0: 4649 d13d d62d 323e bdd3 273e c9e7 853e
000003c0: ccd1 0e3e 5923 243e 0a0f 813e c11e 783e
000003d0: 350f 443e ced0 3c3e 1d2e 1e3e 7da6 353e
000003e0: 7c80 693e 3dd2 473e 3565 d23e af85 9f3e
000003f0: 1d56 393e 3052 543e 1498 ad3e 8709 133e
0.25760603 0.2182824 0.2030087 0.14976163 0.2112614 0.1907954 0.13217859 0.17485628
0.23600867 0.19331071 0.32074124 0.23064975 0.263531 0.34711778 0.13470104 0.26476756
0.22873162 0.12078444 0.14733058 0.20861946 0.22500224 0.23163272 0.2093215 0.18062124
0.09659584 0.20242602 0.16355619 0.19246669 0.24148764 0.11756024 0.20668557 0.36554837
0.12844644 0.22923742 0.18665233 0.39528874 0.2729967 0.25369412 0.35680443 0.22815192
0.24302392 0.17490196 0.27899775 0.16678785 0.15637648 0.15989496 0.25164947 0.15603611
0.18101038 0.27129728 0.14987713 0.10030774 0.1006732 0.37875268 0.25218838 0.14289995
0.31530866 0.17969686 0.19698487 0.24954921 0.15177336 0.16192701 0.2002637 0.20462313
0.34542316 0.21330634 0.21783759 0.15325378 0.15623496 0.15900968 0.1196801 0.12532666
0.2978914 0.26243496 0.22152396 0.27508518 0.13434818 0.2503251 0.1606894 0.1613761
0.17938602 0.15711302 0.3249298 0.1602702 0.15554707 0.09140478 0.08604352 0.24942568
0.21198298 0.2211982 0.22248036 0.2728517 0.39976615 0.23136322 0.18251732 0.13358356
0.20503038 0.1704687 0.260959 0.20670412 0.14382935 0.13737871 0.22201817 0.20265724
0.17927508 0.24433796 0.37172917 0.31700453 0.30208355 0.18212993 0.14243601 0.36201066
0.13131428 0.30924368 0.23664422 0.27293313 0.11764471 0.23921864 0.14152807 0.35182467
0.24301213 0.24001074 0.14379454 0.2726831 0.15804005 0.1414104 0.2794021 0.15803626
0.15078384 0.19394733 0.110250354 0.23200953 0.1585872 0.28848505 0.21272098 0.21009941
0.21723859 0.2756468 0.16704223 0.11885472 0.2436011 0.22563045 0.14232863 0.14077745
0.24665098 0.2869503 0.2094812 0.26954353 0.26992485 0.19516666 0.1443025 0.19167419
0.12178067 0.18590856 0.17814615 0.27099305 0.1435363 0.07184399 0.107636735 0.16701283
0.20313405 0.16312808 0.1525863 0.1551187 0.20536642 0.2944207 0.28755867 0.19753674
0.21722215 0.23429647 0.22655255 0.15407522 0.15604202 0.1815118 0.24271028 0.24849369
0.19935708 0.1544737 0.25950503 0.2393021 0.28394863 0.22819917 0.3421792 0.1409089
0.19635816 0.21206492 0.14277844 0.21049647 0.27581125 0.230079 0.26341042 0.20589031
0.1814438 0.17705117 0.17564306 0.20043592 0.22119984 0.19119841 0.23187818 0.1695347
0.28643677 0.2157061 0.16483684 0.19788773 0.101939976 0.1879564 0.1299288 0.096457936
0.14750253 0.1871058 0.27452517 0.24251328 0.37873167 0.16829331 0.20048198 0.30514652
0.15240048 0.1342979 0.10852917 0.22053735 0.22874767 0.14119235 0.1691916 0.1626129
0.18181391 0.39898515 0.19305772 0.27830365 0.19578789 0.2231873 0.20830172 0.18079874
0.21783064 0.17064065 0.33967665 0.2966074 0.10219054 0.17400298 0.16389365 0.261534
0.13947219 0.16029109 0.25206786 0.24230482 0.19146426 0.18439028 0.15447278 0.17739291
0.22802919 0.19513793 0.4109284 0.3115668 0.18099256 0.20734477 0.3390509 0.14359103

model.4.weight f4 [128, 256]
00000000: a4b9 1fbd 5905 263c 8095 dbbc 2b86 89bc
00000010: 2766 8c3c e64f 5a3c c128 9d3d d604 b2bb
00000020: 8a45 ddbd 0925 91bc 8ad3 113e 65bd 803c
00000030: 7a0c b13b bc21 94bc 7c8a efbc b073 76ba
00000040: c242 c4bc 044b 22bd b2d4 9f3b 38f7 823d
00000050: 570f 353e a98e 643b bdf8 bb3c ad85 313c
00000060: b7e0 14bd 2a98 1fbb 5402 713b 57a0 9fba
00000070: bed5 723c 2ff0 84bd d280 edbc 0f64 3c3c
00000080: 3d28 113c b501 013d 54b9 89bc 18a7 e93d
00000090: 75aa 733d 8b8f 60bb 67ed f53d 28e6 bc3c
000000a0: a7c1 343c aad9 98bd a1dd b8bb 489b de3c
000000b0: 52c1 a6bd 7798 1b3d 95cf ba3b 3a42 cabd
000000c0: ee74 b13c 6a83 a43b 180e 1bbe 7008 fa3c
000000d0: f362 2ebd 767a 253d 8b8a fabc bbb4 ff3c
000000e0: ab37 e1bc 73ea fabb de9b aeba 6268 aebc
000000f0: 085d d0bc eb3c d73a 84ce 6bbb 4184 ad3c
00000100: a69b 023e a98e 3fbd 2608 3bbd b0ba 5a3d
00000110: 3d80 92bd 1b1f 473c 63da c73c e15e a03c
00000120: aafa 1bbb 24e4 b2bc b4cb 333d e971 513c
00000130: d230 d53a 0e15 e63d a1b1 47bd ebbc debc
00000140: 8508 213d 86a2 0ebd d573 263d 01a3 983c
00000150: 364b 8cbd 7d9f 573e ff5f 70bd c505 04bd
00000160: 2203 4f3c 80f7 cdbc f6e8 b23d f11a 813c
00000170: b74f 983e 702e 5f3d 82ee bfbd 05f3 9ebc
00000180: b2c6 59bd b536 6cba 830a bc3d c7f2 3abd
00000190: 7b36 a2bc e9c9 253d a1f8 1dbd b667 e2bc
000001a0: 1c1d 9e3c 0cbf cd3c 50b5 b8bb 195d e2bb
000001b0: 98a2 cf3c 8577 40bd 94c7 ebbd 815c 633c
000001c0: 8204 c0bc d9e8 8abd 7676 c93c 6f0b 1b3e
000001d0: 26cb 08be 53e0 723c a46e 6dbc b65b fd3d
000001e0: 7c03 123b 3918 26bc 1ecc 4abc af66 203c
000001f0: 616f c3bb 89f5 1fbd f89a 753d c3b6 0cbd
00000200: 2c33 83bd 616e 463c c657 89bd 1a87 b53c
00000210: 829c db3c 212c 91bb 1ee8 763c 5328 a63c
00000220: 6821 8dbd 10fe a23d cd04 eb3c 651a 86bc
00000230: 0faa 463d 694a dfbd 9854 d1bb dbb9 e53a
00000240: 688f 1abc c6d6 9d3c 8499 37bc fbe6 23bc
00000250: 0228 78bc 54b5 48bd 3664 c43a a171 f1bc
00000260: 228d 93ba b1fd 26bb 4fe4 463b 0ade 3dbd
00000270: 9f9e 23be 4418 03bc cee0 bf3c 12d8 e0bc
00000280: f082 9bbc 2691 d43c 7551 16be 7744 b7bd
00000290: a85c 80bd 8681 0dbc 51f9 9f3c 76b9 b53d
000002a0: 4aca 3dbc ecd3 3dbc 56ab edbc 6bc4 7ebb
000002b0: 97c1 243d 2e09 8bbc 6739 b3ba 96f2 053c
000002c0: 54fd ce3c b709 9637 4ff1 e03c 1a62 623c
000002d0: 616e 933c eeaf d43d 1899 313d 4d9e 6cbd
000002e0: 6243 da3c 468f ba3c 2888 b3bb f46e 173b
000002f0: 2c6f 01bd 9bec bb3d 3ba7 db3d b138 5f3d
00000300: d676 68bd e248 c2bc 3276 11bc 78ea 84bc
00000310: 77bb 5ebb 5038 d23c e0b8 b23d b29e f33c
00000320: 33d9 943c b846 d0bb 3bea febc fb4f bcbc
00000330: f345 93bc 2b93 023c f129 ebba 0f0c 99bc
00000340: dbd7 17bd 864f 85bd 156b bfbb df80 1abd
00000350: a242 21bd 0637 49bd a854 27bd 3bc9 0d3c
00000360: 5ae9 1abd b943 0dbe 0ae0 4d3c c561 833c
00000370: 458e 68bd efdb 8e3c ef78 8abd 48a0 44bb
00000380: 1896 1dbd 2773 ae3c e25c 79bd f1e7 7a3d
00000390: 5341 883c 72eb 0f3d 7cfb d2bc fa9f 413c
000003a0: 0aa7 483d 5eb9 ee3c 96cf f0bc 724a ee3c
000003b0: 4b18 f2bc bd70 9c39 8d43 7fbd 4788 9c3a
000003c0: c3ff 5a3c e8d2 dbbc a722 f5bb 22f2 c4bc
000003d0: 0d14 383d f2e1 f33c 1031 49bc dae5 2c3d
000003e0: 4641 50bd 9a54 01bd 5860 7f3e 1d7d 13bc
000003f0: 93fa c1bc 9c63 a3bc 89af d73d e3b3 f5bc
-0.0389954 0.010133111 -0.026804686 -0.01678761 0.017138554 0.013324713 0.07673789 -0.0054327054
-0.10804279 -0.017717855 0.14240852 0.01571531 0.0054030987 -0.018082492 -0.02924084 -0.0009401394
-0.023957614 -0.03962232 0.00487765 0.063948095 0.17681633 0.003487507 0.022945756 0.010835093
-0.036347117 -0.0024352171 0.003677507 -0.0012178522 0.014821468 -0.06491124 -0.02899209 0.011498465
0.008859691 0.03149577 -0.016812004 0.11408824 0.059488732 -0.0034265246 0.120081715 0.023058966
0.011032498 -0.07463391 -0.0056416546 0.027173653 -0.08142342 0.0379872 0.0057010152 -0.09875913
0.021662202 0.0050205486 -0.15142095 0.030521601 -0.042574834 0.04039999 -0.03058364 0.031214109
-0.027492365 -0.007657343 -0.0013321599 -0.021290008 -0.025434986 0.0016421353 -0.0035981247 0.021181228
0.12754688 -0.04676691 -0.045662068 0.053400695 -0.07153366 0.012153412 0.024396127 0.019576492
-0.002380053 -0.021837302 0.04389544 0.012783506 0.001626516 0.112344846 -0.048753385 -0.027189692
0.039314765 -0.034822963 0.04063781 0.018632414 -0.06850283 0.21056934 -0.0586853 -0.032232065
0.012635024 -0.025142431 0.0873584 0.015759917 0.29748318 0.054487646 -0.09371664 -0.01940299
-0.053168006 -0.00090108375 0.091816925 -0.045641687 -0.019801369 0.04047576 -0.03856719 -0.027637344
0.01930099 0.025115512 -0.0056368485 -0.0069080708 0.025346085 -0.046988983 -0.11512676 0.013877035
-0.02343965 -0.067826934 0.02459262 0.1514108 -0.13358745 0.014823991 -0.014491711 0.12371008
0.002227991 -0.010137611 -0.012377767 0.009790107 -0.005964205 -0.03905252 0.059962243 -0.034353983
-0.06406245 0.012111277 -0.067061946 0.022159148 0.026808027 -0.0044303094 0.0150699895 0.0202829
-0.06891137 0.07958615 0.028688813 -0.016370008 0.048502024 -0.109028645 -0.006388258 0.0017526703
-0.009433605 0.019267451 -0.011206035 -0.0100038005 -0.015146257 -0.049001053 0.0014983478 -0.029473128
-0.0011257271 -0.0025480802 0.0030348485 -0.04635433 -0.15978478 -0.008001391 0.023422625 -0.02744678
-0.018983334 0.025948118 -0.14679511 -0.089486055 -0.06267673 -0.008636838 0.019528063 0.088732645
-0.011583874 -0.011586171 -0.029012363 -0.0038874398 0.040223684 -0.01697215 -0.0013673723 0.008175513
0.02526728 1.7885917e-05 0.027458815 0.013817335 0.017996969 0.103851184 0.043358892 -0.057768155
0.026643459 0.022773396 -0.0054788776 0.0023106905 -0.031600162 0.09175988 0.10725256 0.054497425
-0.056753956 -0.023716394 -0.008878278 -0.016225085 -0.003398625 0.025661618 0.08726668 0.029738758
0.018169975 -0.0063560866 -0.03111755 -0.022987356 -0.01797769 0.007969658 -0.0017941577 -0.018682508
-0.03707109 -0.065093085 -0.0058416226 -0.037720557 -0.039370187 -0.04912474 -0.04085222 0.008653934
-0.037820198 -0.13795365 0.012565622 0.016037831 -0.056776304 0.017438857 -0.067613475 -0.0030002762
-0.03847322 0.021295143 -0.060879596 0.061256353 0.016632712 0.035136648 -0.025754683 0.011817927
0.048987426 0.029141124 -0.02939586 0.029088233 -0.0295526 0.00029838635 -0.06232028 0.0011942469
0.013366642 -0.026833966 -0.0074809375 -0.02404124 0.044940997 0.029770825 -0.012279764 0.04221139
-0.0508435 -0.031574823 0.24939096 -0.009001997 -0.023679053 -0.019944958 0.105315275 -0.029993003

model.4.bias f4 [128]
00000000: a91d 19b3 d994 4e33 b468 4c33 cf4d f032
00000010: 8763 eeb3 4176 08b2 fc24 8b32 8eec beb3
00000020: 1eb6 d332 a2a0 8eb3 a558 11b4 d90e 1032
00000030: 9c4d 15b3 2a3f 1134 3aac 06b4 ca30 57b3
00000040: cc07 d2b3 2e0e ba33 d7cb 0233 9261 35b3
00000050: 544a 3b33 b3cd f1b3 213b 10b4 5a65 52b3
00000060: 9e46 c4b1 1e4f 3cb2 4c81 2333 479d 6cb3
00000070: 1314 2534 76b7 3233 c775 6634 4cb6 41b3
00000080: c68e 3fb2 30b9 942f bcd8 9232 d230 b5b3
00000090: b75f 4c33 72d8 9d33 f161 e3b1 e132 6232
000000a0: 95ae b033 e9ac 1e33 3974 e633 0680 1133
000000b0: 554b 2434 dcac a3b3 2c0d 1cb4 ccd0 fb33
000000c0: c390 05b3 7a1b 9833 1b3d f8b2 c950 0133
000000d0: be04 85b3 0087 c6b3 8eb5 77b3 191d 85b1
000000e0: 2a9a d9b2 9ac9 02b4 aa02 87b3 647a 72b3
000000f0: 7d5e 0e32 f4dd bd31 cb0c 01b4 0a5a 17b4
00000100: fba2 b3b3 7868 90b2 ee32 49b0 6cf4 05b4
00000110: 3928 61b3 190a b933 b99c 54b3 bc56 5c32
00000120: 6be9 43b4 c9cd df33 a98f 0db3 d0b5 7a33
00000130: 1a39 2bb3 78ce 9133 3e62 b7b3 f034 5fb3
00000140: 4125 11b4 f07c c533 0241 9f30 e7ef fbb2
00000150: 3f89 b6b3 2a96 27b4 ef1d e133 ed0c f0b3
00000160: 8110 acb3 e7f5 14b4 ac24 22b4 8132 5bb4
00000170: 8a68 db33 5760 0fb4 2119 14b3 4667 af33
00000180: 999d 22b4 4d4e a732 f209 c7b3 10cc 0e33
00000190: c07b 0fb3 b016 f233 0023 f633 358f bdb2
000001a0: ed01 feb3 d299 6333 f616 fab3 e81c b9b3
000001b0: 3ca0 9133 cefa 45b3 66ba 02b3 ee5a 6234
000001c0: 47ea 7433 7479 5334 cc83 0b32 721a 6b33
000001d0: 91bb cb32 e479 8833 d2bb 65b2 db83 54b3
000001e0: 580b 7db2 f5df 2832 5cae 8e33 96e2 4c33
000001f0: c463 7cb3 8b18 b6b3 8332 da32 77b6 d533
-3.5650064e-08 4.809849e-08 4.759268e-08 2.797506e-08 -1.11008426e-07 -7.94313e-09 1.6198548e-08 -8.8905935e-08
2.464645e-08 -6.641609e-08 -1.3536426e-07 8.385279e-09 -3.476235e-08 1.3527156e-07 -1.2542378e-07 -5.0102962e-08
-9.780305e-08 8.663879e-08 3.0453375e-08 -4.2231086e-08 4.360693e-08 -1.12598535e-07 -1.3432556e-07 -4.8986614e-08
-5.712379e-09 -1.0961029e-08 3.806899e-08 -5.5091075e-08 1.5374125e-07 4.161071e-08 2.1463266e-07 -4.5102112e-08
-1.1150126e-08 2.7052627e-10 1.7095196e-08 -8.43735e-08 4.7584503e-08 7.3502534e-08 -6.617704e-09 1.31665e-08
8.227395e-08 3.6944503e-08 1.07313504e-07 3.387688e-08 1.5301096e-07 -7.621722e-08 -1.4533424e-07 1.1726078e-07
-3.1098136e-08 7.0830495e-08 -2.8898787e-08 3.0108627e-08 -6.194158e-08 -9.24465e-08 -5.7674292e-08 -3.8741175e-09
-2.533223e-08 -1.2180536e-07 -6.286912e-08 -5.645633e-08 8.286972e-09 5.525857e-09 -1.2018715e-07 -1.4095727e-07
-8.364983e-08 -1.6811313e-08 -7.319575e-10 -1.247551e-07 -5.2423477e-08 8.6165706e-08 -4.9502635e-08 1.28254065e-08
-1.8245707e-07 1.0421679e-07 -3.295978e-08 5.837302e-08 -3.9865974e-08 6.789645e-08 -8.539472e-08 -5.196938e-08
-1.351773e-07 9.1962534e-08 1.1587249e-09 -2.932934e-08 -8.5e-08 -1.5607716e-07 1.0482824e-07 -1.1178222e-07
-8.012376e-08 -1.3873033e-07 -1.5100767e-07 -2.0414338e-07 1.0216998e-07 -1.3352961e-07 -3.448179e-08 8.167858e-08
-1.514476e-07 1.9476966e-08 -9.268469e-08 3.3247545e-08 -3.3407332e-08 1.127313e-07 1.1461634e-07 -2.2067619e-08
-1.1828147e-07 5.2992455e-08 -1.1645709e-07 -8.619992e-08 6.781235e-08 -4.6095742e-08 -3.0437512e-08 2.108097e-07
5.702375e-08 1.9695091e-07 8.120832e-09 5.4739253e-08 2.3717606e-08 6.355165e-08 -1.337226e-08 -4.948002e-08
-1.47291175e-08 9.829809e-09 6.644106e-08 4.770353e-08 -5.876406e-08 -8.4795e-08 2.540151e-08 9.9517756e-08
