fraud_model.pth (torch, 190781 bytes, 19 tensors)

model.0.weight f4 [256, 10]
00000000: 83f6 573b 5647 82be b60e 103c 467b 54bd
00000010: e5c6 32bc bf2d c33b 5c00 8e3c 60b3 1abd
00000020: b59a 61bc d5f1 083b 74b7 34bb 2228 b83d
00000030: de06 abbc 798e d53d a81a d83b 2f82 3fbc
00000040: 0442 a3bd 7aa3 703c d9b1 f13b 39d4 a4bb
00000050: 560e 623d 5500 bbbd 9c90 093d 8f23 95bc
00000060: 3e59 6d3c 9114 96bd 1eac d83b 7b8a 303e
00000070: a348 ea3c 6c45 13bc 2ac3 3f3d 1d04 56be
00000080: c5a1 75bb ebe0 54be 1f25 4dbc 91a2 963c
00000090: 1b2b 26bc e4d9 a7ba e9f1 013d ab3e b1ba
000000a0: f303 30bd 3946 62be f4db d1bc 4101 28bd
000000b0: 1bab f3bc a4f2 4c3c 91aa 0e3e a89e 57bc
000000c0: 1ca6 a03c 189d 5abb 1524 0eb5 9442 1a37
000000d0: e64f 6735 7574 e9b3 d840 5c35 0c08 16b8
000000e0: 3c11 e2b4 c97d 06b2 b130 d5b1 a8a8 1cb5
000000f0: 7564 a8bd 7dad 9abd 9967 fc3b b4ac 633c
00000100: 8bc5 8f3c a3d6 95bc 88a1 0cbc 2362 153c
00000110: 76c0 793c 2cc7 123c 4634 843d f7ae 4a3c
00000120: ae6a 6fbb d2f8 8e3c 7a45 9ebb 170f 243c
00000130: 5733 f93b 384c 86be 02ca 64bb d071 0bbc
00000140: cc27 1dba ec41 5f3a 17a9 23ba a681 d73a
00000150: ad67 e5ba 3945 a13b 2ad9 b5ba 6b5e a039
00000160: 59eb 803a 1f54 3c3b 7ca2 0931 f5bd 2e33
00000170: 46ac 4030 52ee 19af b190 842d b7d1 81b3
00000180: fa5b 7331 a231 c3ad aed8 b62f 4495 a8b5
00000190: fd35 9fb6 a1d9 a7b5 f10c a6b1 c134 b232
000001a0: ef87 d131 b170 edb5 5d52 80b6 bf03 8830
000001b0: e6da 9aad 3e5e a2b5 3b50 11be 6688 14bc
000001c0: 62af 05bc e4b1 03bc cc69 b93b 7727 1b3c
000001d0: 9e63 8fbd bffb 3dbe d510 14be b488 e93a
000001e0: ccf5 edbb 13a9 53bb 8182 a4bc ca3d 1dbe
000001f0: c0d6 423c 26cf 92bd 8e33 463d 2eba 203d
00000200: ad07 f8bd 8b09 47bc 2874 27bc 405e 87bb
00000210: 84e2 793b fb1e 00ba 0cec 8fb8 14f7 773b
00000220: 401a 453b 386b 89b9 08a9 893a f3f1 3d3b
00000230: f8b7 23bd ec3d 363d 8b5c 77bc 0a25 af3d
00000240: a426 e43c 3e05 c13c dc96 81bd 21db 063e
00000250: b5ea 813c 8cb9 af3c b0e2 a23d 2942 fd3d
00000260: 16e4 213b 09bc 763d dd4d cabc 4007 433d
00000270: a845 5f3c 0dee 78bc d109 093d 5ac9 463b
00000280: 789b e13d 223e d93c d5d2 7b3c 017d b73c
00000290: 6b81 a0bb 93ba 023c f37a 3cbd 3bb0 7d3e
000002a0: 3343 883c 9556 133a f1cf 92bc 6cb3 ea3a
000002b0: 7037 8abb 0ef1 f8ba 0c1c 5a3b 331a 72bb
000002c0: 4808 1cbc 1105 61bc f54b 7abc 0142 e73b
000002d0: ada0 08bc eeb0 f93c 2d64 583c 1c5f d43b
000002e0: 4ed1 773a 2bce fb3a c3ad 1ebd 858c 863c
000002f0: 6a77 253c aee1 fe3a 9194 be3c 338a 4b3e
00000300: 8c3f 593c ad5d c03d a3c9 07bd a26b 9ebc
00000310: 269e e63c a825 2fbb 1fe2 be3d 33bd d83c
00000320: 617d ddbc c2c9 40be 8da3 14bd 28df 8e3c
00000330: b9c4 15bc f6d4 2f3b a78d 5b3d b3da 703e
00000340: 7aff 2fbc 3b38 36bc 153d 40bc 887d 353d
00000350: 8dfb eebb 694f cebc b563 e23a 557d 273c
00000360: 78aa e5bd b2ee 14be 815a 133e fd55 013d
00000370: 5397 e33c 14b9 30be e2e6 343b 1dd2 9cbd
00000380: 802a 92bc ede3 9e3b 11c1 913c ad37 36bc
00000390: 1714 5cbd f2b8 e8bc 2791 3bbd 1929 9f3e
000003a0: 2cd6 9d3c ae51 4a3d ac72 b63c 70f3 5c3c
000003b0: 55fd bd3d b3b2 3f3d 26d2 fabc 2c45 9f3c
000003c0: 28a4 d513 5f5b fc12 2d8a 1500 f18d 1980
000003d0: 22b3 2e80 80ca e799 c7bb 3306 9996 1a00
000003e0: 3823 1d00 3ea2 2309 eeb1 0c3d c0ef cbbd
000003f0: e4da 08bc 5fbc 42bd 1eac a0bc 31ce b63c
0.003295333 -0.2544505 0.00879257 -0.051875375 -0.010911678 0.005956381 0.017334156 -0.03776872
-0.013769795 0.0020896096 -0.0027575167 0.0899203 -0.020877298 0.10427565 0.0065949745 -0.011688753
-0.07971576 0.014687413 0.0073759374 -0.0050301817 0.055189453 -0.09130923 0.033585176 -0.018205432
0.014486609 -0.073281415 0.006612315 0.17240326 0.028599089 -0.008988719 0.046816982 -0.20900007
-0.0037480455 -0.20788924 -0.012521057 0.018388065 -0.010142113 -0.0012806025 0.031724844 -0.0013522705
-0.042972516 -0.220971 -0.025617577 -0.04101682 -0.029744675 0.012509022 0.13932253 -0.013160385
0.019610457 -0.0033357795 -5.295163e-07 9.194617e-06 8.6170473e-07 -1.08710914e-07 8.2050747e-07 -3.577028e-05
-4.210832e-07 -7.828427e-09 -6.2046515e-09 -5.8359956e-07 -0.08222286 -0.075526215 0.0077027795 0.013896156
0.01755025 -0.018290823 -0.008583434 0.009117636 0.01524364 0.008958619 0.06455283 0.012370816
-0.0036532092 0.017452631 -0.0048300596 0.010013363 0.007604997 -0.26230025 -0.0034910445 -0.008511022
-0.0005995005 0.0008516598 -0.0006243153 0.0016441836 -0.0017502211 0.004921582 -0.0013873924 0.00030587925
0.0009835764 0.0028736664 2.0028486e-09 4.0685297e-08 7.009401e-10 -1.3999937e-10 1.5070918e-11 -6.0451775e-08
3.5413437e-09 -2.2190975e-11 3.3259567e-10 -1.2560417e-06 -4.7448543e-06 -1.2505808e-06 -4.832707e-09 2.0745917e-08
6.0981544e-09 -1.7690674e-06 -3.8242856e-06 9.896367e-10 -1.7604983e-11 -1.2097369e-06 -0.14190762 -0.009065723
-0.00815949 -0.008038018 0.005658364 0.009469858 -0.07001422 -0.18553065 -0.14459546 0.001781723
-0.0072619673 -0.003229682 -0.02008176 -0.15355602 0.011892021 -0.07168417 0.04838901 0.039240055
-0.12110839 -0.012148271 -0.010220565 -0.0041311085 0.0038129399 -0.0004887429 -6.8627385e-05 0.003783648
0.003007546 -0.0002621056 0.0010502646 0.0028983324 -0.03997037 0.044492647 -0.015097748 0.085519865
0.027850457 0.02356207 -0.06327602 0.13169529 0.015858987 0.02145078 0.079533935 0.12366135
0.00247026 0.060237918 -0.024695331 0.047614336 0.013627447 -0.0151934745 0.033456627 0.0030332417
0.110159814 0.026518885 0.0153700905 0.022398474 -0.0048982403 0.007979053 -0.04601569 0.24774258
0.016633606 0.00056205067 -0.01792142 0.0017906255 -0.0042180344 -0.0018992738 0.0033280877 -0.0036941885
-0.009523459 -0.013734118 -0.015276899 0.007057429 -0.008339089 0.030479874 0.0132074775 0.0064810645
0.0009453491 0.0019211223 -0.03873993 0.016424427 0.010099271 0.001944592 0.023264201 0.19876938
0.01325978 0.09392867 -0.03315128 -0.019338433 0.028151583 -0.0026725326 0.09320473 0.026457405
-0.027037324 -0.18826964 -0.036288787 0.017440394 -0.009141141 0.0026829815 0.053601887 0.23520927
-0.010742063 -0.011121805 -0.011733313 0.04430917 -0.007293171 -0.02518435 0.0017272147 0.010222753
-0.11214155 -0.1454418 0.14389993 0.031576145 0.027782118 -0.17258102 0.0027603437 -0.076572634
-0.017842531 0.004848948 0.017792257 -0.011121673 -0.053730097 -0.028408501 -0.045792725 0.31086043
0.019267164 0.049394302 0.022271477 0.013485774 0.09276835 0.04680128 -0.030617785 0.019442163
5.393063e-27 1.5925961e-27 1.978114e-39 -2.346806e-39 -4.288694e-39 -2.396663e-23 3.3804115e-35 2.441747e-39
2.675863e-39 1.9696697e-33 0.034349374 -0.09957838 -0.008352969 -0.047542926 -0.019613322 0.022315117

model.0.bias f4 [256]
00000000: f1e1 5ab5 7131 49b5 0efe ce34 cd45 12b6
00000010: a83f 6735 7824 f900 f279 4cb4 6852 a4b4
00000020: eb2f c72b c913 3780 7a60 3c00 abaa 9fb5
00000030: 4008 2a31 a078 ac00 0462 22b5 927e 0234
00000040: 6f9e 4736 0ad3 0e31 e14e 8033 26ae 90b6
00000050: e661 ba36 4bb8 4eb6 9005 1db5 95a5 1c36
00000060: ebb5 3f00 b2e8 9d34 9eda 79b5 20f1 8180
00000070: 14dc 63b6 9066 dcb5 a6d7 66b3 3af6 8c35
00000080: 36a7 e481 8083 5701 80a9 02b1 55d4 fcb5
00000090: b82a 5835 58ac c3b4 4082 1417 05f7 0280
000000a0: 8636 8434 ba34 0536 04a3 87b4 a6e7 8881
000000b0: 2406 7680 e1d1 35b5 1fcd 42b6 6871 25b4
000000c0: 4e0f 0100 d22b 81b5 f8e6 df35 32cf 8db6
000000d0: 5287 aab5 61f3 92b4 9838 cbb6 4f0d 1fb5
000000e0: 3e0b 7eb3 3c98 95b2 0973 a235 2261 e0b5
000000f0: 20c3 96b2 0783 22b5 5abe 5ab2 1084 34b5
00000100: 546a b035 0050 58b5 65f6 a9b5 5aaa 25b5
00000110: a07c 28b1 648d 4db5 7a8f 0701 20e2 e7a7
00000120: 060f bc36 97bc 9736 14bc 6229 afe7 96b5
00000130: f95d bf35 55ea 1600 3ea1 f9b5 0033 1b14
00000140: 1a91 4eb4 96a3 b636 81bf 03b5 6c56 ef35
00000150: 1dad 972e 1e25 7f37 2688 fcb3 bd21 d3b5
00000160: fd07 9c31 6443 2587 302d 88b3 183d 06af
00000170: b9e8 8533 30c3 3cb3 589f f734 1250 0900
00000180: a05d 31b6 d852 bcb3 30b8 a933 de77 35b6
00000190: 24a3 0a15 365d cab3 3aca 7ab5 822f 3335
000001a0: 9e52 2eb5 9877 1eb5 0821 1f36 cc1b ebb4
000001b0: 2705 54b5 5c38 2bb6 08e2 380a 468a 0fb6
000001c0: 18a9 ea35 1e29 a5b3 86ed 1c37 254f a835
000001d0: 65bd 2c80 2c4e 27b5 94ff d3b4 0f31 9f34
000001e0: 6531 09b5 b904 ddb4 ee88 73b5 326c 7bb6
000001f0: e4bc 57b6 5461 8eb3 16c7 5501 1b64 4400
00000200: bc5d 7fb4 790e 37b5 8404 1f36 9f00 6e36
00000210: 1c1e 0835 b710 2d36 56f2 3f16 8878 42b5
00000220: 78ea a281 6cae 6689 dc65 8e36 8fa0 7b35
00000230: 9414 d1b3 a4fc 2b35 48e3 59ae c181 8fb5
00000240: 654c 6b35 b11c 4a80 d705 7235 6193 a133
00000250: da53 98b6 fe32 d834 8573 0335 6b8c eab6
00000260: da8c 98b5 ca6f ed35 ea8a 9234 a50d 99b5
00000270: 3096 a734 ce6f f230 b8f3 3234 a067 da35
00000280: 52ce e3b5 ce4a 2501 d9c8 7fb5 2477 3d36
00000290: e94d 8636 885a b135 f6bb 8836 78f8 2236
000002a0: c042 f131 5c15 1436 5c09 afb5 cbd2 09b6
000002b0: 1c2f a5b4 f7db 83b6 00a9 dfb4 c1bb ef34
000002c0: 2060 b200 d723 c3b6 0940 8636 e0f1 4bb5
000002d0: 0996 8835 c092 dcb3 4c6a ca01 28f2 d8b2
000002e0: edab 661e 44e2 bfb6 e94d 87b5 f644 01b6
000002f0: dc97 a235 e0d3 30b0 a602 3830 6c76 0830
00000300: beb5 b535 f0a3 4c97 5bc7 25b7 4cbd 2735
00000310: 187b 63b4 d55b 1037 5ab4 47b6 76bb 93b6
00000320: 6f0c 2180 eff1 1936 2bb2 2cb2 e203 84b5
00000330: 8019 adb5 2978 0cb5 ee75 f734 88fb 90b4
00000340: 847f 0c00 eea1 0b36 59e2 9bb5 2ee5 3220
00000350: 6af3 4e36 c6f4 8e01 102c 6e34 50e4 48b4
00000360: 6c78 18b4 69cc 1bb5 2d45 a3b5 a8fe 47b5
00000370: 12e2 fe35 b575 6535 80d5 4281 38c8 2734
00000380: aa57 a1b6 3813 68a8 f520 1d01 782f e4b4
00000390: f3f7 4b34 a032 2034 973c 6f33 c8fe 4ab4
000003a0: 705e a135 4d47 1402 6872 bdb4 f6c0 96b6
000003b0: 04a0 18b5 eea9 7036 e5e3 9036 3d78 38b6
000003c0: e8eb 8501 7a7b 73a8 cc1e 3034 a50f 00b6
000003d0: ab9f f5b3 45be 7904 6b39 cf35 b737 668f
000003e0: f060 0036 6c57 058a 9095 cd30 22ce 2eb7
000003f0: fada b400 d002 a233 6849 ae30 5681 f735
-8.1540117e-07 -7.495028e-07 3.855534e-07 -2.1796325e-06 8.614684e-07 2.2880121e-38 -1.9043344e-07 -3.060734e-07
1.41531e-12 -5.05805e-39 5.544739e-39 -1.1896094e-06 2.4742945e-09 1.5838977e-38 -6.0492334e-07 1.215324e-07
2.9745531e-06 2.0783681e-09 5.9748125e-08 -4.311808e-06 5.554629e-06 -3.0803665e-06 -5.849515e-07 2.3342193e-06
5.850896e-39 2.9412837e-07 -9.307786e-07 -1.1933278e-38 -3.3953738e-06 -1.6421127e-06 -5.374718e-08 1.0502474e-06
-8.399391e-38 3.958361e-38 -1.901384e-09 -1.883726e-06 8.0528434e-07 -3.6446977e-07 4.798578e-25 -2.72285e-40
2.4626587e-07 1.9849235e-06 -2.526432e-07 -5.029091e-38 -1.0838791e-38 -6.773317e-07 -2.902765e-06 -1.540808e-07
9.7326e-41 -9.624002e-07 1.6682015e-06 -4.226248e-06 -1.270537e-06 -2.73717e-07 -6.05646e-06 -5.925148e-07
-5.9149208e-08 -1.7415111e-08 1.210342e-06 -1.671757e-06 -1.755103e-08 -6.054037e-07 -1.2732551e-08 -6.72474e-07
1.3143967e-06 -8.0582686e-07 -1.2663191e-06 -6.1715184e-07 -2.4518059e-09 -7.65742e-07 2.4898523e-38 -6.4360545e-15
5.6045856e-06 4.5221054e-06 5.0345212e-14 -1.12433e-06 1.4257959e-06 2.104443e-39 -1.8598873e-06 7.835558e-27
-1.9238033e-07 5.4430666e-06 -4.907998e-07 1.783204e-06 6.897436e-11 1.5207826e-05 -1.175943e-07 -1.5730544e-06
4.5411057e-09 -1.2433025e-34 -6.341213e-08 -1.2208934e-10 6.235627e-08 -4.3949683e-08 4.6123273e-07 8.55243e-40
-2.6429552e-06 -8.7695014e-08 7.903179e-08 -2.7040874e-06 2.7997573e-26 -9.423313e-08 -9.3426536e-07 6.675183e-07
-6.4940275e-07 -5.903362e-07 2.3712073e-06 -4.3792386e-07 -7.898365e-07 -2.551379e-06 8.9017895e-33 -2.1389146e-06
1.7483571e-06 -7.6908904e-08 9.353627e-06 1.254001e-06 -4.108704e-39 -6.2326103e-07 -3.948777e-07 2.9651753e-07
-5.1108356e-07 -4.1167894e-07 -9.0723813e-07 -3.7464893e-06 -3.2147445e-06 -6.630094e-08 3.9264759e-38 6.280725e-39
-2.3782826e-07 -6.8193873e-07 2.3695475e-06 3.5465125e-06 5.0707763e-07 2.5788738e-06 1.5505325e-25 -7.244603e-07
-5.984585e-38 -2.7767256e-33 4.2437878e-06 9.373843e-07 -9.736064e-08 6.4070105e-07 -4.9541954e-11 -1.0692094e-06
8.765549e-07 -6.806119e-39 9.0160523e-07 7.523955e-08 -4.5397146e-06 4.0270237e-07 4.8969406e-07 -6.9900902e-06
-1.1365876e-06 1.7690411e-06 2.7295692e-07 -1.1403359e-06 3.121545e-07 1.7639594e-09 1.6666206e-07 1.6272425e-06
-1.6972865e-06 3.0359383e-38 -9.5287174e-07 2.8232544e-06 4.002581e-06 1.3213876e-06 4.0749974e-06 2.428451e-06
7.0216117e-09 2.2066151e-06 -1.304124e-06 -2.0537288e-06 -3.0767922e-07 -3.9297115e-06 -4.165995e-07 4.4653828e-07
1.6381201e-38 -5.815625e-06 4.000966e-06 -7.597537e-07 1.0176456e-06 -1.0271242e-07 7.435561e-38 -2.525583e-08
1.2211652e-20 -5.7185844e-06 -1.0080959e-06 -1.9262638e-06 1.2114137e-06 -6.432952e-10 6.6942574e-10 4.96448e-10
1.3538445e-06 -6.6122873e-25 -9.881182e-06 6.248781e-07 -2.1185804e-07 8.60445e-06 -2.975829e-06 -4.4027647e-06
-3.035032e-39 2.29396e-06 -1.0052228e-08 -9.835896e-07 -1.2896926e-06 -5.232892e-07 4.609314e-07 -2.7005103e-07
1.14777e-39 2.080687e-06 -1.1614276e-06 1.5153016e-19 3.0838078e-06 5.2513794e-38 2.2181507e-07 -1.8709511e-07
-1.4199912e-07 -5.8039456e-07 -1.2164579e-06 -7.450385e-07 1.899027e-06 8.5480434e-07 -3.578535e-38 1.5625926e-07
-4.8083793e-06 -1.28827545e-14 2.885999e-38 -4.2502847e-07 1.8996052e-07 1.4919578e-07 5.570163e-08 -1.8905405e-07
1.202292e-06 1.0893785e-37 -3.5287235e-07 -4.492812e-06 -5.6857266e-07 3.58617e-06 4.318065e-06 -2.7488124e-06
4.9194993e-38 -1.35159845e-14 1.6402481e-07 -1.9082593e-06 -1.1437745e-07 2.9357177e-36 1.5439413e-06 -1.1350606e-29
1.9129911e-06 -6.420159e-33 1.4958221e-09 -1.0419202e-05 1.6608943e-38 7.5442244e-08 1.268103e-09 1.8440576e-06

model.1.weight f4 [256]
00000000: 980c d73d b9d5 8e3d 30fc e23d 54e6 233e
00000010: 86e8 2f3e c03d 3838 8721 4a3d 110f f23d
00000020: 2e4d 1eba 3cf6 81b6 24ab 1036 55cf 003e
00000030: 81f2 c93d e260 533a 8e82 6f3d 7d0c 513d
00000040: 4450 ee3d 0e04 143c 0c93 9f3c 980a ea3d
00000050: f54e 673e ad24 c43d 7a10 dc3d a28b 213e
00000060: d565 2400 6409 2e3e e4fc 183e ed2a 8b36
00000070: f4bd e73e 3198 f83d 8d00 4b3d ad3b e53d
00000080: fcb8 a231 47a2 a637 a2f4 8d3c 08ed 293e
00000090: 710e 223e 4ffe c63d 77c0 4b3a 51af 0880
000000a0: 4d33 a13d 2b37 ab3d 48e8 f73d 99da bf1a
000000b0: 6cf6 f23a 9956 513e 7d71 c63e a39d 423e
000000c0: 7bed 0c80 fe13 bc3d 09f1 3c3e e8f9 413e
000000d0: 1ae5 9d3d b034 de3d fe5a 083e 2307 9e3d
000000e0: 03ec b13c 0821 ed3d 2bc4 593e b9a1 c13d
000000f0: 3ec4 a13d 156b c53d bd50 6b3c 1c7e 063e
00000100: b6e3 e73d 22f4 f33d 1af8 0d3e 29ca 3e3e
00000110: e0b0 483d 919b a23d 7b67 f730 cdf3 2a3a
00000120: e98c fa3d ddb4 d83d 4f47 803a 41b7 303e
00000130: 4a41 aa3d 9528 1900 d410 cf3d 3c2b ce39
00000140: 65f7 0e3d 26eb 543e 9b15 963d 40f0 333e
00000150: 97a6 cc3a 4848 a03e b1e9 0a3e a5c9 0b3e
00000160: fc94 013c e506 3ab8 a1c8 533e 5570 c73b
00000170: bb0b 623d c16d 6b3e 226c 6c3e 3d57 5f30
00000180: 1b0a 113e 3e9d 4a3e 5cf0 d23d 0740 783e
00000190: adc9 32b8 5e98 cb3c e0ef 973d 9c76 f93d
000001a0: 4170 0f3e 3702 5d3e 9df8 793e 494e 0e3e
000001b0: cc08 583e 6b00 8e3d b39d c9b8 1c7d f63d
000001c0: 4eb3 373e c45a f63d 327f b83e d718 603e
000001d0: ccf9 7716 60b6 2f3d a540 643d 3f80 e03c
000001e0: ac99 9b3d 5654 213e fcc7 1d3e 2ca3 133e
000001f0: c405 233e a346 653e d694 ee39 45a3 3b2f
00000200: 0e14 5f3d 16f6 573e 746b b43e c332 de3d
00000210: e48d 303e 7466 4b3e a77e 1033 0402 ff3d
00000220: 9714 a1b3 8823 2c39 963b ea3d c609 3b3e
00000230: edaf 333e 6202 ec3d dca0 433b 17a2 bf3d
00000240: 0f4b a33d e154 8135 7ae2 bf3d 11cd c83d
00000250: 6303 473e 11eb b83d 60e8 e53d c27c e13e
00000260: 038c 4b3e a01d 303e ea4e 013e 232f f23d
00000270: baea e73d 630c 2b3d 181e 2f3e 6c91 2e3e
00000280: bbc7 143e 7ee1 482b b78d 373e 1bd1 793e
00000290: d16e 123e b84b 103e 4072 ab3d ceff ac3d
000002a0: 710a f43d 3707 193e 157f 5b3e e200 1f3e
000002b0: 511e b13d b701 263e 7518 ba3e 5f77 8a3d
000002c0: ab7d 6032 ce7f 0e3e 2b81 113e eca6 943d
000002d0: 424e 673e 45bd da3d 9a6d 8e2e 8c59 273e
000002e0: 4615 1737 d818 213e 56cf 033e 2d12 a73d
000002f0: 4148 2b3e 4e00 a43c 7524 893c 2fa0 60bc
00000300: 5a73 163e a4e5 9537 d3ff 483e c22a e43d
00000310: a133 6f3e 50db 453e 66d7 5f3e b5c6 f13d
00000320: 496f 0639 5d17 033e e2a8 083d 1d8c 1b3e
00000330: 0238 0c3e 9dca af3d 8fa0 243d 9331 0f3e
00000340: ae8e 15b4 4b7f f63d 19b8 773d 00b0 e03a
00000350: a916 673e d8c4 00b6 efee 073e de09 473e
00000360: 5fa3 383e 2a5d d13d 9284 293e b81e c03d
00000370: 3e95 d83e 40f0 783e f43c 1cb5 b86f c23d
00000380: 9751 423e 623c d13b d0ba 6c24 3830 ac3d
00000390: ff00 073d 22d8 063e 695b 043d 321e d23c
000003a0: ddc1 d53d 8fb3 8633 0b06 c93d 7df6 1c3e
000003b0: 1e85 da3d c97b 703e 5745 5c3e cb30 993d
000003c0: bb1d 1437 8baf 0a3a 7851 e43d fe02 af3d
000003d0: 3b47 953d e68d 3939 1328 af3d e873 02af
000003e0: d3e7 af3d cbf6 2938 1334 d8bb 7e95 813e
000003f0: 1a27 2fb7 be12 643d e27a 5dbb 3ec3 f43d
0.10500449 0.06974358 0.11083257 0.16005832 0.17178544 4.3926528e-05 0.04934838 0.1181928
-0.00060387223 -3.873165e-06 2.155729e-06 0.12579091 0.09860707 0.0008063448 0.058474116 0.0510373
0.11636403 0.00903417 0.019479297 0.11427802 0.22588713 0.09577308 0.1074533 0.15775922
3.342608e-39 0.1699577 0.1494022 4.14752e-06 0.4526211 0.12138403 0.049561072 0.11193023
4.735851e-09 1.9864308e-05 0.017328564 0.16594326 0.15825821 0.09716474 0.0007772515 -7.97576e-40
0.07871113 0.08360132 0.12104851 7.934891e-23 0.0018536574 0.2044319 0.3875846 0.19005446
-1.187218e-39 0.09183501 0.18451323 0.18942988 0.07709713 0.10849893 0.13315961 0.07716205
0.021718984 0.11578566 0.21266238 0.09454674 0.07898758 0.09639565 0.014362511 0.13134044
0.11322729 0.11911799 0.13864174 0.18631805 0.048996806 0.07939828 1.8001026e-09 0.00065213145
0.12233908 0.10581372 0.0009786877 0.17257406 0.08313234 2.310445e-39 0.101106316 0.00039323594
0.034903903 0.20792827 0.0732834 0.17572117 0.0015613612 0.31305146 0.13565709 0.1365114
0.007909056 -4.4352277e-05 0.20682003 0.006086389 0.05518697 0.22991087 0.23088124 8.12509e-10
0.14164011 0.19786546 0.10299751 0.24243174 -4.2626332e-05 0.024852928 0.074187994 0.12180826
0.14007665 0.21582876 0.24411245 0.13897051 0.21097106 0.069336735 -9.613801e-05 0.120355815
0.17939493 0.12029031 0.36034542 0.21884476 2.0031323e-25 0.042898536 0.055725712 0.027404903
0.0759767 0.15754828 0.15408319 0.14417714 0.15920168 0.22390227 0.0004550579 1.7065556e-10
0.054462485 0.21089968 0.3523823 0.10849526 0.17241627 0.19863302 3.3642802e-08 0.12451556
-7.500892e-08 0.00016416435 0.11437146 0.18265447 0.17547579 0.11523892 0.0029850518 0.09357088
0.07973301 9.635952e-07 0.09369369 0.09804738 0.19434886 0.0902921 0.11225963 0.44040495
0.19877629 0.17198801 0.1262776 0.11825397 0.113240674 0.04175986 0.17101324 0.17047662
0.14529316 7.1367207e-13 0.17925154 0.24396174 0.14300086 0.14091384 0.08371401 0.08447228
0.11916054 0.14944158 0.21435197 0.1552768 0.086483605 0.16211592 0.36346784 0.067610495
1.306709e-08 0.13915941 0.1420943 0.072584 0.22588447 0.106806315 6.4768815e-11 0.16342753
9.0052545e-06 0.15732133 0.12872061 0.08157764 0.16726781 0.020019677 0.016741017 -0.013710066
0.1469244 1.7869119e-05 0.19628839 0.11140968 0.23359539 0.19321942 0.21859512 0.118054785
0.00012820693 0.12801881 0.033364184 0.15190168 0.1369324 0.08583567 0.040192183 0.13983755
-1.3928613e-07 0.12035998 0.060478304 0.0017142296 0.22567238 -1.9188064e-06 0.1327474 0.19437358
0.18031071 0.10222848 0.16554478 0.09380859 0.42301363 0.24310398 -5.8203227e-07 0.09493965
0.18976437 0.006385372 5.133258e-17 0.084076345 0.032959934 0.13168386 0.032313738 0.025649164
0.10437367 6.272523e-08 0.09815606 0.15328403 0.10669921 0.2348472 0.21510826 0.0748001
8.82841e-06 0.000529044 0.111483514 0.085454926 0.07288977 0.00017695836 0.085525654 -1.1864609e-10
0.08589139 4.0522584e-05 -0.0065980046 0.25309366 -1.0439917e-05 0.055681936 -0.0033795168 0.11951302

model.1.bias f4 [256]
00000000: 8b9c 9bbd fd8d 42bd 61e7 12be d68f 35be
00000010: 4b65 60be 6826 a6b8 7081 a9bc 877a c9bd
00000020: 46d0 07bc 9f87 63b6 a78f 8bb5 5b54 823d
00000030: ebbc 09be ccdc 5ebc d71e 4b3d a01b cfbd
00000040: 5071 c1bc 6442 90bc 27cc e4bc 16df 0dbe
00000050: 4cb7 75be 65a7 85bc a08c 90bd d6cd 48be
00000060: 83d1 c880 c568 66bc 9c64 6fbe febe 65b7
00000070: 4f5e a8bd 806a 7bbe e360 c03c c964 e5bd
00000080: 5eba 7ab2 642c 0cb6 ce6a 1abd 3156 36be
00000090: e5a8 38be 9cb6 dabd 9880 01bb 4325 5185
000000a0: 9a26 dabd 4c93 093c e2ae 25be 89b9 9fa0
000000b0: d19f 78bb 005c 723d c88a 03bd 4eda a8be
000000c0: 1260 c090 a8d3 14be 3487 c8bd 6c49 2ebe
000000d0: 4fc4 9ab8 114b e5bd f2b9 e4bd 2439 413d
000000e0: bf8e 82bd 3ca3 41be 2eeb 2c3d 0e1e 0dbd
000000f0: df3f 00be c157 cabd 6bee 35bd bf91 ef3c
00000100: 3df3 adbd 4954 fb3c 5542 5cbe 2112 f8bc
00000110: 4d20 bdbd 26fb 0fbe 17e0 dcb1 f30b 89bb
00000120: 2fbc c0bd ca81 9f3d 5312 28bb fda2 f7bd
00000130: 18f0 69bd 449c 1f80 914b 63bb 7f6e e3ba
00000140: 2b8c b9bb f005 2fbe 58ea e43c 4325 533a
00000150: ce87 a0bb 23bb 90bc 1d15 6dbe 9c5f 1cbe
00000160: 9292 06bd bcfa 88b9 2f47 71be ccba ffbc
00000170: 51a6 eebd d110 18bd a5f8 8bbd 8463 23b1
00000180: 5249 863c 8df1 61bd 5392 94bd a2c6 70bd
00000190: ddd0 bbb9 5f0a abbc 60c7 68bd 67c8 6bbc
000001a0: 5bb4 23bd cef6 6abe 356e 29be fc0c efbd
000001b0: 9fec d4bd d8e1 113d 39d8 94ba d3b5 59be
000001c0: 4941 a0bc a747 e8bd 2b77 96bd 8b1c c2bd
000001d0: 1fab 4d88 04d1 ccbb c157 a0bd f344 fa3c
000001e0: 9892 f7bd d18e b2bd 9da5 dcbd c4d7 e93d
000001f0: a4a4 823d ccf1 2fbd b33c 13ba c485 35a7
00000200: 6650 d1bc 4a67 34bd 48ca 38bd 6def 593c
00000210: 1663 3abe 909a 82be 93dc 86ab e243 54be
00000220: 0c9b ceb2 da31 e6b8 6426 e83b 99d5 293d
00000230: de19 4ebe cb5b 56be a149 8ebb bb4b 23be
00000240: 5507 06bd 04cb 76b6 0570 16bd 96b2 98bd
00000250: c5f0 363d ca25 843d 4f1f a1bd e5a4 32bd
00000260: 30e4 08bd a664 95bd 7fab 9ebd efe8 23be
00000270: 166c eabd 204f bdbd d9e5 f7bd 7e42 c3bd
00000280: 4ba5 4ebe b655 b4ab ca52 7fbd 089e 61be
00000290: 4120 963d 9fac 83be 3209 9bbd 0feb 9bbd
000002a0: 00ba 9bbd e6c2 c1bd 5444 413c 9052 c2bc
000002b0: 3f16 90bd 119e f9bd d1d4 10bd e907 c7bd
000002c0: cc08 29b0 b9bd 96bd 705c e63c b066 d2bb
000002d0: 13f8 45be 5f3b 21be 2af4 95b0 03d6 cfbd
000002e0: 8647 a0b4 8267 86bd bae5 f3bd 3b1d b4bd
000002f0: 7f99 c1bd 6b0a 6cbd 5205 03bd 8a4d c2bc
00000300: 7ca6 19be 496c 02b7 7ae2 0bbe ab05 d9bc
00000310: 08b6 b6bd ffbf 35be 988e 8ebc 6067 1fbe
00000320: f192 c2b7 2d6d 41be d2d7 2ebd 340c 2fbe
00000330: 1c66 6cbe 3455 983d 2ac5 01bd eb09 3abe
00000340: 20b4 87b4 142f 7abd 4689 8dbd a7b5 37bb
00000350: 888e 3c3d 7b12 1bb2 ab24 f0bd ff76 2abe
00000360: d44a a1bd 9778 63bd 8a0e 21be 99a5 19be
00000370: dae9 95bd 4297 2dbe f3a2 e5b4 652e 9ebd
00000380: 6a01 96be f01b 9fbc d53a 09a2 0643 9dbd
00000390: adb9 64bd e4aa cdbd a5d2 aebd b00f 86bb
000003a0: 450a 25be 452a e5b3 b6c8 dd3c 798c abbd
000003b0: 05fd 34bd 2029 363d d093 40be 1a2e 1dbd
000003c0: b876 83b7 cbb1 b6ba 9687 b0bd 1330 d1bc
000003d0: 0cb8 0bbe 14ed 48b8 2079 0f3d 2c5f f3a4
000003e0: a4be 8abd d082 9eba 0495 01bd 20e7 55be
000003f0: daa7 eab8 68b0 dabc f831 0cbd 1146 67bd
-0.075982176 -0.04749869 -0.14346077 -0.1773065 -0.2191364 -7.9226505e-05 -0.020691603 -0.09837823
-0.008289402 -3.3904578e-06 -1.0398115e-06 0.06363746 -0.13450973 -0.013602447 0.049589958 -0.10112691
-0.023613602 -0.017609783 -0.027929379 -0.13854632 -0.23995703 -0.016315171 -0.07058072 -0.1960977
-1.8442258e-38 -0.014063065 -0.23378223 -1.36939325e-05 -0.08221113 -0.24552345 0.0234837 -0.11200864
-1.459429e-08 -2.0887464e-06 -0.037699513 -0.17806317 -0.18033178 -0.10679361 -0.0019760486 -9.833977e-36
-0.10651894 0.008396935 -0.16179994 -2.7058425e-19 -0.0037937055 0.05916977 -0.032114774 -0.32979053
-7.5878667e-29 -0.14533865 -0.09791413 -0.17020196 -7.3798576e-05 -0.111959584 -0.11168279 0.047173634
-0.06374883 -0.18909925 0.042216472 -0.03445249 -0.12524365 -0.09880019 -0.044416826 0.029244302
-0.0849366 0.030679839 -0.21509679 -0.030282082 -0.092346765 -0.1406065 -6.4283188e-09 -0.0041823327
-0.09410893 0.07788427 -0.0025645688 -0.120916344 -0.057113737 -2.902958e-39 -0.0034682492 -0.0017351656
-0.0056624613 -0.17092109 0.027943775 0.00080545637 -0.0048990017 -0.017667359 -0.23152585 -0.15270847
-0.032854624 -0.00026126753 -0.2356231 -0.031217001 -0.11652816 -0.037125412 -0.068345346 -2.377619e-09
0.016392384 -0.055162 -0.07254472 -0.05878318 -0.00035823035 -0.020878969 -0.056830764 -0.014391041
-0.039966922 -0.22945711 -0.16545947 -0.116723984 -0.103966944 0.035615772 -0.0011355943 -0.21260767
-0.01956238 -0.113417916 -0.07346948 -0.094781004 -6.1891095e-34 -0.0062505025 -0.07829238 0.030550456
-0.120885074 -0.08718646 -0.10773776 0.11418107 0.06379059 -0.042955205 -0.000561665 -2.519131e-15
-0.025551032 -0.044043817 -0.045114785 0.013301712 -0.18201861 -0.25508547 -9.582494e-13 -0.2072902
-2.4052063e-08 -0.0001097654 0.0070846546 0.04146347 -0.20127055 -0.20933454 -0.0043422733 -0.15946858
-0.032721836 -3.6775027e-06 -0.036727924 -0.074559376 0.04466321 0.0645252 -0.078673 -0.043614287
-0.03342074 -0.07294588 -0.07747554 -0.16006826 -0.11446397 -0.092436075 -0.12104387 -0.09534167
-0.20180242 -1.2813559e-12 -0.062334813 -0.2203294 0.07330371 -0.25717637 -0.07570113 -0.07613193
-0.07603836 -0.09461002 0.011796076 -0.02372101 -0.07035493 -0.12188352 -0.035359208 -0.097183056
-6.1494343e-10 -0.073604055 0.02812025 -0.0064209327 -0.19332914 -0.15745305 -1.0910572e-09 -0.10148241
-2.9854363e-07 -0.06562711 -0.11909051 -0.08794638 -0.09453105 -0.057627123 -0.031987496 -0.023718614
-0.15004915 -7.773816e-06 -0.13660613 -0.02649196 -0.089214385 -0.17749022 -0.017401978 -0.15566778
-2.3195027e-05 -0.18889304 -0.04268629 -0.17094499 -0.23085827 0.07438126 -0.03168217 -0.18167846
-2.5276768e-07 -0.061080053 -0.069109485 -0.0028031857 0.046034366 -9.026389e-09 -0.11725744 -0.16646956
-0.078756005 -0.055534925 -0.15728202 -0.15004577 -0.07319994 -0.16952232 -4.2773135e-07 -0.07723693
-0.29297954 -0.019422501 -1.8598108e-18 -0.07678799 -0.055841137 -0.100423604 -0.08536271 -0.0040912256
-0.16117199 -1.0671332e-07 0.027073245 -0.083764024 -0.04418661 0.044472814 -0.18806386 -0.038374044
-1.56717e-05 -0.0013938484 -0.08619611 -0.025535619 -0.13644427 -4.7904512e-05 0.035027623 -1.0554568e-16
-0.06774643 -0.0012093429 -0.031636253 -0.20888948 -0.00011189254 -0.026695445 -0.03422734 -0.056463305

model.1.running_mean f4 [256]
00000000: 459d 81ba cc51 033a 3de5 babb 88f0 b6ba
00000010: 93eb efba 0752 72b5 202b e2b9 5931 333b
00000020: 2cde 2739 52e4 8cb2 df01 21af fdde ce3b
00000030: 8ede 21ba b6cf 1839 fd40 6839 bfbd 4f3a
00000040: 4c0e 6abb 02ec 293a 9ef0 4839 7808 85ba
00000050: 5ce0 82bb b352 c33a c0a5 54ba d6ac 113b
00000060: 90a3 5597 4092 0cbb ebcc f0ba ffd9 4fb3
00000070: be45 843b c1bd 13bb bfe9 673b 119d 72ba
00000080: 1f48 23b2 da7c 4932 a268 4db9 2c13 303b
00000090: 5971 2a3b 50b4 6d3b 3bcd dd36 5774 0280
000000a0: 730f 0abb e1dd 163b c080 d938 f885 9324
000000b0: 8857 1db7 f02f dc3b 79d8 463b a8fe 113a
000000c0: a1bf 7808 bf13 aa39 067f 753b d588 143b
000000d0: 40d0 a63b 71bd 293b b2c1 903b d9d7 163b
000000e0: 7408 403a 4c55 153b 86b9 da3b ea96 263a
000000f0: 0abc 413a bfea 433b 1185 bbba d78a 8f3a
00000100: e805 11bb 3876 0fbb d80b deba be14 4b3b
00000110: ae0a a9b9 3321 723a 0fc8 5332 b8c7 21b9
00000120: 05ac 1a3b 6c2a 293b 4335 8b36 5dcf f23a
00000130: ecac 5e3a 246c 1600 34c4 8cbb cf36 50b6
00000140: 949a ab3a 068d ae3a 61fb d63a ba40 8dbb
00000150: 405a 3737 b122 373b a59e 1d3a 1fe2 033b
00000160: deb0 84b9 be6e 8736 16af a238 c255 8039
00000170: 4fa5 23bb 413e 343b b3cd 843b ab4f c12d
00000180: 4b01 723b 4fc3 0d3b 9a97 ee3a e396 4d3b
00000190: c6fc 7633 4120 61ba 87de 23ba fbc7 023b
000001a0: 497d 4eba f842 b53a 2157 333a 88ae b53a
000001b0: 61ce 4b3b a3ae 5c3b 4104 a937 4c93 04bb
000001c0: 949a e03a b795 903b ac77 953b ba20 303b
000001d0: 2912 1d20 5451 10bb 761a aeba 3723 8dba
000001e0: 4720 493a 7cbc 623b bea2 19ba 5389 c03b
000001f0: 95d0 c83b c251 243b bca9 3235 fd4e f729
00000200: 880b f93a 0f38 1a3b 0125 423b 9760 4cbb
00000210: 8ccb 4c3a c705 2739 4a92 862f 2312 28bb
00000220: 6783 1632 907c b635 b49d 67bb a92d b83b
00000230: 11de 6cba 9023 d0b9 8f0f 94b6 bbfd 7eb9
00000240: f445 74ba 9b85 b134 0981 85bb f137 1f3a
00000250: 3437 993b 9517 913b 2d4f 20bb de01 623b
00000260: 82fb 1a3b 8fd6 4c3a e92e ba3a 2584 aa3a
00000270: 821b 123b d12d 51b9 cfac 903a a0dd 1d3b
00000280: 2516 943a 1b5a ed2b 3110 3aba bbda b23b
00000290: eafb cd3b 9d01 67ba d173 a3b9 7390 9aba
000002a0: 3d43 a1bb 9f5b 723b 5583 db3b 7397 40ba
000002b0: eeb8 56b8 dbaa 813a 21e4 713b 2c87 ceb9
000002c0: f76f 9431 bb7a 4f3a 6f55 123b 14d9 043b
000002d0: 38b7 213b fbfc e0ba 86ae a32e 5c77 413b
000002e0: 222f a133 5d0c aaba b481 3abb b3a0 853a
000002f0: 732a 403a d5a4 673a f71c 2f39 1ab6 9839
00000300: 97bd 80ba c120 27b4 5079 063b f74e d23a
00000310: 0294 c83a 493a c63a 9f67 4cbb 4b8d 0339
00000320: 61ee dfb5 0e5b adb9 d8b8 80ba 0062 303b
00000330: 8b2d 49bb 32b4 5e3b 92ae 033b 0bd3 c139
00000340: b5dd 26b3 42c4 1fba e637 643a 29ab d3b7
00000350: f770 d93b 72a9 0233 474b 0abb 1fff 20ba
00000360: 4c65 9e3b 3cda be3a 26f1 a5ba 5215 a439
00000370: 428a 883b 554c 913a a930 1e31 2c6b 2fb9
00000380: 7f87 c5ba 4985 3039 40f5 a929 a921 23b9
00000390: fe51 a1ba c733 8839 111a a038 d8d0 493a
000003a0: 3a62 873a 8670 c329 51a1 363b 53ab 1f3b
000003b0: 8a19 3c3b 4c16 b03b 7baf 073b 692a ee39
000003c0: 69fa cfb4 94ca e337 19ff b639 7ed6 1bba
000003d0: e69a b73a c385 7935 85a9 4e3a 7435 fbac
000003e0: 06fd e8ba b6be cd37 ee6a 0d3a 0e75 123b
000003f0: 34e9 a3b6 50b2 853b abdb 8d3a 7775 053a
-0.0009888789 0.0005009442 -0.005703597 -0.0013957182 -0.001830446 -9.027139e-07 -0.0004313821 0.0027342646
0.00016009127 -1.6401973e-08 -1.464353e-10 0.0063132034 -0.0006174826 0.00014573228 0.00022149454 0.0007924698
-0.0035714088 0.0006482006 0.00019163123 -0.0010149619 -0.003994031 0.0014901966 -0.0008111857 0.0022228262
-6.9030457e-25 -0.0021449476 -0.0018371617 -4.839421e-08 0.004036634 -0.0022543522 0.0035387126 -0.0009254972
-9.504247e-09 1.1728128e-08 -0.00019589302 0.0026866896 0.0026007502 0.0036270805 6.610205e-06 -2.25406e-40
-0.0021066337 0.0023020434 0.00010371348 6.397804e-17 -9.378309e-06 0.006719582 0.003034143 0.0005569258
7.4855044e-34 0.0003243964 0.0037459745 0.0022664566 0.0050907433 0.002590027 0.0044176215 0.0023016839
0.00073254784 0.0022786437 0.006674948 0.00063548854 0.0007390386 0.0029894558 -0.0014306625 0.0010951412
-0.0022128765 -0.0021890532 -0.0016940786 0.0030987705 -0.0003224215 0.00092365145 1.23273045e-08 -0.00015428558
0.0023601067 0.002581264 4.1487233e-06 0.0018524934 0.00084943953 2.059174e-39 -0.00429585 -3.1026318e-06
0.0013092333 0.0013317175 0.0016401821 -0.0043106945 1.0928663e-05 0.0027944262 0.00060127146 0.0020123792
-0.00025308778 4.0362056e-06 7.757374e-05 0.00024477957 -0.0024970358 0.0027502927 0.0040528416 2.197694e-11
0.003692704 0.0021631306 0.001820314 0.0031370453 5.7506234e-08 -0.0008587875 -0.00062511157 0.0019955623
-0.00078769453 0.0013829162 0.00068412913 0.0013861218 0.0031098353 0.0033673428 2.014835e-05 -0.0020229397
0.0017135912 0.0044123787 0.004561385 0.0026874975 1.3304426e-19 -0.0022021132 -0.0013283032 -0.0010767941
0.0007672351 0.0034597209 -0.00058607373 0.0058757453 0.0061283805 0.0025073146 6.6557163e-07 1.0982706e-13
0.0019000629 0.0023531949 0.0029624107 -0.0031185502 0.0007812313 0.00015928513 2.4478403e-10 -0.0025645576
8.761027e-09 1.3596309e-06 -0.00353418 0.0056206775 -0.0009035776 -0.00039699348 -4.412555e-06 -0.0002431785
-0.0009318285 3.306603e-07 -0.00407422 0.00060737046 0.00467577 0.00442786 -0.0024461255 0.0034485976
0.0023648445 0.0007813954 0.0014204654 0.0013009353 0.0022294228 -0.00019948861 0.0011037829 0.0024088398
0.0011298103 1.6864872e-12 -0.00070977496 0.0054582036 0.006286134 -0.0008812191 -0.00031176073 -0.0011792317
-0.0049213455 0.003698088 0.0066990056 -0.00073467864 -5.1193805e-05 0.0009892838 0.0036909657 -0.00039392093
4.320096e-09 0.00079147116 0.0022328754 0.002027099 0.0024675857 -0.0017165238 7.4433834e-11 0.0029520607
7.50572e-08 -0.0012973655 -0.0028458657 0.0010194987 0.0007330544 0.00088365126 0.00016700091 0.00029127375
-0.0009822127 -1.5565003e-07 0.0020519085 0.0016045262 0.0015302899 0.0015123572 -0.0031189693 0.0001254577
-1.6684172e-06 -0.00033064972 -0.0009820713 0.0026913881 -0.0030697312 0.0033981916 0.0020093066 0.00036969068
-3.8851528e-08 -0.00060946133 0.0008705839 -2.5232863e-05 0.006635781 3.0422093e-08 -0.0021101998 -0.00061415316
0.004833853 0.0014560889 -0.0012660369 0.00031296402 0.0041668722 0.0011085371 2.3019686e-09 -0.00016729225
-0.0015070288 0.0001683432 7.547652e-14 -0.00015557431 -0.0012307761 0.00025978519 7.63425e-05 0.00076986616
0.0010328956 8.679259e-14 0.0027867148 0.0024363592 0.0028701746 0.0053737517 0.002070396 0.00045426495
-3.8738952e-07 2.7154842e-05 0.00034903808 -0.00059447426 0.0014007955 9.295438e-07 0.0007883537 -7.1397836e-12
-0.0017775602 2.4526711e-05 0.0005394657 0.0022347602 -4.884927e-06 0.0040800944 0.0010822912 0.0005091051

model.1.running_var f4 [256]
00000000: ef8c 8d3d 5067 b73c 5c66 3c3d 6b3b 9d3d
00000010: dc23 753d 7efc e130 319b 4f3c 90ef 913d
00000020: 974b 4038 0285 f82b 62da 882e a894 b13d
00000030: 3d9e 3e3d bbbc c038 4ee3 113d a3d6 cf3c
00000040: 38f5 8c3d dcc5 8a3a 2646 523b 05b7 543d
00000050: d308 a63d 7c6f 683d 4251 173d 990b db3d
00000060: 0400 0000 ccd3 873d ecf6 8c3d 647b 902c
00000070: f1cc 163e 187c 6d3d 094d ed3c 25b3 9f3c
00000080: 8b5f 502a 0c69 062c cda2 3a3b 77da db3d
00000090: 15fc c33d 2fd9 2a3d 5ff3 1435 0400 0000
000000a0: 90c8 593d 6a03 543d 422d 6f3d 7880 290f
000000b0: ba00 e235 4cf1 c43d 2338 533e 9237 d33d
000000c0: 0400 0000 3aa2 1c3d 3d0c cf3d 3395 c03d
000000d0: 735f 133d 01f7 6b3d ad3e 503d 23c3 243d
000000e0: 6b09 223c 523e 8c3d 394e d23d 0d7a 323d
000000f0: 86f1 013d 6776 5b3d b5ec cb3c e0dd 6e3d
00000100: af1a 573d 50fa 753d 4a9c a63d b8f7 843d
00000110: d4f9 bc3c ac23 403d a2c6 942a e0ed 3f38
00000120: 580d 7e3d 863b 613d 2c88 7735 4416 ca3d
00000130: 33a2 ec3c 0400 0000 e042 973d 4f8f fb35
00000140: 2616 253c 73ca eb3d cf92 093d 40a2 a73d
00000150: ff50 6737 728f d13d 6761 8e3d b819 a63d
00000160: b3e0 953a 69ac ef32 d5ef 8e3d a5cb 1d3c
00000170: 12e7 a13c cab2 c53d df2a 9e3d 347f 8121
00000180: 84f7 a13d 3010 913d 0ef1 0d3d 18b2 dc3d
00000190: 6ff5 3032 ad6e 9e3c de7b 193d 4dbe d83c
000001a0: 6d97 053d bb87 023e 3160 c43d 8394 193d
000001b0: 750f ec3d 0ace 0c3d 9f45 6a35 5047 583d
000001c0: affa ad3d d043 bc3d eb74 0b3e 0260 b73d
000001d0: b0ca 5306 105c 0b3d 7318 3b3c ca9e 103d
000001e0: 8ee5 413d 39e0 ac3d d92b db3d a1b2 ab3d
000001f0: e6d4 ac3d 58b9 ba3d 9315 9632 fc45 ed19
00000200: 6c58 da3c 43dd 8c3d cf96 ed3d 4f1b 3e3d
00000210: 9142 d13d 0bab cd3d 41dd f624 d6d3 663d
00000220: 7de5 192b 6b4a bd31 26c7 863d 977c b63d
00000230: 036a 963d cf18 1b3d c9f3 1737 9087 603d
00000240: e52c 363d fc6b 4c2f 857d 623d a9f8 e03c
00000250: 3d38 d73d 3dde 803d fe6e 413d 479b 153e
00000260: 59b7 a63d 0aa0 983d b754 853d 05a8 303d
00000270: a072 843d 2465 1b3c 3c4e b93d 6b6e bd3d
00000280: c19e 8a3d 1d7d e31e 1f08 213d c5dc c93d
00000290: 484a a03d 28a5 8c3d 3a13 1d3d 4fdd 363d
000002a0: aa3d 813d 6e62 cf3d cf87 e23d 254a 4c3d
000002b0: 04ba f33c 8ebb a03d 29a5 ed3d 99ec 2f3d
000002c0: 0dde 422a f877 7c3d c8b3 623d 6a16 013d
000002d0: 7ce7 f93d 8f88 043d 40ef 7d24 132b 653d
000002e0: c703 772e 3e96 2c3d 752c 2a3d 0676 4f3d
000002f0: 0b58 0b3d a1dc 6b3b d52d 163b c473 ae3a
00000300: ed44 8c3d 5e41 842f 6e73 d83d 4524 273d
00000310: 10b6 a23d 96ac b83d 27e4 b23d 40f4 e03c
00000320: 4c3b a031 296b 943d 67d2 113c 525e ad3d
00000330: ee8d 5a3d 3abf 893d aad3 9d3c e1be 8b3d
00000340: 24e4 362c c599 0b3d 15d5 f43c fd94 1737
00000350: 24ca cf3d 7165 252d d777 633d 7aaf c63d
00000360: da30 743d 880e 153d 9b84 7f3d f71c 4e3d
00000370: 9cbe 053e 5143 fd3d 886b 712a 0733 8f3d
00000380: 9b7a 8e3d 8302 d639 111e b41a 562b 023d
00000390: 5701 bd3b 99f0 c83d b965 9a3b c3e4 cc3b
000003a0: 50ad 5e3d 3d10 e21c b7cd 223d 5397 5d3d
000003b0: 8d75 0c3d cb28 dd3d 3b02 ef3d 9d72 183d
000003c0: 8d56 9530 4f71 9a35 3cba 713c 62a1 143d
000003d0: bd13 f53c 55db 0532 e386 193d 3e43 d520
000003e0: b5da 1c3d 4c4f e835 20d5 843b b562 ff3d
000003f0: 20a8 2434 4cb1 e83c 3e7f 113b 0a0d 0e3d
0.069116466 0.02238813 0.045996055 0.07677349 0.05984865 1.6442667e-09 0.012671278 0.07125771
4.5846766e-05 1.7658377e-12 6.2233566e-11 0.08670932 0.046537627 9.190427e-05 0.035617165 0.025370901
0.06882709 0.0010587531 0.0032085269 0.051932354 0.08107152 0.056746945 0.036942728 0.106955715
6e-45 0.06632194 0.06883034 4.1064253e-12 0.14726616 0.057979673 0.028967397 0.019494602
1.8507259e-13 1.9100858e-12 0.0028478384 0.10735028 0.09569565 0.04171103 5.548845e-07 6e-45
0.053169787 0.05176107 0.05839277 8.3570855e-30 1.6838524e-06 0.09616336 0.20626883 0.103133336
6e-45 0.03824065 0.10109756 0.094034575 0.0359797 0.05760861 0.050841022 0.04022516
0.009889941 0.06847824 0.10268826 0.043573428 0.031724475 0.053579714 0.024893144 0.058317065
0.05251568 0.06005317 0.081352785 0.06492561 0.023068346 0.04690902 2.642791e-13 4.5759487e-05
0.062024444 0.054988407 9.2212827e-07 0.09867528 0.028885936 6e-45 0.07385802 1.8742666e-06
0.010076081 0.115132235 0.033587273 0.081852436 1.3787531e-05 0.10232438 0.06952172 0.08110374
0.0011434763 2.7901665e-08 0.06979338 0.009631072 0.019763503 0.09653242 0.07723021 8.77505e-19
0.07908538 0.07083166 0.034653716 0.10776156 1.03003535e-08 0.019339884 0.037471645 0.02645793
0.032615114 0.1274709 0.095886596 0.037495147 0.11526386 0.03437618 8.7273105e-07 0.052802384
0.0849508 0.09192622 0.1361882 0.08953859 3.98336e-35 0.034023345 0.011419403 0.035307683
0.04733806 0.084412046 0.10701723 0.0838368 0.08439045 0.09117383 1.7472109e-08 2.4533492e-23
0.026653491 0.0687814 0.1160103 0.046412762 0.10217775 0.100423895 1.0706031e-16 0.056354366
5.4675e-13 5.5090843e-09 0.06580953 0.089104824 0.07344439 0.037865456 9.057062e-06 0.054816782
0.04447641 1.8592056e-10 0.055295486 0.02746232 0.105087735 0.062923886 0.04722499 0.14610015
0.081404395 0.074524 0.06510299 0.043128986 0.064671755 0.009484563 0.09048125 0.09249576
0.06768561 2.4086306e-20 0.039314386 0.098565616 0.07826668 0.068674386 0.038348414 0.04464465
0.063105896 0.10126196 0.1106106 0.049875397 0.029751785 0.07848273 0.116037674 0.042950246
1.7307701e-13 0.06163785 0.055347234 0.031515516 0.12202355 0.032356795 5.5063283e-17 0.055949282
5.6164653e-11 0.04213547 0.041546304 0.050649665 0.03401951 0.003598966 0.0022915502 0.0013309647
0.06849084 2.4057106e-10 0.105688915 0.040806074 0.07944882 0.09017293 0.08734923 0.027460217
4.663354e-09 0.07247002 0.0089002615 0.08465256 0.05335801 0.06725927 0.019265968 0.06823517
2.59904e-12 0.034082193 0.029886762 9.03499e-06 0.10145977 9.401689e-12 0.05553421 0.09701438
0.0596169 0.03639081 0.06238232 0.05032059 0.13060993 0.12366355 2.1442407e-13 0.069921546
0.06956979 0.00040819132 7.449483e-23 0.03177961 0.005767982 0.09811515 0.0047118333 0.0062528565
0.054364502 1.4959623e-21 0.039746966 0.054099392 0.034291793 0.10798796 0.11670347 0.03721868
1.0865776e-09 1.1506871e-06 0.014753874 0.03628672 0.029916639 7.791489e-09 0.037482154 3.61281e-19
0.038294513 1.7308425e-06 0.004053727 0.12469999 1.5334854e-07 0.028404854 0.0022201086 0.034680404

model.4.weight f4 [128, 256]
00000000: 4db9 81bb 4698 5639 4f75 6cba 3a63 dbb8
00000010: 6314 dabb 3cb5 4081 63e8 b538 bdf9 47b7
00000020: 2587 0180 6cae 1e00 5e68 1100 8249 813a
00000030: 93bd 64ba 65e0 7128 5541 933a 8345 31ba
00000040: 46c9 28ba 6df5 8737 d048 1936 9f8d 88ba
00000050: a3ad 2aba a468 c03a 4d0f a7ba a909 6cba
00000060: 735d 0380 8aea c03a 5dbf b0ba df1c 0200
00000070: f1c1 b4bb 1584 b9ba feb1 003a 0035 efbb
00000080: e4b8 0d00 42fd 1900 264d cf37 3392 9439
00000090: 6298 3f3a 1203 7d3a 81e2 f524 d07c 1500
000000a0: f2e0 6b3a 5f03 89ba 25b0 45ba 0418 0580
000000b0: e619 5496 03e4 993a e889 ce39 d679 46b6
000000c0: c70a de89 eda2 6eba 0e2a 963a feb4 023a
000000d0: e283 f3ba 1aae e4b9 376a 3f3b 7219 0d3b
000000e0: 9cd1 0bb7 c4d8 1bba 0c77 563c 33de b33a
000000f0: 2bff eb38 161b 0d3a 9156 8d38 ee43 b7b9
00000100: f399 89ba 672c 893a 9305 11bb 5645 453a
00000110: 4b0d 1039 9954 5cba 341e 0580 42e7 482d
00000120: d489 acb8 4d15 423b a296 bab1 17bd 5cbb
00000130: 9cd0 4c3a 806d 1980 245f 1538 82cb 5c1a
00000140: 1744 283a c887 c53a c317 88bb 3b78 39b9
00000150: 8d33 d0b3 d495 203a 7bce cdba e251 b8ba
00000160: 6825 42b7 8c04 2708 59d5 1f3a b21c 2035
00000170: d347 f937 dba5 00bb 5583 cb39 632f 0400
00000180: 1c0d 683a dcce 52ba b3d0 02ba 2b02 763b
00000190: d8aa 1820 fdd2 e9b8 3021 abbb 313b c93a
000001a0: 7155 86bb f5d2 ed39 c733 44ba 389d 913a
000001b0: d11a f939 d4a7 95bb 86ff 550e fe95 5dbb
000001c0: b9b0 f33a 237b a43a bd09 e5bb 7a03 69ba
000001d0: f49a c400 f30d cfb8 6da9 e1b9 c7b5 703a
000001e0: 35a7 44ba 3973 0d3b c735 0dbb ebc7 973b
000001f0: bdcd babb 1502 873b 42b4 3700 555d 0d00
00000200: 5132 043b 0295 58b8 c388 013a 4c7e 723a
00000210: 516c 25ba 7b99 6639 9c8b dfa2 ac97 7aba
00000220: 9823 0380 50fa e817 1874 873a e442 de3a
00000230: 1014 2ab6 2191 37bb d1fd 88b2 6144 1fba
00000240: 7d5a e6b9 48cd 1900 38a7 29ba fb49 073b
00000250: b934 ae3b fbe3 8f3a 7b5f 8bb9 0cb2 07bc
00000260: 7632 2e3b 8490 4a3b ae69 213a 20af 9a39
00000270: 3eef 9839 82bc 0338 ae42 59bb 9914 8f3a
00000280: a173 c7ba aafe 4000 52a3 56bb f72b a93b
00000290: 927f e9bb a43c b735 d9b6 06ba b357 bfba
000002a0: 83ba 043a 35d9 d63a b5bb 54bb abee 71bb
000002b0: 7098 d0b9 16a6 053b 5029 4dbb 95e0 e6b9
000002c0: 5335 0280 7363 41bb 4c60 2fba 72bf c93a
000002d0: 93e6 f73a c88b f4ba 8c17 2200 b853 00bc
000002e0: 58d1 e1a6 342d 9f3a 2215 9d39 182a 3bba
000002f0: bb90 59ba f108 6037 f4d1 b937 640b abb1
00000300: b5b4 703a 7fac 24a3 9595 8fba 2ac7 63bb
00000310: c0ca f23a 74a0 1d3a 6baf 1b3b 9338 6339
00000320: 16ea 0200 2d2c e7b9 531e 3b38 8b27 e4b9
00000330: bf47 8b38 a0f8 ae3b a95c 143a ce72 67ba
00000340: 6647 0900 7055 2f3b 318e e7b9 2127 582a
00000350: 8170 1e3c 0c70 2200 b405 dc39 2012 a83a
00000360: 88b4 5a3b 9a1f b53a 8dba baba 4504 72ba
00000370: 5628 99bb 715e f93a c1c2 1f80 bff6 2abb
00000380: eff8 01bb 7cc6 6e32 3b82 1c00 54ed 5c3a
00000390: c38e 0536 6c4d 8cb9 8b34 5d36 79bf b4ba
000003a0: 577f 2cba 86ed 2580 4524 663b 0b6c 233b
000003b0: b3a8 8b3a d135 f6bb 7a54 583a 44d3 8c37
000003c0: 92a9 0f80 29d5 83af 113b e139 9730 dfba
000003d0: 2ee6 fd37 bdf8 fd97 bddc 003a 51f9 0f98
000003e0: 877f a3ba 3096 aba3 5173 6136 0f80 4239
000003f0: 3be3 1480 7a9f c139 129c 8236 b31a e93a
-0.003958857 0.00020465357 -0.0009020166 -0.00010461216 -0.0066552623 -3.539486e-38 8.674038e-05 -1.1919471e-05
-1.40316e-40 2.817636e-39 1.598643e-39 0.0009863826 -0.00087257585 1.3426845e-14 0.001123468 -0.0006762372
-0.00064386835 1.620754e-05 2.284116e-06 -0.0010418183 -0.0006510859 0.0014679623 -0.0012745649 -0.0009004125
-3.0903e-40 0.0014718336 -0.0013484765 1.94028e-40 -0.0055162837 -0.0014153743 0.00049093354 -0.0073000193
1.260188e-39 2.386739e-39 2.4712248e-05 0.00028337687 0.00073087786 0.00096516416 1.06635525e-16 1.97332e-39
0.0008998058 -0.0010453275 -0.0007541201 -4.67793e-40 -1.7133396e-25 0.0011740926 0.0003939413 -2.9575217e-06
-5.345469e-33 -0.00091032573 0.0011456625 0.00049860764 -0.0018578733 -0.00043617265 0.0029207596 0.002153006
-8.333849e-06 -0.00059450814 0.013089906 0.0013722837 0.00011253202 0.0005382759 6.739528e-05 -0.00034955092
-0.0010498151 0.0010465503 -0.0022128567 0.00075252855 0.00013737862 -0.000840494 -4.70012e-40 1.1420033e-11
-8.2272716e-05 0.0029614747 -5.4304374e-09 -0.0033682042 0.00078130676 -2.335169e-39 3.5612975e-05 4.5659326e-23
0.00064188376 0.0015070373 -0.0041532232 -0.00017687764 -9.695132e-08 0.0006125842 -0.0015701795 -0.0014062489
-1.157201e-05 5.026008e-34 0.000609716 5.96464e-07 2.9716559e-05 -0.0019630108 0.00038817027 3.84341e-40
0.0008852051 -0.00080416887 -0.0004990205 0.0037537913 1.2931428e-19 -0.000111496054 -0.005222462 0.0015352723
-0.004099541 0.00045361338 -0.0007484522 0.0011109477 0.0004751296 -0.004567126 2.6377307e-30 -0.0033811326
0.0018592096 0.0012548905 -0.0069896863 -0.00088887627 1.8055344e-38 -9.8731274e-05 -0.00043041576 0.00091823604
-0.00075017224 0.002158357 -0.0021546946 0.0046319864 -0.0057007954 0.0041201212 5.115617e-39 1.227343e-39
0.0020171592 -5.1637187e-05 0.00049413386 0.0009250387 -0.0006310391 0.00021991685 -6.059209e-18 -0.0009559344
-2.88275e-40 1.5055836e-24 0.0010334281 0.0016957191 -2.5343652e-06 -0.0028010088 -1.5947906e-08 -0.0006075558
-0.00043936438 2.369528e-39 -0.0006471756 0.002064346 0.0053163436 0.0010977978 -0.00026583284 -0.008282196
0.002658037 0.0030908892 0.000615741 0.00029503647 0.00029169949 3.1408395e-05 -0.0033151316 0.0010916173
-0.0015216955 5.968828e-39 -0.0032751155 0.0051627117 -0.0071258033 1.3652211e-06 -0.0005138941 -0.001459828
0.0005063193 0.0016391637 -0.0032460515 -0.0036915939 -0.00039786426 0.0020393184 -0.0031305142 -0.00044036345
-2.028e-40 -0.002950874 -0.00066900696 0.0015392138 0.0018913321 -0.0018657381 3.130854e-39 -0.00783246
-1.5669254e-15 0.0012144209 0.0002996112 -0.00071397563 -0.00082994596 1.3353522e-05 2.2151486e-05 -4.97805e-09
0.0009182201 -8.926985e-18 -0.0010954613 -0.0034756162 0.0018523559 0.0006012984 0.002375568 0.00021669483
2.67645e-40 -0.00044092667 4.4612516e-05 -0.0004351701 6.6414e-05 0.005339697 0.00056595594 -0.0008829058
8.52132e-40 0.0026753806 -0.00044165694 1.919823e-13 0.009670378 3.162602e-39 0.0004196592 0.0012822784
0.0033371765 0.0013818622 -0.001424627 -0.00092322036 -0.004673998 0.0019025338 -2.916765e-39 -0.0026087014
-0.0019832214 1.3898553e-08 2.618112e-39 0.00084276986 1.9901643e-06 -0.00026760565 3.296215e-06 -0.0013789973
-0.00065802544 -3.483121e-39 0.0035116833 0.0024936225 0.0010655135 -0.0075137396 0.0008252334 1.6787679e-05
-1.438363e-39 -2.398022e-10 0.00042959352 -0.0017028031 3.0267136e-05 -1.6412532e-24 0.0004915705 -1.860819e-24
-0.0012473919 -1.8603464e-17 3.3594736e-06 0.00018548987 -1.918225e-39 0.00036930648 3.892471e-06 0.0017784446

model.4.bias f4 [128]
00000000: c8e9 e2b1 da00 0416 fea7 c0b6 1288 f6b6
00000010: d50a 92b5 6775 a936 596b 2637 e181 0037
00000020: 3711 21b7 0be0 c1b6 1038 1ab6 8423 a5b7
00000030: 00fc e401 feea a136 f1e7 29b7 ce8a 1037
00000040: 28b4 26b6 e7b6 b635 f1b9 b6b6 7e8c 6136
00000050: 5817 32b5 ceb3 beb5 6810 3c36 3aa5 bf81
00000060: 2c2c c0b6 f8d9 fe36 453a d336 1968 bbaf
00000070: f27a c536 527f 9db6 6784 1fb7 d09c 8437
00000080: 6092 f6b6 3d2e c1b6 e8e6 0eb6 9a9b 8e35
00000090: 3dca c9a6 4273 8035 64b6 6437 881e 5b35
000000a0: 56bb 2537 2a07 12b7 d798 b02c 4216 39b7
000000b0: 1880 9480 20a1 e3b5 3a73 ff35 8650 4437
000000c0: 7881 18a8 c03e e8b5 ed20 f1b7 cca9 d3b6
000000d0: 4681 27b7 4b6d 3a35 e457 6793 4091 8635
000000e0: 3eaa b081 2824 c601 d8a2 49b5 9da8 4cb5
000000f0: c8c5 97b7 e06e 6ab5 1828 7bb5 f850 63b6
00000100: d82e ec34 6000 ed35 0c94 c981 008c b7b6
00000110: c8c8 ab36 1c23 c336 6946 b236 50e7 45b4
00000120: 68da f635 4c94 3581 002b 0fb2 f65b c4b2
00000130: 30e4 15b6 1160 dbb6 9a35 8401 acaa aa35
00000140: 5c69 43b6 2228 4c37 9049 51b6 4b6a 23b7
00000150: 5cba 9701 2cce 2800 a05a a7b5 e0da 22b6
00000160: b2de 3b82 a081 edb5 94f7 7837 484d 2600
00000170: fc10 3cb7 e466 6781 d01f e6b6 88c4 ccb4
00000180: 568a 9c81 68cb bfb6 e8ec 4402 c50c 1db6
00000190: 5061 c435 aec5 2737 b828 2a36 4407 c4b6
000001a0: 3206 beb5 50e7 f235 5ea3 ae33 5cbf 8ab6
000001b0: c078 582f 0f20 5b37 8b18 5b36 735e 8cb7
000001c0: 8754 dcb6 83b6 1eb7 6822 80b5 0030 7c81
000001d0: c772 2037 e08c 47b7 afb4 1cb7 de61 eeb6
000001e0: c0be 0435 66af 4436 f8d3 3601 e00b 2a37
000001f0: de89 a835 0ea7 5637 3a27 d736 8971 87b6
-6.6040435e-09 1.0663144e-25 -5.7416028e-06 -7.347212e-06 -1.0881e-06 5.05026e-06 9.919365e-06 7.659634e-06
-9.600356e-06 -5.7779303e-06 -2.298042e-06 -1.9686071e-05 8.4115575e-38 4.8255306e-06 -1.0127188e-05 8.615387e-06
-2.4840792e-06 1.3613288e-06 -5.445669e-06 3.360939e-06 -6.6344137e-07 -1.4208433e-06 2.8023733e-06 -7.039941e-38
-5.727188e-06 7.595165e-06 6.2950735e-06 -3.4089068e-10 5.8853702e-06 -4.6937867e-06 -9.507966e-06 1.5808648e-05
-7.3484116e-06 -5.757231e-06 -2.1294054e-06 1.062511e-06 -1.4001994e-15 9.570288e-07 1.3632325e-05 8.1628286e-07
9.878384e-06 -8.703946e-06 5.0191895e-12 -1.1032042e-05 -1.3637605e-38 -1.6959712e-06 1.9032516e-06 1.1701259e-05
-8.465769e-15 -1.730361e-06 -2.8744771e-05 -6.308057e-06 -9.9840745e-06 6.944944e-07 -2.9199632e-27 1.0026051e-06
-6.4896475e-38 7.2785595e-38 -7.5115304e-07 -7.6241287e-07 -1.8092702e-05 -8.733314e-07 -9.356313e-07 -3.3872766e-06
4.399251e-07 1.7657985e-06 -7.4048176e-38 -5.470123e-06 5.119571e-06 5.81554e-06 5.31301e-06 -1.8431206e-07
1.8391993e-06 -3.3350847e-38 -8.333473e-09 -2.2859222e-08 -2.2335553e-06 -6.537892e-06 4.8566056e-38 1.2715659e-06
-2.9118592e-06 1.2168692e-05 -3.1186246e-06 -9.740305e-06 5.573605e-38 3.74738e-39 -1.2468845e-06 -2.4267283e-06
-1.3802501e-37 -1.7695602e-06 1.4839596e-05 3.517472e-39 -1.1209628e-05 -4.250182e-38 -6.8582376e-06 -3.8140956e-07
-5.750385e-38 -5.715923e-06 1.4467795e-37 -2.3402256e-06 1.463146e-06 1.0000002e-05 2.5355675e-06 -5.842101e-06
-1.4157906e-06 1.8097726e-06 8.132223e-08 -4.1349977e-06 1.9687985e-10 1.3060881e-05 3.264783e-06 -1.6733282e-05
-6.566351e-06 -9.460028e-06 -9.546757e-07 -4.6319528e-38 9.563467e-06 -1.1894124e-05 -9.340393e-06 -7.104346e-06
4.945141e-07 2.9308371e-06 3.35802e-38 1.01355545e-05 1.25571e-06 1.2794289e-05 6.412066e-06 -4.0365308e-06
