fraud_model.pth (torch, 190781 bytes, 19 tensors)

model.0.weight f4 [256, 10]
00000000: b7e5 c4be caf9 0ebc add2 90bb 65f8 2cbb
00000010: cf3c c0ba 6835 303b f3f9 c13b f9da 8d3d
00000020: bdf2 efba 865d 393b 703b 863b 3b0d f43d
00000030: 1f02 de3b c14c c3bc aa3b b23c 25df a0bc
00000040: 7186 9dbd 71bd c0ba 3aa7 21bc 91d2 ce3a
00000050: 386d 393d 6ed6 a137 218e e43b 571e 26be
00000060: 3382 19bc 0096 2bbc f351 09bc 9c39 083e
00000070: 55ca 3cbe 48f4 6439 d963 9b3b 71f7 073d
00000080: 12a6 81bd 7e8d c03c 6380 09bd 54c5 d53c
00000090: fc54 96bd 5cd9 403c d726 a33c 6307 a43b
000000a0: f41e 73bd 0447 d33d 5d8c c7bb f368 1cbc
000000b0: 99e3 103c 2953 db3c 7e8c bbbd bcbd f5bc
000000c0: dbc0 653b 19d1 6d3a 36a6 0b3c 68df 033c
000000d0: 3540 1cb9 fe36 fb3c 87a8 6bba 866e 8fba
000000e0: 15a9 ad3b 8975 583e 8605 213d e2e4 c2bb
000000f0: 0e94 3cbd 3342 1dbc d592 bbbb 3db3 833c
00000100: 7d09 47bc 5856 35bc ed20 9fbc 5311 63be
00000110: a2ab 3f3d 2c41 34bc d297 05bc 262d eb3a
00000120: 0225 96bb bae4 2e3c b1d6 963c cd66 5539
00000130: 6e52 2abc 8501 f03b 1dc6 fabb 4631 263c
00000140: 9bd4 f63d 05b0 06bc fb81 ffba 58f9 303c
00000150: b653 e2bb 2106 34bb 9697 863b 56f6 a6be
00000160: 8966 e43b a88e 1a3c fe75 3480 ed9f 0180
00000170: e119 1180 6387 0480 b69b 6d00 237f 0380
00000180: 9544 5d00 bff8 0200 f908 2380 a164 2280
00000190: 0787 2380 9e04 4180 f67b 2e00 807f 0e00
000001a0: c84b 1780 16e6 3280 276f 2300 16e4 4500
000001b0: 8a17 2900 9a41 0900 134c 403d fb73 243c
000001c0: 31aa e7bb 1df7 6bba 8f59 4ebb 6867 94bb
000001d0: 2273 523a 8c91 573e 894a 363d 1e85 48bb
000001e0: a657 0cbe 430e a9bc 7718 623b 6a19 95bb
000001f0: b33e 40bb 5fce 82bb 1088 dabc e087 82be
00000200: 98da cbbb 0251 96bb a207 8a80 d6c6 0600
00000210: 3d17 3280 55ba 2d80 6575 8480 b554 5780
00000220: 3503 1000 6a25 7600 fcc8 3180 d92c 8780
00000230: c696 823c 03e2 22be 83ee 973c f3b8 663c
00000240: c4a2 03bc aa0e 5d3c 001d b93b 58ad 06be
00000250: 0ea5 033d 89b5 d13c 624c 01be 59f7 94bd
00000260: d5ce eebb 24df 0bbd ecbb ccbb 5a79 2c3b
00000270: 1ea6 e9bc 02a6 993d 6819 163c 4a48 2d3c
00000280: f33d 6bbe d258 bbb9 3b2f b43a 89b6 973b
00000290: 5e79 bb3b 60f8 99ba 3e81 5e3e b80b e1bc
000002a0: 6039 77bc 9e75 9ebc 33dd 1980 37c0 1b00
000002b0: 510c 2000 05da 3200 5730 2580 4326 2e80
000002c0: df7e 1d80 2cf1 1680 7fb6 0000 2355 1e80
000002d0: 0e14 33be de6c 1c3c 8043 223c c990 05bc
000002e0: 4007 553c af26 95b9 3776 3bbb 045c 6fbe
000002f0: 3e73 31bc 9c20 223b b5dc 953d 33da 093b
00000300: c614 8bba 4d0b 673c 30a7 69bc cae5 86bd
00000310: bc71 c63c b635 83be d87d 9fbb 51a8 ccba
00000320: 65f0 34be 6e2f 0fbe 408f 193c bc7f a6bc
00000330: 8e1c e3bb 9eca 0a3b 45e0 923c cbfd 883d
00000340: f146 a1bc a73a 283c 7a6e 0200 140c 1480
00000350: c471 0280 5cfa 4300 4ee0 1680 a9ec 1a00
00000360: c678 0280 56d1 0780 d586 0080 6a7b 3280
00000370: 5319 fe3d 628e 82bb e099 4c3b 63f6 863c
00000380: c843 99bb 6bd7 c5bd c7e8 96ba 99d9 90be
00000390: 5b50 973c 0c9d a73b 8673 4dbd e4e0 c03d
000003a0: de2d 983c 8cae c33d f112 82bc 3d69 223b
000003b0: f28f bc3d 5a0a be3d 9a30 2e3d 0c2c 56bc
000003c0: bdab 9dbd 4259 093e 4cfb 7f3c 485c dd3c
000003d0: 725f 2f3c bf04 963c 280b 043e 8f00 e83b
000003e0: ccf2 c63c e558 58bd b28e c7bd f287 523c
000003f0: 2f2f b7bb 7ac0 323c 27f3 d6ba e3ef e5ba
-0.3845651 -0.008726547 -0.0044196458 -0.0026393172 -0.001466656 0.0026887301 0.005919689 0.06926531
-0.0018306595 0.0028284504 0.004096441 0.11916586 0.006775155 -0.02384031 0.021756966 -0.019637654
-0.07691658 -0.0014704895 -0.00986653 0.0015779306 0.045270175 1.9292547e-05 0.006974951 -0.16222511
-0.009369421 -0.0104727745 -0.008381355 0.13303226 -0.18436559 0.00021834776 0.0047421274 0.033194963
-0.063305035 0.023504969 -0.033569705 0.02609507 -0.07340428 0.0117705725 0.019915981 0.0050057634
-0.05935569 0.103162795 -0.0060897307 -0.009546506 0.008843326 0.026773052 -0.09157656 -0.029997699
0.0035057578 0.00090719905 0.0085235145 0.00804887 -0.00014901238 0.03066587 -0.0008989651 -0.0010942973
0.005299697 0.21138586 0.03931191 -0.005947695 -0.046039633 -0.009598303 -0.005724291 0.016076678
-0.012148258 -0.011067949 -0.01942488 -0.22174577 0.04679454 -0.011001866 -0.008153873 0.0017942532
-0.0045820484 0.01067465 0.01841292 0.00020351559 -0.010395629 0.0073244 -0.0076530115 0.010143584
0.1205227 -0.008220677 -0.0019493693 0.010801636 -0.006906952 -0.0027469473 0.004107426 -0.32609814
0.006970231 0.009433426 -4.817773e-39 -1.49206e-40 -1.570487e-39 -4.1591e-40 1.0065928e-38 -3.21115e-40
8.565304e-39 2.72904e-40 -3.217461e-39 -3.158506e-39 -3.262681e-39 -5.970964e-39 4.268902e-39 1.331435e-39
-2.139402e-39 -4.674314e-39 3.254116e-39 6.418471e-39 3.7737e-39 8.50053e-40 0.04694755 0.0100374175
-0.007069849 -0.00090013613 -0.0031486487 -0.0045289285 0.00080280204 0.21051615 0.044504676 -0.0030596922
-0.1370531 -0.020636683 0.0034499445 -0.0045501487 -0.0029334247 -0.0039918865 -0.026676208 -0.2549429
-0.0062211268 -0.0045872936 -1.2676037e-38 6.22342e-40 -4.600111e-39 -4.19944e-39 -1.2164399e-38 -8.020075e-39
1.470518e-39 1.085001e-38 -4.572039e-39 -1.241388e-38 0.015941035 -0.15906529 0.018546348 0.014082181
-0.008034412 0.013492266 0.005649209 -0.13152063 0.03213983 0.025599258 -0.12626794 -0.0727374
-0.00728784 -0.03414835 -0.006247988 0.0026317448 -0.028521594 0.075023666 0.009161331 0.010576317
-0.2297285 -0.00035733596 0.0013746986 0.004629914 0.005721255 -0.0011746995 0.2172899 -0.027471408
-0.015089363 -0.019343194 -2.375239e-39 2.548512e-39 2.943154e-39 4.669985e-39 -3.415254e-39 -4.238159e-39
-2.708742e-39 -2.106897e-39 6.5467e-41 -2.785606e-39 -0.17488119 0.00954744 0.009903789 -0.008152195
0.013002217 -0.00028448316 -0.0028604397 -0.23374945 -0.010830699 0.0024738675 0.07317487 0.0021034598
-0.0010611049 0.014101815 -0.014261052 -0.065867975 0.024224155 -0.25626916 -0.0048672967 -0.0015614127
-0.17669828 -0.13982937 0.009372532 -0.02032458 -0.006930894 0.0021177898 0.017929206 0.06689032
-0.019687148 0.01026789 2.23303e-40 -1.841043e-39 -2.24482e-40 6.24279e-39 -2.100846e-39 2.47262e-39
-2.26996e-40 -7.17944e-40 -4.8369e-41 -4.636047e-39 0.12407174 -0.0039842585 0.0031219646 0.016474908
-0.0046772696 -0.09660228 -0.0011513465 -0.28291014 0.018470934 0.005115157 -0.050159 0.094178945
0.018576559 0.095547765 -0.015878173 0.0024781965 0.09207143 0.09279318 0.04252682 -0.013072025
-0.07698772 0.13412955 0.015623879 0.027021542 0.010703908 0.01831281 0.12894881 0.0070801447
0.024285696 -0.05281915 -0.09744014 0.012849795 -0.0055903415 0.010910148 -0.0016399369 -0.0017542805

model.0.bias f4 [256]
00000000: 21bc c237 18a2 6e34 c99a 2035 10b5 1bb6
00000010: c581 e2b5 db96 c536 3e74 8fb6 2024 97ae
00000020: c4f7 8937 78d1 b480 5a08 b001 7cdc 0e36
00000030: cd0b 90b5 68ea 8001 e424 63b7 a899 8435
00000040: b29f 07b7 f302 2f00 cc67 db34 66b2 6fb6
00000050: 22f8 aab6 38d8 1581 68cc a035 0016 8c32
00000060: 8490 d634 9e7e 00b6 3845 0b37 b431 0f01
00000070: 534f 43b6 0051 7e00 0473 3b37 1e96 2780
00000080: ae72 99b5 880e 2280 ad8b 42b4 1c60 b701
00000090: 1103 9d35 4ed7 a081 3252 8001 34fb 4c37
000000a0: 0b75 07b7 d81c 2480 008c 2c00 21ca 1436
000000b0: d442 81b6 98d9 7f01 5a16 ed01 826c ce01
000000c0: df01 0682 5e3b ef35 481e 3e34 6209 fdb6
000000d0: 684c 7f80 f6dc 7db6 386b 7981 7806 e200
000000e0: c028 8eb6 bd9b 75b5 5c97 6801 9ab4 f1b5
000000f0: 687c af33 74e9 1980 d359 a435 262d 8701
00000100: 75d8 7e36 f5a6 1fb6 1887 bd33 883f 6a80
00000110: b897 2000 26e7 50b5 00ed 5a31 403d 7d33
00000120: d66b 0635 dde6 1b00 7957 4e37 c4ff 4200
00000130: f647 8d36 12b9 57b6 199a 2fb6 48d0 ff35
00000140: 687c 6fb4 9f60 0435 245b d501 ddd5 1f02
00000150: 642b 8a35 f600 3500 58d0 4181 1022 dc80
00000160: c2a0 88b7 f676 5d36 d4ec 1481 9255 8735
00000170: 7907 3835 d442 0201 942b 3d00 161f 1b35
00000180: 37f1 65b4 a404 7c35 0cab c2b3 9652 8635
00000190: 32e4 62b5 dc6f a581 9e1f 85b5 dc48 0502
000001a0: 009a cd34 e3c8 08b6 0896 0b01 bc8e 4401
000001b0: 28e0 4780 517b 4bb5 57fc 03b8 1c4b ec35
000001c0: 00b3 fe01 c6d6 cc36 f0f8 8781 b0c6 bd35
000001d0: f884 8a36 5bce 0f35 d041 c280 7af1 b601
000001e0: 6b30 a5b5 c00c a7b5 16a7 07b5 0868 9d00
000001f0: dea7 ae35 95de bdb6 3c9f 0b00 686e 2c80
00000200: a45e 0800 254b 17b6 0036 dcb2 b892 7034
00000210: 1280 af81 6f88 0f82 9859 d600 6842 8a81
00000220: 36a2 a2b4 a53e 91b5 2e2d b701 7d7d e134
00000230: cb22 d701 5cbd 69b6 de5a 1680 0814 5836
00000240: 77a7 adb4 a00a 7000 4888 10b6 fb0e 2ab5
00000250: 3d48 34b5 787d b934 ccbb afb4 2c8a 5b81
00000260: 02a1 0382 605b 2a00 2a4d e501 ccfe 9d36
00000270: 276a 00b6 c007 8581 a012 96b4 f1c7 a936
00000280: 780d 7100 f083 26b4 7af3 3b80 d758 1f35
00000290: 51d7 0db6 2938 8935 e2a7 ca01 4c16 8d81
000002a0: c2b7 bcb6 1c81 3700 d25b 8f81 f05b 0b00
000002b0: 2d2b 8537 fb5f 4c80 6220 69b6 16a2 74b6
000002c0: 7063 dfb4 7244 d2b5 100f 7d01 88bd 8d80
000002d0: d030 e300 3325 80b6 e858 0834 8668 2d36
000002e0: 707c 5581 6f67 c4b5 a399 0936 1058 3900
000002f0: 5e67 f8b5 4ab5 0335 2047 5b01 2708 2b35
00000300: 8ebf c436 f2dc dc34 e064 d680 9d03 a237
00000310: 2037 b1b4 0186 2936 6ff6 9f01 664d db32
00000320: 14a9 3b01 a304 b0b5 08b0 6a01 8226 eab5
00000330: 8fcf 2eb7 00b0 a9b6 1e8a 0835 b13b 1536
00000340: 6aef df01 666e f101 0055 0780 401b f681
00000350: 9a83 e3b4 d0b8 4200 2f1a 5ab7 aaca ddb4
00000360: f858 e3b5 2cee 84b4 005e 2f37 7c9c eab6
00000370: c8b0 4d80 2893 6481 a8f4 1f00 65f3 1bb7
00000380: eec9 2f36 d68a 48b6 4442 3f80 101b ec00
00000390: c493 2201 6150 de35 4c37 0ab6 6a38 4536
000003a0: 5a54 1eb6 a799 c735 c56f dab5 ca1f ee01
000003b0: 3bcd b9b4 1625 66b6 803d 8ab5 16a2 00b6
000003c0: c605 98b5 5b1a 8fb5 42dd aa34 161b a135
000003d0: 713c 2b36 888d 6000 540b 2301 5c9c c181
000003e0: a7ba c436 2bcc 640f c875 f035 4059 7fb2
000003f0: 0072 f780 642b cb01 a8b2 0e02 41bc 5b36
2.3214207e-05 2.2224447e-07 5.9829887e-07 -2.3202192e-06 -1.687608e-06 5.8886194e-06 -4.2752645e-06 -6.873102e-11
1.6447048e-05 -1.6605533e-38 6.4664173e-38 2.1287988e-06 -1.073227e-06 4.735613e-38 -1.3538844e-05 9.879486e-07
-8.083809e-06 4.317326e-39 4.086745e-07 -3.5717617e-06 -5.0952813e-06 -2.7522107e-38 1.1980419e-06 1.630815e-08
3.9965755e-07 -1.9147187e-06 8.301162e-06 2.6300612e-38 -2.9103437e-06 1.160033e-38 1.1172848e-05 -3.635436e-39
-1.1432764e-06 -3.12762e-39 -1.8118472e-07 6.7361493e-38 1.1698304e-06 -5.9083665e-38 4.713772e-38 1.2217835e-05
-8.073878e-06 -3.316425e-39 4.090984e-39 2.2171373e-06 -3.8522794e-06 4.699222e-38 8.7092123e-38 7.582815e-38
-9.845302e-38 1.7824166e-06 1.7706145e-07 -7.54108e-06 -1.1690517e-38 -3.7828554e-06 -4.5811003e-38 2.0757143e-38
-4.2366737e-06 -9.149624e-07 4.2720265e-38 -1.8008461e-06 8.171702e-08 -2.379635e-39 1.2245094e-06 4.965595e-38
3.7974944e-06 -2.3790028e-06 8.825572e-08 -9.757353e-39 2.993162e-39 -7.7822403e-07 3.1857894e-09 5.896186e-08
5.007581e-07 2.562377e-39 1.2298923e-05 6.152894e-39 4.210505e-06 -3.2145222e-06 -2.6166729e-06 1.9059598e-06
-2.2303868e-07 4.9314434e-07 7.8374623e-38 1.1742851e-37 1.029443e-06 4.867626e-39 -3.559798e-38 -2.0216028e-38
-1.6287322e-05 3.300081e-06 -2.7353223e-38 1.0083188e-06 6.8556216e-07 2.3925176e-38 5.617598e-39 5.7787236e-07
-2.141504e-07 9.388407e-07 -9.064942e-08 1.0007814e-06 -8.452363e-07 -6.077194e-38 -9.918474e-07 9.792206e-38
3.8296275e-07 -2.038251e-06 2.563791e-38 3.610192e-38 -6.600732e-39 -7.580284e-07 -3.1467844e-05 1.760523e-06
9.3561716e-38 6.1046767e-06 -4.9948376e-38 1.4139423e-06 4.1282e-06 5.357194e-07 -1.7839695e-38 6.7202743e-38
-1.230755e-06 -1.244618e-06 -5.053456e-07 1.4455492e-38 1.3012866e-06 -5.658551e-06 1.067313e-39 -4.080368e-39
7.68635e-40 -2.2544493e-06 -2.5635927e-08 2.2405118e-07 -6.446862e-38 -1.0545135e-37 1.9684936e-38 -5.078848e-38
-3.0292875e-07 -1.0821574e-06 6.7288413e-38 4.200082e-07 7.902845e-38 -3.4829927e-06 -2.052978e-39 3.2198168e-06
-3.2345608e-07 1.0289387e-38 -2.1536998e-06 -6.3351735e-07 -6.7160346e-07 3.4550226e-07 -3.273293e-07 -4.032308e-38
-9.670567e-38 3.88987e-39 8.423204e-38 4.708627e-06 -1.9135275e-06 -4.8867605e-38 -2.795323e-07 5.0598687e-06
1.0382243e-38 -1.5507953e-07 -5.505637e-39 5.9361395e-07 -2.1135968e-06 1.022364e-06 7.444398e-38 -5.1827214e-38
-5.624229e-06 5.097268e-39 -5.266166e-38 1.043171e-39 1.587494e-05 -7.013929e-39 -3.4738555e-06 -3.645318e-06
-4.1609337e-07 -1.566614e-06 4.6479568e-38 -1.3016796e-38 2.0864168e-38 -3.819028e-06 1.2698331e-07 2.583985e-06
-3.92112e-38 -1.4633241e-06 2.050402e-06 5.266214e-39 -1.8507524e-06 4.9065113e-07 4.0274977e-38 6.371433e-07
5.863555e-06 4.1138952e-07 -1.9688983e-38 1.9313587e-05 -3.3008928e-07 2.5260963e-06 5.876099e-38 2.5530152e-08
3.4467783e-38 -1.3114371e-06 4.3105308e-38 -1.7445566e-06 -1.0419534e-05 -5.0570816e-06 5.0864935e-07 2.2237475e-06
8.2260805e-38 8.868783e-38 -6.73341e-40 -9.040523e-38 -4.2377798e-07 6.127441e-39 -1.2999909e-05 -4.1311915e-07
-1.6938711e-06 -2.476021e-07 1.0452699e-05 -6.9919606e-06 -7.13475e-39 -4.1982566e-38 2.934667e-39 -9.29539e-06
2.619457e-06 -2.9883136e-06 -5.809408e-39 2.1682885e-38 2.9860717e-38 1.6563682e-06 -2.059579e-06 2.9388125e-06
-2.3592934e-06 1.4871374e-06 -1.6274795e-06 8.747301e-38 -3.460826e-07 -3.4294258e-06 -1.02997e-06 -1.9167833e-06
-1.1326563e-06 -1.0662001e-06 3.1825954e-07 1.2003318e-06 2.5516167e-06 8.86698e-39 2.99465e-38 -7.112137e-38
5.8629844e-06 1.1280589e-29 1.7915672e-06 -1.4863247e-08 -2.2724263e-38 7.4632685e-38 1.0483784e-37 3.2743121e-06

model.1.weight f4 [256]
00000000: f3bc 6e3e d809 093d 4f20 253e da70 d53c
00000010: f82b 633d f34d 743d 8ded e33d 73d4 603c
00000020: 8780 3e3e 9bdc 4980 3089 0700 2618 883d
00000030: 67ce e63d ee01 2b00 8e8b a53d 3e04 003d
00000040: 8feb 113d ddbe 4400 f5a1 ad3d 2251 193e
00000050: b56f 9c3d 85c2 2600 bb5c 243e 0735 763d
00000060: 1bd6 663d 8f85 783e 225d a63d 76b3 0b00
00000070: b7d1 263e edc9 ba39 0ba1 253e c700 0200
00000080: d017 733d 8d65 5000 940d 2e3b ee0c 0e80
00000090: ab10 7b3d b0ce 1800 8681 0c00 7873 bc3d
000000a0: 9127 c23d 873f 2300 fe06 5380 43f6 cb3d
000000b0: 74f9 af3d 4504 4600 2c06 2880 4dab 2e00
000000c0: 3bc3 1000 a427 8d3d ae2f 8c3d d17e be3d
000000d0: 0cb9 2d00 567e ed3d d708 3380 8e2d 5b80
000000e0: f9bb 423e 6170 413d 9f68 3400 defe 773d
000000f0: c8ad e83d f36d 0080 bcf7 723d 3451 3800
00000100: d50f 7e3d a915 e03d 5afe 6b3d 4bc6 610e
00000110: 2663 1380 7086 4d3d 577e ca3d a367 f73d
00000120: ae27 973d a5ba 0500 454d 533d 9cda 1080
00000130: 388a 173e b2ac 3d3d 81c2 ec3d 2a47 e53d
00000140: 740a 9e3d 59db 903d b1fa 4300 51a3 3900
00000150: c8b2 3a3e 02eb 4000 225f 1a00 4f9f 0700
00000160: 3da6 693e 9258 223e 1edb 4400 9cb0 053e
00000170: 8072 403d 8bbe 3280 6ff9 0400 29c5 2e3d
00000180: 9071 5f3e 614d 203d f885 0a3e b7a7 8b3d
00000190: 9aa0 543e d59d 2400 eb40 4d3e 4ad3 2980
000001a0: 91a3 b43c 3767 a83d ce1c 1e00 2181 2000
000001b0: d1c7 4500 4db6 6b3d d5bc 923e 588e fe3d
000001c0: e083 6600 7c63 c13d 43ed 0e80 51ed 9a3d
000001d0: a6ec 013e cb1f 563d de9a 5180 9188 4500
000001e0: b32b c43d f19c 4c3d d470 a53d 296d a323
000001f0: 17d4 a43d e7fb 423e 877c 0500 4b10 0800
00000200: d046 0080 12e9 5e3d 8821 343e 7e0b 9f3d
00000210: 7378 0680 aef8 4880 586d 4a80 b847 1900
00000220: 8d09 7e3d fba6 973d c8db 1200 8bc6 5f3e
00000230: 6dca 0c00 b93d 623d 2571 0900 4112 893d
00000240: f1a0 893c d81d 4c80 675c 603d a289 a73d
00000250: 32fe 573d 17f4 7f3d d20b a73d 7370 5280
00000260: 1875 0200 9c6d 4680 7fd3 0300 06cd 073e
00000270: d95a 8b3d f4e3 3580 7571 a03d 40c1 663e
00000280: 554e 6100 e531 943d f373 4600 cb2e 833d
00000290: 23cb dc3d 651d 0e3e dafd 4380 4774 40b7
000002a0: 518f e83d 9074 1200 acec 4f00 390e 3300
000002b0: c48d 3a3e 5c77 3600 b7e6 003e 7d37 d13d
000002c0: 9059 f93d 919d 5b3d 70af 0180 cbac 5700
000002d0: e80c 8e00 73ed 693d 5f08 b73c 3f94 b03d
000002e0: f86e 2980 5e1a c93d 6b03 a43d d5cc 0900
000002f0: 7263 b43d 6c3c 9c3d 67c3 2480 3215 283d
00000300: bf98 423e 9e13 573d 4613 0d00 bbe7 aa3e
00000310: ff0d 6e3e 26fa a93d 3831 0980 5d9e e73c
00000320: cd1e 0c80 6493 903d 6b82 0b00 743b c93d
00000330: d482 9b3e 7a57 7e3e e523 513d ffee 673e
00000340: 7509 2800 c65a 0680 30e5 1000 1157 2d80
00000350: 79bb 9d3d e772 5100 9f35 ca3d 5aea b03d
00000360: fe63 623d 4f3b 403d 7417 8d3e 6b8c 0a3e
00000370: 51ce 1200 7e51 1480 a56c 2e00 3ca3 c63d
00000380: f1e2 3a3e 889c 353e 730a 2b00 463e 1c00
00000390: a57d 1600 cd7b 093e 13b8 4b3d 2c84 e43d
000003a0: 41c8 8a3d b5da b63d 7573 813e 07e3 3900
000003b0: edc6 283d 8936 d13d 0643 273e 8b7d 493d
000003c0: 466a fd3d db85 663d b3ea 923b 43f2 ec3d
000003d0: e8cf ed3d cd8b 1100 2592 1980 9b0e 4800
000003e0: 039d da3d 6225 f934 e4c1 a33d c688 b23d
000003f0: b1f9 2f00 9440 2200 911f 3e80 1c8b 993d
0.23314266 0.033456653 0.16125606 0.026054788 0.055461854 0.05964465 0.111292936 0.013722527
0.18603717 -6.78313e-39 6.92062e-40 0.06645231 0.11269837 3.949619e-39 0.080832586 0.031254046
0.035625037 6.313283e-39 0.084781565 0.14972356 0.07638494 3.55953e-39 0.16050999 0.060109165
0.05635653 0.24269699 0.081232324 1.074569e-39 0.16290937 0.0003562713 0.16174714 1.8395e-40
0.05934888 7.383269e-39 0.0026558386 -1.290335e-39 0.061295193 2.278197e-39 1.14849e-39 0.092017114
0.09480203 3.237032e-39 -7.624855e-39 0.0995908 0.08592501 6.430016e-39 -3.675634e-39 4.285884e-39
1.539403e-39 0.068923265 0.06845032 0.09301532 4.19898e-39 0.11596362 -4.686781e-39 -8.373372e-39
0.19017018 0.047226314 4.812977e-39 0.060545795 0.11361271 -3.9442e-41 0.05931829 5.171918e-39
0.062026817 0.10941631 0.057615615 2.7828866e-30 -1.780442e-39 0.050177038 0.09887379 0.12080314
0.07380615 5.26133e-40 0.05158736 -1.54779e-39 0.1479882 0.046307273 0.11560536 0.11195214
0.077168375 0.07073087 6.24291e-39 5.29321e-39 0.18232262 5.961777e-39 2.42185e-39 6.99998e-40
0.22817321 0.158541 6.323418e-39 0.13055652 0.046984196 -4.660129e-39 4.56822e-40 0.042668495
0.21820664 0.039136294 0.13527668 0.068190984 0.2076439 3.362697e-39 0.20044295 -3.841052e-39
0.02205065 0.08222812 2.765398e-39 2.985059e-39 6.40833e-39 0.057546902 0.28659692 0.12429494
9.414528e-39 0.09442803 -1.37081e-39 0.07564796 0.1268793 0.052276414 -7.494231e-39 6.38564e-39
0.095786475 0.04995436 0.08078161 1.7718727e-17 0.080482654 0.19041406 5.0385e-40 7.40529e-40
-2.5403e-41 0.054421492 0.17590916 0.07765864 -5.94222e-40 -6.701365e-39 -6.835052e-39 2.321615e-39
0.062020827 0.07404896 1.731882e-39 0.21853082 1.174643e-39 0.055234645 8.67108e-40 0.06692935
0.016800376 -6.990204e-39 0.05477562 0.08180548 0.052732654 0.06248864 0.081565514 -7.57085e-39
2.25676e-40 -6.467805e-39 3.51377e-40 0.13261804 0.06804437 -4.949055e-39 0.0783414 0.22534657
8.936143e-39 0.07236079 6.47008e-39 0.064054094 0.10780933 0.138784 -6.244043e-39 -1.1471165e-05
0.113554604 1.694854e-39 7.339906e-39 4.688712e-39 0.18218142 5.001935e-39 0.1258801 0.10215662
0.12175286 0.053617064 -1.5477e-40 8.051675e-39 1.304527e-38 0.057111215 0.022342859 0.08622026
-3.805063e-39 0.09819482 0.080084644 9e-40 0.0880803 0.07628712 -3.376175e-39 0.04103584
0.1900358 0.052508943 1.200775e-39 0.3337992 0.23247527 0.08299665 -8.44176e-40 0.028273756
-1.113075e-39 0.070593625 1.056976e-39 0.09825793 0.3037325 0.24838057 0.051059622 0.22649764
3.676812e-39 -5.83576e-40 1.551585e-39 -4.163831e-39 0.07701773 7.479894e-39 0.09873509 0.08638449
0.05527114 0.04693156 0.27556956 0.13530128 1.727051e-39 -1.865944e-39 4.263407e-39 0.09699103
0.18250634 0.17735493 3.952675e-39 2.593733e-39 2.065454e-39 0.13426133 0.049736094 0.11158022
0.06776477 0.08928434 0.252834 5.316065e-39 0.041205335 0.1021548 0.16334161 0.049191993
0.12373786 0.05628 0.0044835447 0.11569645 0.116119206 1.611355e-39 -2.348314e-39 6.617395e-39
0.10674479 4.6407064e-07 0.07995966 0.08717494 4.405841e-39 3.145573e-39 -5.705125e-39 0.07497236

model.1.bias f4 [256]
00000000: f09f 9dbc e305 823c 735e 5fbe 924d 9b3b
00000010: fd7d 103c 7acc f13b 612d 80bd 36d5 14bd
00000020: 95a7 24be c017 1c80 2272 0080 ff06 cd3a
00000030: 2c1d ec3b f0ac 7680 7eae a6bd 461f 66bb
00000040: d2a5 bebc 1b5b 1780 b7fd 0e3d 15eb f9bd
00000050: 32f6 793b 6be7 1c80 de71 19be 44a7 e1bc
00000060: 9215 d6bd 5200 46be 32a0 b53c d0f3 1180
00000070: 8431 26be 5c30 2cbc dd90 f2bd 99b3 1e80
00000080: 95c9 77bd 3a72 2680 e617 d33c e8f0 1080
00000090: fa81 3dbd a9bb 4f80 9151 0180 806c 1dbe
000000a0: 8515 8bbd 426b 0c80 b897 8780 aded 65bd
000000b0: b213 fdbd c98a 1780 d3d9 3080 cb80 5080
000000c0: 2dc5 3380 76f0 07be 776f 6dbd 7796 b7bd
000000d0: e127 4080 2dd8 4ebe 33f4 2f80 a854 3280
000000e0: 8b33 66be d3a8 0cbd 79ba 1380 c096 eabd
000000f0: 9b18 97bc 9005 0d80 ace4 f3bc e1aa 0380
00000100: 67a6 a6bd 5903 28be b8f5 e0bd 2a52 eb90
00000110: 77e7 0880 5209 efbd 5dac 80be 2bf2 6fba
00000120: 1db6 4c3c 0713 2a80 6b10 0cbd 1447 1c80
00000130: 40f1 33be e100 90bc 4ada 16be 8082 09be
00000140: 410a 5abd f1e9 5abd c69d 3a80 8275 5e80
00000150: e627 28be ab5d 1f80 5541 4780 b0ef 1080
00000160: b1e6 babc 74ad 11be b2d0 3380 e54c 34be
00000170: 6453 d7bc c389 0a80 1a40 1b80 a699 cc3c
00000180: 1340 59be 36ae cdbc 73a1 40be c413 ebbd
00000190: 4fac 79be eb68 0a80 a456 75be 4278 5580
000001a0: fb21 88bc 9c0c 083d 8160 1c80 58b0 2580
000001b0: 016e 2480 38a7 6fbd d6a2 d6bd 94f8 02be
000001c0: 63cd 3c80 1003 21be 17b6 2a80 1632 013d
000001d0: d6b7 11be cfdb e8bc dee7 0380 2eca 5180
000001e0: 1d77 1b3b 5b9a 05bd 994c 28be 3699 10a3
000001f0: b46b f8bd e4de 59be 1ddc 0280 e13f 7280
00000200: 6a8f 1980 0a70 b3bd d954 59be 9594 b8bd
00000210: 72fe 1b80 0fe8 3080 db15 7e80 6530 3180
00000220: 11a8 c43c 1b0b c6bd 5d83 0f80 0fc8 4cbe
00000230: 8f9a 1380 e8e6 0f3d 063b 2f80 9c06 18bd
00000240: 6689 a53a 8888 4180 b39e 1cbe ee6d 0ebe
00000250: 671c e6bc d6b9 48be 4ef6 f73c ab7d 0880
00000260: 68ab 0180 676d 6880 5a4f 3180 0643 09be
00000270: 7009 39bd e888 1a80 dda4 bebd 87ed ccbc
00000280: 215b 3e80 9996 6dbd fbb8 0580 a918 20be
00000290: d39f 13be 6eb5 b4bd 8475 0d80 9a27 deb4
000002a0: a762 98bd 6fb4 1780 9c07 2180 74a0 0880
000002b0: 91ed 1cbe ee64 4280 ff30 f5bd b1d8 57bd
000002c0: 32ee 0bbe f4bd 91bc d6dd 2780 c451 5980
000002d0: 83ca 0280 93e5 90bd dbcc e83c 59e0 27be
000002e0: f368 1480 2cca 76be 153a e93c 048f 3480
000002f0: 9cd8 f5bd a683 2b3d 0990 2480 4e78 82bb
00000300: 3b85 3fbe 6c96 5ebd 78e7 0e80 6235 f8bd
00000310: 9510 27bd bc2d 06be 06ab 2a80 653e 82bd
00000320: f5df 3680 4334 a8bd d6b8 1180 b9f2 cbbd
00000330: 8607 edbd f5aa bcbc 7fe3 eebd d9a5 6cbe
00000340: 10ce 1880 aafb 3580 eb1f 2e80 4872 3d80
00000350: 7380 6bbe 5461 2780 6759 b4bd 7d30 abbd
00000360: c7c5 82bd d846 343d 7da1 dfbd 8f4d cdbd
00000370: 3639 0380 f7fd 1780 8704 6880 4882 0f38
00000380: 94af 5abe f334 52be b439 1680 0f85 0180
00000390: faba 4e80 607e 23be 955d 51bd 6f14 4ebe
000003a0: 5e90 9c3c e279 8bbd 090c d3bc cc02 0a80
000003b0: f009 cbbb cf9b 6f3c 4c63 0cbe b2bd 9cbc
000003c0: 2f19 1cbe a5e8 38bd 0ec5 91ba ca2b 82be
000003d0: 1be8 83bd 7af1 2880 a0d1 0a80 fdd1 5080
000003e0: 0e2e 66be 293c 83a5 ffa4 75bd fadf bbbd
000003f0: 182a 0080 a88c 3280 c1b4 5080 48f4 f5bd
-0.019241303 0.015871948 -0.21813373 0.0047394717 0.0088191 0.007379112 -0.06258655 -0.036336146
-0.16079552 -2.579914e-39 -4.0943e-41 0.0015642344 0.007205626 -1.0898627e-38 -0.081387505 -0.0035113855
-0.023272429 -2.144899e-39 0.03490993 -0.122030415 0.0038141129 -2.654411e-39 -0.14984843 -0.027545579
-0.10453333 -0.1933606 0.022171114 -1.648667e-39 -0.16229826 -0.010509577 -0.11844037 -2.819492e-39
-0.060494978 -3.530726e-39 0.025768232 -1.555789e-39 -0.046266533 -7.322324e-39 -1.21096e-40 -0.1537342
-0.06791214 -1.140503e-39 -1.2452218e-38 -0.05613487 -0.12357272 -2.162003e-39 -4.486244e-39 -7.393042e-39
-4.754344e-39 -0.13275322 -0.05796763 -0.08964246 -5.891778e-39 -0.20199652 -4.40387e-39 -4.622144e-39
-0.224806 -0.03434069 -1.811768e-39 -0.114545345 -0.01844435 -1.195857e-39 -0.029772125 -3.36806e-40
-0.081372075 -0.16407527 -0.10984367 -9.281775e-29 -8.17718e-40 -0.116716996 -0.25131503 -0.00091532123
0.012494591 -3.863917e-39 -0.034195345 -2.596892e-39 -0.17572498 -0.017578544 -0.14731708 -0.13428688
-0.053232435 -0.05344576 -5.383057e-39 -8.67469e-39 -0.1642147 -2.880502e-39 -6.543757e-39 -1.555352e-39
-0.02281508 -0.14226323 -4.758476e-39 -0.17607458 -0.026284881 -9.67775e-40 -2.502554e-39 0.024975609
-0.21215849 -0.025107484 -0.18811588 -0.11478379 -0.24382137 -9.55992e-40 -0.23958832 -7.849158e-39
-0.016617766 0.03321515 -2.606013e-39 -3.461174e-39 -3.34554e-39 -0.05850908 -0.10480277 -0.12790138
-5.583809e-39 -0.15723825 -3.922412e-39 0.031541906 -0.14230284 -0.028425125 -3.58685e-40 -7.511204e-39
0.002372212 -0.032617908 -0.1643547 -7.838699e-18 -0.12129918 -0.21276432 -2.62633e-40 -1.0492162e-38
-2.347335e-39 -0.08761604 -0.21223773 -0.09012715 -2.570836e-39 -4.491351e-39 -1.1579113e-38 -4.5173e-39
0.024005922 -0.09670087 -1.424657e-39 -0.19998191 -1.80032e-39 0.03513232 -4.337442e-39 -0.03711568
0.0012629449 -6.018285e-39 -0.15294914 -0.13909122 -0.028089715 -0.19602141 0.030268814 -7.79765e-40
-1.53324e-40 -9.590138e-39 -4.528405e-39 -0.13404474 -0.045175016 -2.436836e-39 -0.09308789 -0.025015606
-5.726492e-39 -0.05800495 -5.25536e-40 -0.15634407 -0.14416437 -0.088236675 -1.236018e-39 -4.1379536e-07
-0.074406914 -2.176944e-39 -3.033301e-39 -7.92244e-40 -0.15325 -6.09735e-39 -0.11972236 -0.052696887
-0.13665083 -0.017790772 -3.661164e-39 -8.202691e-39 -2.56319e-40 -0.07075038 0.028417995 -0.16394176
-1.874359e-39 -0.2410056 0.028470078 -4.82675e-39 -0.120042056 0.041873597 -3.357748e-39 -0.0039816266
-0.18703167 -0.054342672 -1.368732e-39 -0.12119557 -0.0407873 -0.13103384 -3.918442e-39 -0.06359557
-5.039457e-39 -0.08213093 -1.62751e-39 -0.09958405 -0.115737006 -0.023030737 -0.11664485 -0.23110141
-2.277973e-39 -4.957561e-39 -4.235883e-39 -5.642962e-39 -0.22998218 -3.616499e-39 -0.08806115 -0.08358858
-0.06385379 0.044012874 -0.10919473 -0.10024559 -2.9603e-40 -2.203322e-39 -9.552516e-39 3.421519e-05
-0.2135604 -0.20528011 -2.041081e-39 -1.39568e-40 -7.230243e-39 -0.15966177 -0.051114637 -0.20124982
0.019111808 -0.06810357 -0.025762575 -9.19358e-40 -0.006196253 0.01462455 -0.13709754 -0.019133423
-0.15243982 -0.045143742 -0.0011121349 -0.25424033 -0.06440755 -3.760045e-39 -9.93554e-40 -7.422169e-39
-0.22478506 -2.2765644e-16 -0.059971806 -0.091735795 -1.51e-41 -4.642233e-39 -7.411682e-39 -0.120094836

model.1.running_mean f4 [256]
00000000: 4164 3e3b 3afb bf3a 7aba 92ba 0a8a 9439
00000010: df61 5c3b eaa3 aebb 6139 a53b 4235 3239
00000020: 5a94 b13b d66c b380 4dc7 0101 0a66 abbb
00000030: d890 f33b 2cab 5a80 b305 0c3b 8557 0b3a
00000040: 0547 593a a8da 2d00 2f1b f73b 52e6 423b
00000050: 7838 a639 f648 1681 d610 3a3b 91f5 89bb
00000060: 8447 cfb9 5fb6 f53b e24f cd3b 3d15 0f01
00000070: bf25 af3b a47e 3db9 3740 b73b 138b 2580
00000080: 5d73 0d3b 4dac 2080 1f70 de3a c3b7 ee00
00000090: 6747 363b 83e5 3280 ec0a 5680 6b61 9dbb
000000a0: 3fc9 6d3b 54ff 2080 5a10 3000 4b22 6e3b
000000b0: 4400 29ba 25f7 4900 0a15 7700 3cd5 8200
000000c0: 3fc5 3f80 9853 383b 07ca 073b 0d46 183b
000000d0: 2d5b 7c80 1f22 82ba 75ee 1280 1c92 e200
000000e0: 4644 133a 3f85 353b b999 0380 dfd6 713a
000000f0: 0b57 daba d243 1780 efda 663b c3f1 0800
00000100: b75d 36ba 494b 843b 5ced 49ba 77af 7580
00000110: 8869 2600 cbe8 e0ba 877e a3bb 63d1 ea3b
00000120: 0575 45ba b0be 1b00 49fb 62ba d262 4000
00000130: 0e69 a13b c60f 2b3b 235a c4b9 f69c b33a
00000140: 5d8c 603b 95c4 6c3b ba7b 5300 4fb3 3d80
00000150: 7ed6 b83b f79b 3400 6a66 0381 43ba db80
00000160: 4b4c 483b 16b3 bc3b 1518 1681 aeb9 c3bb
00000170: 36ee bbba 2c14 0501 646c 3d00 f897 813b
00000180: 502c 983b db6e 8fbb 4aa8 cb3a f625 05bb
00000190: 50a1 e039 2b52 7780 179a 193a 3507 f900
000001a0: 8806 ccba 8804 f33b 8603 0c01 a30d 0980
000001b0: 7923 4380 55c6 0c3b 5de9 983b 3c23 a43b
000001c0: 5b24 4580 d029 823a f372 7700 6353 f33b
000001d0: 2cf0 2c3b 48ef 0b3b 7cbe c280 c196 0c01
000001e0: dffc 56bb 205c fe3a 598a 16ba de8e 8d99
000001f0: eda1 22bb 6dcf 153a cbe0 0a00 32bc 2c80
00000200: 09f9 0800 6114 adba 3b09 c0ba 2917 8d3b
00000210: 4807 d480 ea85 5480 800d d700 c673 7680
00000220: 7157 ab3b 9174 8a3b 561f 7380 681f eb3b
00000230: a723 ef00 3f2a 5ebb afb0 1680 a9cb 173b
00000240: 9e82 dd39 6aea 6f00 9c4b 3dbb 4e57 aebb
00000250: d807 133b d41b 27ba 3096 df3b eca3 4c00
00000260: 3075 1a01 9998 2a00 add0 6f00 e481 1e3b
00000270: 3b74 1c3b c156 1681 f1ca 3abb 4f87 3e3b
00000280: 03dd 8000 3db8 9539 611a 3b80 e41a 45bb
00000290: 8715 74bb 27ec a53b ee94 da00 06f2 15b1
000002a0: a7cd 8f3b 50f9 3800 7614 6400 3043 0900
000002b0: ea8e b73b 3597 4d80 fa4f 7fba e477 603a
000002c0: fee8 183b e980 ad3a b4ad c100 4509 8c80
000002d0: d217 e500 5033 4f3b e313 bf3a b468 cb3a
000002e0: 619d 5d80 3137 b3ba f35c bdbb baf7 3800
000002f0: 15c2 1f3b 5cbd 88bb 388b 1480 34e9 d2bb
00000300: 7591 ee3b 215e 103b 04ac d580 4afd ab3b
00000310: 562b 8b3b 1b05 913a 722f 8600 ff8f 05bb
00000320: c292 d000 be56 9abb 820d 5700 0748 7a3b
00000330: b9ae 9a3b b428 273b 0da4 f4ba e972 c93b
00000340: f8bb 5700 cd3d 5680 e348 0380 b98f b300
00000350: 53c8 5aba ed4c 4000 36a0 843b d2a1 593b
00000360: 9711 573b 5ae5 9f39 ab79 af3b 43e4 aa3b
00000370: 040a 4d80 9408 2380 5fe5 2000 223b df3b
00000380: 7ff3 533a ef16 bd3b 4162 3d80 cbda ec00
00000390: e4fc 3280 bbe0 ec3a da41 e23a 6f0d 9dbb
000003a0: 30e8 3a3b 9635 433b 1214 593b c846 4a80
000003b0: 86c3 663b 1699 c83b 52d3 c63b 2a51 653b
000003c0: bc1a 5f3a 69a3 813b fd7f 063a 2934 c1bb
000003d0: cac0 9a3b 16e2 6200 385f 1001 48db 7c80
000003e0: 3b31 fcba b35d 9b25 5f78 2d3b 8a82 72bb
000003f0: 8ef5 f580 f097 c280 99c9 5400 b8da 2c38
0.0029051455 0.0014647015 -0.001119449 0.00028331607 0.0033627672 -0.0053295987 0.0050422405 0.00016995243
0.005419296 -1.6477597e-38 2.383655e-38 -0.00523067 0.007433038 -8.3266e-39 0.0021365702 0.00053154706
0.0008288476 4.211036e-39 0.0075410823 0.0029739332 0.0003170406 -2.7602996e-38 0.0028391383 -0.004210182
-0.000395354 0.007498547 0.0062656263 2.628019e-38 0.005345076 -0.00018071622 0.005592372 -3.447804e-39
0.0021583654 -3.000546e-39 0.001697067 2.192277e-38 0.0027813555 -4.674108e-39 -7.90177e-39 -0.004802873
0.0036283282 -3.03033e-39 4.41397e-39 0.0036336358 -0.0006446878 6.79265e-39 1.0935971e-38 1.2015109e-38
-5.856395e-39 0.0028125998 0.0020719783 0.0023235113 -1.1420309e-38 -0.0009928382 -1.738581e-39 2.0807236e-38
0.00056177785 0.002769783 -3.30652e-40 0.00092254387 -0.0016658021 -2.136546e-39 0.003522571 8.21412e-40
-0.00069567136 0.004037295 -0.0007702911 -1.0807698e-38 3.527606e-39 -0.0017159221 -0.0049894485 0.007166074
-0.0007532391 2.547964e-39 -0.000865866 5.912922e-39 0.0049258536 0.002610193 -0.0003745119 0.0013703394
0.003426335 0.0036127914 7.666731e-39 -5.666289e-39 0.005640804 4.831395e-39 -2.4134378e-38 -2.0178792e-38
0.0030563052 0.0057586534 -2.7567927e-38 -0.0059730625 -0.001433796 2.4442715e-38 5.640848e-39 0.0039548837
0.0046439543 -0.0043772287 0.0015537825 -0.0020316816 0.00042844797 -1.09579e-38 0.0005859448 2.2869624e-38
-0.0015565911 0.0074163117 2.5716467e-38 -8.31411e-40 -6.165703e-39 0.002148052 0.004666491 0.005009083
-6.349691e-39 0.0009930674 1.096966e-38 0.007425712 0.002638827 0.002135234 -1.7884419e-38 2.58221e-38
-0.0032804532 0.0019406117 -0.00057426613 -1.4636762e-23 -0.0024815754 0.0005714808 9.98995e-40 -4.108274e-39
8.24021e-40 -0.0013204926 -0.0014651188 0.0043057394 -1.9471737e-38 -7.762221e-39 1.9749475e-38 -1.087812e-38
0.0052289297 0.0042253216 -1.0572323e-38 0.007175375 2.1961473e-38 -0.0033899692 -2.083763e-39 0.0023162162
0.00042249722 1.0277832e-38 -0.0028884178 -0.005320466 0.0022435095 -0.0006374691 0.0068233237 7.038302e-39
2.836941e-38 3.911833e-39 1.0268599e-38 0.0024186308 0.002387299 -2.7612892e-38 -0.002850231 0.002907235
1.1834228e-38 0.00028556763 -5.427757e-39 -0.0030075843 -0.0037244277 0.005063552 2.0073564e-38 -2.1819928e-09
0.0043885293 5.232224e-39 9.19089e-39 8.50622e-40 0.0056017535 -7.125576e-39 -0.00097393955 0.0008562787
0.0023332234 0.0013237271 1.7786564e-38 -1.2860295e-38 2.1038874e-38 0.0031616278 0.001457807 0.0015518875
-8.597158e-39 -0.0013673065 -0.0057789027 5.231655e-39 0.0024377157 -0.004172964 -1.886652e-39 -0.0064364914
0.0072805234 0.0022028761 -1.9622668e-38 0.0052487003 0.0042471094 0.0011064144 1.2322977e-38 -0.0020380018
1.915443e-38 -0.0047100475 7.994534e-39 0.0038189904 0.0047205356 0.0025506439 -0.0018664614 0.0061477316
8.057119e-39 -7.920023e-39 -3.01653e-40 1.6490112e-38 -0.00083458907 5.905068e-39 0.004047419 0.0033208025
0.003281688 0.00030497723 0.00535508 0.005215199 -7.074926e-39 -3.21732e-39 3.021019e-39 0.006812469
0.0008085295 0.005770556 -5.637212e-39 2.1751665e-38 -4.682495e-39 0.0018072346 0.0017262057 -0.004792861
0.0028519742 0.0029786578 0.0033123535 -6.821218e-39 0.0035211756 0.006121765 0.006067672 0.0034991005
0.00085107586 0.0039562476 0.0005130766 -0.0058961106 0.0047226893 9.080983e-39 2.651694e-38 -1.1466265e-38
-0.0019240746 2.6951707e-16 0.0026469452 -0.0037004077 -2.2587785e-38 -1.7870591e-38 7.786501e-39 4.1211693e-05

model.1.running_var f4 [256]
00000000: 33da d03d 587e a93c e02f a53d 09d0 3e3c
00000010: 9f4e ed3c 0a25 433d b8a4 6b3d 7041 733a
00000020: 1b2c f13d 0400 0000 0400 0000 697e 453d
00000030: 4462 b13d 0400 0000 ae1f 583d 7d23 ce3c
00000040: c11b 583b 0400 0000 fac3 9d3d ac12 9f3d
00000050: db7d 143d 0400 0000 b985 d23d c6f3 f73c
00000060: 60d5 c33c 210f bb3d 646e 8c3d 0400 0000
00000070: 6306 883d 2c67 4339 ca9d 913d 0400 0000
00000080: 5c13 283d 0400 0000 352d af3c 0400 0000
00000090: 3c58 773d 0400 0000 0400 0000 4737 2b3d
000000a0: f14d 213d 0400 0000 0400 0000 befc d23c
000000b0: 42bd f43c 0400 0000 0400 0000 0400 0000
000000c0: 0400 0000 8698 1b3d a284 2f3d e884 613d
000000d0: 0400 0000 9d35 5a3d 0400 0000 0400 0000
000000e0: c458 ba3d f349 9c3c 0400 0000 02eb 083d
000000f0: da2a 803d 0400 0000 2561 5d3d 0400 0000
00000100: c718 0e3d 6394 0c3d c655 073d 0400 0000
00000110: 0400 0000 cc51 b93c d9d9 3f3d 6089 b83d
00000120: 2dae 273d 0400 0000 fd41 f73b 0400 0000
00000130: 5d08 943d 2490 203d f448 4b3d 2b06 893d
00000140: 46b4 2a3d 84ad 043d 0400 0000 0400 0000
00000150: 09b4 ec3d 0400 0000 0400 0000 0400 0000
00000160: ccd0 c73d c01f 473d 0400 0000 093e 783d
00000170: f72e c43c 0400 0000 0400 0000 d001 dc3c
00000180: b469 933d 1e5b 0d3d 04b0 8c3d 001c ce3c
00000190: 83e8 e23d 0400 0000 33f8 d13d 0400 0000
000001a0: df64 a53b dd9c 9e3d 0400 0000 0400 0000
000001b0: 0400 0000 7e90 4c3d b783 ac3d 9ffb 233d
000001c0: 0400 0000 6b2d 973c 0400 0000 9485 943d
000001d0: a73e 733d 277c 1a3d 0400 0000 0400 0000
000001e0: 822f 873d 06d2 313c 9866 3f3d 4e03 0000
000001f0: 8a91 223d 9a86 bb3d 0400 0000 0400 0000
00000200: 0400 0000 e00c e43c fa6e ae3d e4d1 2c3d
00000210: 0400 0000 0400 0000 0400 0000 0400 0000
00000220: b7ff 6b3d 3a61 103d 0400 0000 b46e 9b3d
00000230: 0400 0000 4fa4 453d 0400 0000 6075 133d
00000240: a11a 8c3c 0400 0000 abe6 d93c 3117 0d3d
00000250: 3c52 8b3c 5359 f53c 2e50 853d 0400 0000
00000260: 0400 0000 0400 0000 0400 0000 da62 833d
00000270: 8188 283d 0400 0000 1373 323d 2a0a bd3d
00000280: 0400 0000 1c8c 933c 0400 0000 e4a0 013d
00000290: a95b 2d3d 278c 693d 0400 0000 c2ae 8429
000002a0: ae83 973d 0400 0000 0400 0000 0400 0000
000002b0: 6a1c 003e 0400 0000 9fc2 6e3d a62c fb3c
000002c0: d8c5 673d 1c4c b23c 0400 0000 0400 0000
000002d0: 0400 0000 1ef2 493d 26cc b73c 22a4 3c3d
000002e0: 0400 0000 dbda 3d3d d5fc 7d3d 0400 0000
000002f0: 34dd fe3c 8e3a 7a3d 0400 0000 ce3f 393d
00000300: f38c 9b3d 4c93 233d 0400 0000 a0f9 e43d
00000310: 8bd5 a73d 7190 313d 0400 0000 52c5 093c
00000320: 0400 0000 4a38 003d 0400 0000 77cd a73d
00000330: ffde d73d 2a89 e33d f941 ff3c ad5c af3d
00000340: 0400 0000 0400 0000 0400 0000 0400 0000
00000350: ba1d 413d 0400 0000 cb83 113d ba2b 113d
00000360: e32c 383d 9b38 213d 65c5 0e3e 0afe 323d
00000370: 0400 0000 0400 0000 0400 0000 2992 8e3d
00000380: c125 bd3d 6725 723d 0400 0000 0400 0000
00000390: 0400 0000 33e8 873d 6ec7 063d 0c7f 343d
000003a0: 4908 1b3d d6d9 3f3d 7e1e bf3d 0400 0000
000003b0: d767 e33c 79df 943d 8371 803d 76c2 2e3d
000003c0: a01c 8c3d d8c5 833d 229f 083b 28b0 893d
000003d0: d74e 6b3d 0400 0000 0400 0000 0400 0000
000003e0: 1982 323d aee7 5317 b278 c03c cad9 123d
000003f0: 0400 0000 0400 0000 0400 0000 6e17 403d
0.10197868 0.020690128 0.08065772 0.011646279 0.028968154 0.047642745 0.057530135 0.00092794653
0.117759906 6e-45 6e-45 0.048216257 0.08661321 6e-45 0.052764587 0.025163407
0.0032975527 6e-45 0.07703395 0.07767233 0.036252838 6e-45 0.10279412 0.030267607
0.023905456 0.09133745 0.06856993 6e-45 0.06641843 0.00018635084 0.07110174 6e-45
0.041034088 6e-45 0.021383861 6e-45 0.06038688 6e-45 6e-45 0.041800763
0.03938097 6e-45 6e-45 0.025755282 0.029875401 6e-45 6e-45 6e-45
6e-45 0.037987255 0.042851098 0.05505839 6e-45 0.053273786 6e-45 6e-45
0.09098962 0.01907823 6e-45 0.033427246 0.06258173 6e-45 0.054047722 6e-45
0.0346916 0.0343212 0.033040784 6e-45 6e-45 0.022622012 0.046838615 0.09010577
0.04093759 6e-45 0.007545708 6e-45 0.07228158 0.039199963 0.04963012 0.066906296
0.04167583 0.03239204 6e-45 6e-45 0.115577765 6e-45 6e-45 6e-45
0.09756622 0.048614264 6e-45 0.060606036 0.023948176 6e-45 6e-45 0.026856333
0.07197896 0.034510724 0.0686951 0.025159836 0.11079504 6e-45 0.10252418 6e-45
0.005047425 0.07744763 6e-45 6e-45 6e-45 0.049942486 0.0842356 0.040034886
6e-45 0.018454274 6e-45 0.072520405 0.05938592 0.037716057 6e-45 6e-45
0.06600858 0.010853296 0.0467287 1.185e-42 0.039689578 0.091565326 6e-45 6e-45
6e-45 0.02783817 0.08517261 0.042192355 6e-45 6e-45 6e-45 6e-45
0.057616916 0.035248972 6e-45 0.07589474 6e-45 0.0482524 6e-45 0.03600061
0.017102541 6e-45 0.026599249 0.034445945 0.017006986 0.02994982 0.06509434 6e-45
6e-45 6e-45 6e-45 0.06415339 0.041145805 6e-45 0.043566775 0.09230454
6e-45 0.018011145 6e-45 0.031647578 0.042323742 0.057018425 6e-45 5.892293e-14
0.07398163 6e-45 6e-45 6e-45 0.12510839 6e-45 0.058291074 0.030660938
0.056585163 0.021764807 6e-45 6e-45 6e-45 0.049303167 0.022436213 0.046054967
6e-45 0.046351295 0.062008698 6e-45 0.031111337 0.061091 6e-45 0.045226865
0.07595243 0.039935395 6e-45 0.11180425 0.08195027 0.04335064 6e-45 0.008408861
6e-45 0.03130368 6e-45 0.08193486 0.1054058 0.11110146 0.031159388 0.085625984
6e-45 6e-45 6e-45 6e-45 0.04714749 6e-45 0.03552608 0.03544209
0.044964682 0.039360624 0.13942488 0.0436993 6e-45 6e-45 6e-45 0.069614716
0.092357166 0.0591177 6e-45 6e-45 6e-45 0.06636085 0.032905035 0.044066474
0.0378497 0.046838604 0.09331988 6e-45 0.027759476 0.072691865 0.06271651 0.04266592
0.06841397 0.0643422 0.0020846804 0.06723052 0.057448234 6e-45 6e-45 6e-45
0.043581102 6.84702e-25 0.023495052 0.03585223 6e-45 6e-45 6e-45 0.046897344

model.4.weight f4 [128, 256]
00000000: 6a5a 25bb a0c2 40bd 0e39 b6bd fc46 9fbc
00000010: 7a3d 54bd 3925 cbbc e51d 91bd cdd4 1bba
00000020: d370 2a3d eeb0 7300 4852 3100 d3b0 b0bb
00000030: 1a23 dbbd a064 7900 145f 373d 4b7b 783b
00000040: 63c9 a13a 78bf 2b80 b245 b7bd b727 55bc
00000050: f556 24bd b293 1600 ba98 ab3c dece 8e3a
00000060: ce2c d73c 1cc5 e03a 2465 9cbd 1ea5 4800
00000070: 77a9 58bc 35a1 eb3a bf38 6fbd bdf4 0580
00000080: e104 023d 91d5 0f00 620f 9fbc b90e 2e80
00000090: b655 74bc d0b9 2900 6fe1 2d80 9c61 85bd
000000a0: 0e50 0bbd 89d2 1d00 dd70 7b80 d950 d8bc
000000b0: 5978 9cbc beb2 4080 bc8a 0b00 3e2b 2300
000000c0: 1c47 7c80 dcd5 43bc 5aa1 8f3c 93fa 043d
000000d0: 46b7 0100 c215 72bd 704f 8500 db67 9800
000000e0: 65db b73c e317 8bbb 24ba 8c80 69f2 643d
000000f0: 9ded d0bc c6dd 0980 f4f8 ce3c 479a 6c80
00000100: 859f 6b3b 79b2 aa3b a19e d3ba 1209 8210
00000110: ae84 4f80 feb8 20bc 5e72 02bd a938 d8bd
00000120: 17e4 bdbc 3d57 0d80 c808 c33c d9b0 3800
00000130: 3679 6d3d 3f77 a43c 6f73 f0bc c7f6 1c3d
00000140: c574 4137 fd6c 09bd abcf 1b00 8aad 0780
00000150: 3380 723b fd7e 0700 d2a2 2600 3d52 3a80
00000160: 72a5 923c d687 0cbd 0749 8280 3039 42bd
00000170: c6b8 b2bc 0f98 6b00 601c 4c00 1354 3bbd
00000180: 7459 1abd 5215 a33c 9d9f 023c fd38 ac3a
00000190: c0bd 16bb 1e36 4f80 d475 68ba d99b 4d00
000001a0: 4eda c13b c2b6 acbd 1b52 0000 4d50 1c80
000001b0: 6057 4480 9a8d c83c 29b7 85bb 56c3 e2bb
000001c0: 19e5 6380 f98f d73c ceea 6280 296f acbd
000001d0: 09fe c93c 82ac ac3c 39b3 4580 5554 0d00
000001e0: 9e3f 35bd f410 8dbc 735a 073d fd92 6600
000001f0: 3b86 043c 39eb 72bc 1dc6 0280 fbfe 3080
00000200: 867b 4480 da0c 0abc c530 79bd 8dcc 7f3c
00000210: 6f13 2f80 f08f 0b00 0a5e 5580 3d8c 6400
00000220: c000 a6bd 2e72 e03c 7ccf 0c00 c03c 393c
00000230: c598 2380 8962 41bd 944e 1600 c4a9 5e3b
00000240: ea81 a53c f3d2 1100 89fb 43bc 0099 253d
00000250: 7e37 83bb cccf 68bd 5f50 b8bd cc83 4580
00000260: 793c 0e00 b03a 3500 f41f 2f80 6ff1 00bb
00000270: fa85 603c 20e0 0500 3386 613c 40ba a93b
00000280: 4d78 4f00 5c1c 8fbc 8112 3a80 1b1f 043d
00000290: bb4e 91bc 0d6f 6dbd 0b81 0b00 db06 7b1e
000002a0: 81f2 1a3d 4a7f 1480 bb6a 1c00 67ee 0200
000002b0: 67a8 a63b 5a55 2100 06b4 31bd e0af 43bd
000002c0: 1005 4fb9 47b8 49bd 1df1 3e80 20ee 0680
000002d0: 9dbe 2400 f3e7 4ebc e18a 6bbd cac1 b9ba
000002e0: 094f 4280 d1cf 53bd 1995 8bbc 102a 5e00
000002f0: d7d5 f13c 7113 53bd a243 3c80 4c90 acbc
00000300: d80c 37bc 3e4f ff3c e32a 7d00 db0c b2bb
00000310: 4495 113c 6910 14bd 0181 5d80 9863 253b
00000320: f98f 2480 a179 cebb 8971 1680 d07d 0f3d
00000330: 3794 a5bc 8663 683c 8c5e c73c 256a 71bc
00000340: e486 1980 cf00 0a80 0829 3280 ac93 3500
00000350: 1b35 a4bc 6c6e 0780 50fb 573b 420f e0bc
00000360: 0fff 5dbc c764 82bc 571b 83bc 4249 c13b
00000370: 5108 0d80 79b6 2a00 5f6f 8d00 5dfe abbd
00000380: c6bf 603c 26f3 8fbc 3cb7 0380 ae08 6f00
00000390: 89ff 0e00 a994 cc3c c5f8 f23c 8bdd 0dbd
000003a0: 5202 1fbd 59c4 e33c fc51 553c 851b 2d80
000003b0: 4cca 6fbc fe5c abbd 7a6c 4abc 6086 b33c
000003c0: 97a7 343d 668f a43a 4519 b839 1239 7ebd
000003d0: a4e1 5bbd ebd3 1480 228e 2280 3c3b 0680
000003e0: 33f8 2abc f1b0 cb9a dd24 1cbc 1d85 c4bb
000003f0: f340 0380 5a66 0400 708a 0500 9cfc 213d
-0.0025230893 -0.04706061 -0.08897601 -0.019443028 -0.05181644 -0.024798023 -0.0708578 -0.00059444905
0.041611504 1.0624552e-38 4.529456e-39 -0.005392173 -0.107000545 1.1148192e-38 0.044768408 0.0037915285
0.0012343343 -4.017612e-39 -0.0894884 -0.013009957 -0.04012199 2.073364e-39 0.02094685 0.0010895391
0.026266482 0.0017148587 -0.076364785 6.671389e-39 -0.013223997 0.0017977121 -0.058403727 -5.46973e-40
0.031742934 1.454146e-39 -0.019416515 -4.229714e-39 -0.014913013 3.831912e-39 -4.213468e-39 -0.06512758
-0.034011893 2.738755e-39 -1.1336254e-38 -0.026405739 -0.019100355 -5.941592e-39 1.059959e-39 3.229755e-39
-1.1413111e-38 -0.0119528435 0.017532993 0.03246553 1.57582e-40 -0.05910278 1.2242618e-38 1.3996252e-38
0.022443483 -0.004244791 -1.2923744e-38 0.055895243 -0.025503928 -9.06077e-40 0.025265194 -9.973578e-39
0.0035953235 0.005209264 -0.0016145298 5.1289934e-29 -7.3026e-39 -0.009809731 -0.03184735 -0.10557682
-0.02318005 -1.225157e-39 0.023807898 5.206229e-39 0.057976924 0.020076392 -0.029351918 0.038321283
1.1530884e-05 -0.033551205 2.554056e-39 -7.05103e-40 0.0037002682 6.88403e-40 3.548158e-39 -5.35596e-39
0.017901156 -0.03430923 -1.1964812e-38 -0.04741782 -0.021816622 9.880946e-39 6.989677e-39 -0.045734476
-0.037682965 0.019907627 0.007972625 0.0013139542 -0.0023001283 -7.274418e-39 -0.00088676554 7.127241e-39
0.0059159165 -0.08433296 2.9454e-41 -2.6002e-39 -6.276158e-39 0.024481583 -0.0040806723 -0.0069202585
-9.173899e-39 0.026313769 -9.08411e-39 -0.084196396 0.024657266 0.021078352 -6.400942e-39 1.224114e-39
-0.044250123 -0.017219998 0.033045243 9.41995e-39 0.008088644 -0.014826589 -2.5474e-40 -4.499574e-39
-6.289126e-39 -0.008425916 -0.060837526 0.015612734 -4.32324e-39 1.061826e-39 -7.839752e-39 9.233858e-39
-0.08105612 0.027398195 1.176457e-39 0.011305988 -3.269046e-39 -0.04721311 2.04857e-39 0.00339757
0.02020355 1.636878e-39 -0.011961826 0.040429115 -0.004004418 -0.056838796 -0.089997046 -6.383929e-39
1.30739e-39 4.888334e-39 -4.327731e-39 -0.0019675156 0.0137038175 5.39578e-40 0.013764906 0.0051796734
7.29816e-39 -0.017469577 -5.333097e-39 0.032256227 -0.017737737 -0.057967234 1.056482e-39 1.3289247e-20
0.037828926 -1.882373e-39 2.609682e-39 2.69194e-40 0.005085993 3.06119e-39 -0.043384574 -0.04777515
-0.00019742944 -0.049248006 -5.780296e-39 -6.36436e-40 3.374457e-39 -0.012628543 -0.057505492 -0.0014172134
-6.089495e-39 -0.05171186 -0.017038869 8.647626e-39 0.029520912 -0.051532213 -5.534392e-39 -0.0210649
-0.011172496 0.031165715 1.1494822e-38 -0.0054336614 0.008885685 -0.036148462 -8.586979e-39 0.0025236364
-3.357726e-39 -0.0063011204 -2.06111e-39 0.035032094 -0.020212276 0.0141838845 0.024337076 -0.0147347795
-2.344277e-39 -9.18645e-40 -4.606494e-39 4.920256e-39 -0.020044854 -6.8246e-40 0.003295619 -0.027351025
-0.01354958 -0.015917195 -0.016004248 0.0058986256 -1.196845e-39 3.92255e-39 1.2988757e-38 -0.08398125
0.013717597 -0.017571997 -3.41239e-40 1.0196854e-38 1.377366e-39 0.02497323 0.029659638 -0.034635108
-0.038820572 0.027803587 0.013020035 -4.14247e-39 -0.014635634 -0.08367346 -0.012354964 0.02191466
0.04410514 0.0012554943 0.00035114042 -0.062066145 -0.053681985 -1.912732e-39 -3.173395e-39 -5.72262e-40
-0.010435152 -8.4244696e-23 -0.009530273 -0.0059973137 -2.98806e-40 4.04059e-40 5.0884e-40 0.039547548

model.4.bias f4 [128]
00000000: 6286 1638 80d0 bfb5 4f70 06b8 2e52 9d01
00000010: 1828 1680 a52e b237 b0d2 0280 84a5 3e01
00000020: 9d46 88b7 0825 5481 8021 be00 0aca ddb7
00000030: ad53 9337 9d1d 1036 e81f 3f80 934e a737
00000040: 129f ad36 2caa 7038 8dc0 c8b6 12d9 d436
00000050: 3e6f 4237 b5c4 8637 7454 8f01 e624 2137
00000060: f6be afb8 8c1f 0181 d508 dbb7 caa7 c9b7
00000070: 0cf2 b8b7 980e 89b7 3426 02b6 c2a0 15b7
00000080: 6eb4 5bb6 c77a bc36 8fe0 0282 487e c3b6
00000090: 7820 8581 18af a400 b8e0 7d00 ae9a cfb7
000000a0: 902a 7538 0858 3b80 1caf f381 2502 b5b6
000000b0: 6a82 a2b5 b86d 3900 7195 d8b6 d072 4e81
000000c0: 0c80 ffb7 1cf4 2937 397b f6b7 f0b7 5d00
000000d0: 36e0 0238 50f0 a5b6 53b2 b1b7 6ae2 a101
000000e0: f889 0e00 8605 8b01 3632 95b6 3498 af81
000000f0: 6ecc 4036 b8ca 8e80 0053 f000 d553 fc36
00000100: 8457 8081 3e6a f181 dcfd 7901 b06b 2280
00000110: 6e69 c938 5463 9936 b0fe 2db7 6b96 0fb8
00000120: f07c 4f80 a4eb 5201 43bd f3b6 5c63 7801
00000130: 30cd c981 7b3f 0136 98b8 ea00 9019 5f80
00000140: b86c 1f36 49a6 cab8 b248 99b7 c13d 9cb7
00000150: a872 1b00 cde4 4ab7 95ce 1036 1a59 24b7
00000160: 0896 8ab6 28bc 7501 7bf2 47b8 bff8 a436
00000170: ba66 23b8 ce67 b401 0cb8 c9b7 96d0 2fb7
00000180: 545b 74b7 208e a480 cc84 ee81 6872 8201
00000190: b0db 5000 6037 b7b8 d01e aeb6 0714 3ab7
000001a0: c636 2b38 646e 4d01 4c43 4c36 ebf5 4638
000001b0: b7c0 06b8 765f 62b8 5eda c038 70fd 46b5
000001c0: 4447 4537 7630 4837 e8bd 7201 c810 cd01
000001d0: ea1b 1c37 805f 2a38 b0e4 14b8 772d 31b7
000001e0: 04dd da37 f64d 5237 855b ecb6 4151 02b7
000001f0: 8867 0a80 cce0 1fb6 027c 3db8 b800 15b6
3.588794e-05 -1.429129e-06 -3.2052685e-05 5.7790614e-38 -2.034764e-39 2.1240974e-05 -2.59251e-40 3.501624e-38
-1.6245345e-05 -3.896482e-38 1.7460762e-38 -2.6439335e-05 1.756273e-05 2.147491e-06 -5.797082e-39 1.994454e-05
5.17432e-06 5.7378944e-05 -5.9828803e-06 6.3433627e-06 1.1589202e-05 1.6065644e-05 5.265109e-38 9.604939e-06
-8.3802195e-05 -2.3716192e-38 -2.6110947e-05 -2.40392e-05 -2.2047221e-05 -1.6338468e-05 -1.9393747e-06 -8.918521e-06
-3.2738567e-06 5.61713e-06 -9.615337e-38 -5.826154e-06 -4.8903074e-38 1.5123833e-38 1.1560051e-38 -2.4748351e-05
5.845219e-05 -5.449874e-39 -8.951537e-38 -5.39447e-06 -1.2107896e-06 5.273983e-39 -6.454699e-06 -3.7918598e-38
-3.0457995e-05 1.0130021e-05 -2.9382865e-05 8.606685e-39 3.1203228e-05 -4.9453593e-06 -2.1183083e-05 5.946695e-38
1.335191e-39 5.106846e-38 -4.4463914e-06 -6.450325e-38 2.8729223e-06 -1.3113362e-38 2.2070294e-38 7.5199446e-06
-4.714535e-38 -8.868187e-38 4.5916212e-38 -3.161038e-39 9.604065e-05 4.5713186e-06 -1.0370903e-05 -3.4233944e-05
-7.299823e-39 3.8739972e-38 -7.2639973e-06 4.5621693e-38 -7.413017e-38 1.9259448e-06 2.1555726e-38 -8.733542e-39
2.375613e-06 -9.6630836e-05 -1.8272873e-05 -1.8625406e-05 2.52069e-39 -1.209341e-05 2.1577919e-06 -9.795907e-06
-4.1301864e-06 4.513439e-38 -4.7671125e-05 4.9165387e-06 -3.89579e-05 6.627051e-38 -2.404677e-05 -1.0479378e-05
-1.4564797e-05 -1.5112006e-38 -8.7617947e-38 4.7918623e-38 7.425649e-39 -8.7364344e-05 -5.189191e-06 -1.1091127e-05
4.082059e-05 3.7731755e-38 3.043754e-06 4.7435908e-05 -3.212757e-05 -5.3971504e-05 9.1959475e-05 -7.412955e-07
1.1758708e-05 1.1932212e-05 4.458463e-38 7.5329187e-38 9.304824e-06 4.06201e-05 -3.549893e-05 -1.0560608e-05
2.6090544e-05 1.2535127e-05 -7.0440024e-06 -7.767522e-06 -9.55495e-40 -2.3823695e-06 -4.5176603e-05 -2.2203149e-06
