fraud_model.pth (torch, 190781 bytes, 19 tensors)

model.0.weight f4 [256, 10]
0	0x3c3fc2e4	0.01170418
1	0xbe45b5cf	-0.19307636
2	0x3bdd521d	0.0067541734
3	0xbe09fb5e	-0.13474795
4	0xb9b67eec	-0.0003480831
5	0xbb5b5741	-0.0033468755
6	0xbb999437	-0.004686858
7	0x3c3244ed	0.010880691
8	0xbd837d95	-0.06420437
9	0xba87344a	-0.0010315266
10	0xbe1f132a	-0.15534654
11	0x3c6b9aa5	0.014380132
12	0x3b6bace9	0.0035961217
13	0xbc4c2d04	-0.012461904
14	0x39bcdb64	0.00036021613
15	0x3b53442d	0.003223668
16	0x3c168c10	0.009188667
17	0xbe4bdb21	-0.1990781
18	0xbca3bbfe	-0.019987103
19	0x3b4e5278	0.003148226
20	0x80214330	-3.054674e-39
21	0x8016f521	-2.108317e-39
22	0x0022d1ca	3.197665e-39
23	0x804b7dc4	-6.932778e-39
24	0x8023dcc6	-3.293441e-39
25	0x001db8b5	2.72949e-39
26	0x804051a3	-5.906757e-39
27	0x8033b6a6	-4.749132e-39
28	0x0046cbb0	6.501554e-39
29	0x001f0a14	2.850516e-39
30	0x801bde83	-2.55938e-39
31	0x80219c27	-3.086588e-39
32	0x801a9aab	-2.443207e-39
33	0x0013854e	1.792695e-39
34	0x001d0ad9	2.667121e-39
35	0x00356190	4.90228e-39
36	0x8015e04f	-2.009012e-39
37	0x001c7e63	2.616733e-39
38	0x00168a65	2.070028e-39
39	0x8026e921	-3.57338e-39
40	0xbd69251a	-0.05692015
41	0xbdc7a0d0	-0.097474694
42	0xbbaa84a9	-0.0052038026
43	0xbd7b0839	-0.06128714
44	0xbbefc05d	-0.0073166327
45	0x3ac13214	0.0014739656
46	0x3daeb719	0.08531017
47	0x3e2c0aba	0.16800967
48	0xbcf3a9a4	-0.029743977
49	0xba78f9ce	-0.0009497673
50	0x00677bb8	9.503438e-39
51	0x00e701d3	2.1214654e-38
52	0x00bffa2b	1.7630323e-38
53	0x8020d126	-3.013764e-39
54	0x0062dbf4	9.078783e-39
55	0x80b95d80	-1.7023108e-38
56	0x00596213	8.208542e-39
57	0x0019e3d6	2.37762e-39
58	0x004a5731	6.827105e-39
59	0x007d5df3	1.151314e-38
60	0x001b7bf1	2.52402e-39
61	0x002767ae	3.618778e-39
62	0x000115c0	9.9638e-41
63	0x80043aba	-3.88409e-40
64	0x001383d2	1.792163e-39
65	0x00002109	1.1851e-41
66	0x001cf83d	2.660445e-39
67	0x000df53b	1.281834e-39
68	0x000a92b4	9.70982e-40
69	0x00146e45	1.876267e-39
70	0x3ddeef88	0.10885531
71	0xbc9839b3	-0.0185822
72	0x3a454c12	0.0007526289
73	0x3c0e6b33	0.0086925505
74	0x3a98a3c0	0.0011645481
75	0x3bacb7de	0.005270942
76	0x3d14f5f1	0.03636736
77	0xbe452205	-0.19251259
78	0x3c3b14f2	0.011418568
79	0xb7f10fce	-2.8736798e-05
80	0x3ae2a1fa	0.0017290704
81	0xbb855d48	-0.004069958
82	0xbd00f5d1	-0.03148443
83	0xb8cd5354	-9.790683e-05
84	0xbc0d8436	-0.008637479
85	0x3b604e72	0.0034226445
86	0xbd7bee2d	-0.06150644
87	0x3dc80ab6	0.09767668
88	0x3db65f0e	0.08904849
89	0x3b309421	0.002694376
90	0x3b315e25	0.002706417
91	0x3bbb7169	0.0057203067
92	0xbca8e5ef	-0.020617453
93	0xbdf0ae6f	-0.117520206
94	0xbb615ea5	-0.0034388688
95	0xbc4e7f95	-0.01260366
96	0x3a9f78a6	0.0012166693
97	0x3e0f99e8	0.14023554
98	0xbe12afce	-0.14324877
99	0x3a37440f	0.00069910375
100	0x3c87c967	0.016575528
101	0x3d94dae8	0.072683156
102	0xbc77e041	-0.01512915
103	0x3daa44e8	0.08313924
104	0xbbba2fe0	-0.0056819767
105	0xbb77d734	-0.003781748
106	0xbd4fb973	-0.050713968
107	0x3b0ae7ab	0.0021195214
108	0x3aca6f54	0.0015444555
109	0xbd5bf48b	-0.05370001
110	0x0065b108	9.338892e-39
111	0x81b49794	-6.633906e-38
112	0x81060eb8	-2.4622473e-38
113	0x814ecb68	-3.798216e-38
114	0x016837fc	4.2651837e-38
115	0x802d90d8	-4.184557e-39
116	0x013453a8	3.31208e-38
117	0x81913b54	-5.334972e-38
118	0x80e3db88	-2.092541e-38
119	0x00f888c0	2.282426e-38
120	0x80126203	-1.688199e-39
121	0x800cc4fb	-1.172689e-39
122	0x801830d8	-2.221574e-39
123	0x801203aa	-1.654353e-39
124	0x80244851	-3.33202e-39
125	0x803e821d	-5.740477e-39
126	0x80149432	-1.889872e-39
127	0x801d058e	-2.665222e-39
128	0x80186a72	-2.242237e-39
129	0x802bb8b2	-4.015183e-39
130	0xbda8f0ed	-0.08249078
131	0x3dcd6ddf	0.10030722
132	0xbb4b53df	-0.0031025333
133	0xbd86a8ca	-0.06575163
134	0x3890adf4	6.8988564e-05
135	0xbadcc203	-0.0016842488
136	0xbd0b09d7	-0.03394493
137	0xbd6eaa02	-0.0582676
138	0x3b989925	0.004656928
139	0x3c8da862	0.017292205
140	0x804c720e	-7.020413e-39
141	0x801c62fe	-2.606906e-39
142	0x803468b8	-4.813012e-39
143	0x01a9d15c	6.238121e-38
144	0x00160f3b	2.025845e-39
145	0x803c7ecb	-5.555615e-39
146	0x803525db	-4.880861e-39
147	0x001476f2	1.87938e-39
148	0x002657e2	3.521275e-39
149	0x002e6a2b	4.262519e-39
150	0x8017e47f	-2.194185e-39
151	0x80222bc9	-3.138114e-39
152	0x802fd8ef	-4.39409e-39
153	0x001a89f7	2.437215e-39
154	0x00155b97	1.961402e-39
155	0x8019e491	-2.377882e-39
156	0x8024af60	-3.36899e-39
157	0x00173939	2.132744e-39
158	0x00112dbe	1.577613e-39
159	0x0018b473	2.268785e-39
160	0x3c8781b3	0.016541338
161	0x3de59304	0.11209682
162	0x3ba4db8b	0.0050310544
163	0x3dd9682e	0.10615574
164	0xbc0286c8	-0.007966705
165	0x3c2cb1eb	0.010540466
166	0x3c915626	0.017741274
167	0x3db60d24	0.08889225
168	0x3cc0801c	0.023498587
169	0x3c2503c3	0.010071698
170	0x3ca3ebfa	0.020009983
171	0xbe43000a	-0.19042984
172	0x3c667d2e	0.014067931
173	0xbe1ee69c	-0.15517658
174	0x3b8a9ba2	0.0042299787
175	0x3b5e1e72	0.0033892659
176	0x3acb8900	0.00155285
177	0xbc737837	-0.014860204
178	0xbd487ea5	-0.048948903
179	0x3aa790e9	0.0012784275
180	0x00015b9e	1.24702e-40
181	0x001c1f36	2.58259e-39
182	0x8095b67f	-1.3748956e-38
183	0x8087a9e1	-1.2458733e-38
184	0x80032102	-2.87347e-40
185	0x0069cd4b	9.716372e-39
186	0x000e1679	1.293759e-39
187	0x00693084	9.660131e-39
188	0x0012e16a	1.733902e-39
189	0x802b5dec	-3.982619e-39
190	0x0020855b	2.986575e-39
191	0x00287dd0	3.718553e-39
192	0x80125b6c	-1.685835e-39
193	0x0007606a	6.77435e-40
194	0x002c6837	4.078147e-39
195	0x000e9ec5	1.342653e-39
196	0x801e1a98	-2.764605e-39
197	0x000ad42f	9.94472e-40
198	0x803b5c85	-5.451484e-39
199	0x8044138a	-6.251823e-39
200	0xbb59b402	-0.0033218865
201	0x3d55bc60	0.0521816
202	0xbc3072dd	-0.010769573
203	0xbdb55ad0	-0.08855212
204	0xbb3b1046	-0.0028543635
205	0xbba1a69b	-0.004933191
206	0xbd6fb17c	-0.05851887
207	0x3d8d3375	0.0689458
208	0xbdce00d0	-0.10058749
209	0x3ab5cb0f	0.001386972
210	0x801b16e5	-2.487771e-39
211	0x001b443e	2.504039e-39
212	0x0048ce0d	6.686073e-39
213	0x80329d2c	-4.648157e-39
214	0x002673d8	3.531306e-39
215	0x8025e64b	-3.480527e-39
216	0x8018e331	-2.285553e-39
217	0x801d8da7	-2.714045e-39
218	0x802432b7	-3.324271e-39
219	0x80452d06	-6.3528e-39
220	0xbd3b0719	-0.045661066
221	0x3bfcb4b7	0.0077119726
222	0xbb6833a1	-0.0035431164
223	0x3b4b091a	0.0030980767
224	0x39e4042b	0.00043490654
225	0xb9df529d	-0.00042595426
226	0xbc288069	-0.010284522
227	0xbe38241e	-0.17982528
228	0xbabe151c	-0.0014502141
229	0x3a388e5b	0.00070402556
230	0xbe23d04d	-0.15997429
231	0x3a36efe6	0.00069784967
232	0xbb06b615	-0.0020555307
233	0xbc3a6096	-0.011375567
234	0x39b13c41	0.00033804963
235	0x3b28507c	0.0025682738
236	0x3bb8f5c0	0.00564453
237	0xbe13c00a	-0.14428726
238	0xbdf3fa31	-0.119129546
239	0x3b4633f0	0.003024336
240	0x801b40ad	-2.50276e-39
241	0x0020876d	2.987317e-39
242	0x801a24c4	-2.400912e-39
243	0x801555c8	-1.959318e-39
244	0x00170785	2.114914e-39
245	0x002002e3	2.939771e-39
246	0x80166076	-2.054985e-39
247	0x00145093	1.865615e-39
248	0x801ebebf	-2.823492e-39
249	0x002229bd	3.13738e-39
250	0xbe9e4a64	-0.3091613
251	0xbbfbcdd6	-0.0076844497
252	0x3b06ca92	0.0020567519
253	0x3b4bd64d	0.0031103075
254	0xbaeea98f	-0.0018208491
255	0x39a0d34d	0.0003067501

model.0.bias f4 [256]
0	0x348228cf	2.424408e-07
1	0xb5c2b41c	-1.4506545e-06
2	0x81cbf97f	-7.492843e-38
3	0x01da8a32	8.0278853e-38
4	0x343070c0	1.6432296e-07
5	0x819e3a1e	-5.812343e-38
6	0x01b8907a	6.779824e-38
7	0x331c8a0c	3.6447133e-08
8	0xb59b2c09	-1.1561216e-06
9	0xb58d7c59	-1.0541509e-06
10	0xb616e498	-2.24848e-06
11	0x8149da6c	-3.707458e-38
12	0x01af5f7a	6.442185e-38
13	0xb5cbc3f5	-1.518171e-06
14	0x808c0490	-1.2858606e-38
15	0x00000fa3	5.61e-42
16	0xb4e028be	-4.1752895e-07
17	0xb4ffb504	-4.7629158e-07
18	0x819fad46	-5.865601e-38
19	0x80df5640	-2.0510256e-38
20	0x35a7f363	1.2513304e-06
21	0x81911106	-5.3289015e-38
22	0xb5479a19	-7.435752e-07
23	0xb6314985	-2.641785e-06
24	0x809c73d8	-1.4367894e-38
25	0x372d86d3	1.0342995e-05
26	0x81a9c4b4	-6.236305e-38
27	0x01bf1e44	7.020575e-38
28	0x35a44d79	1.22415e-06
29	0xb4960184	-2.794078e-07
30	0xb30a507e	-3.2203836e-08
31	0x01a3d906	6.0188157e-38
32	0xb631275c	-2.6397965e-06
33	0x8034d818	-4.852966e-39
34	0x3650287b	3.1017978e-06
35	0xb43e17db	-1.7703807e-07
36	0x80d65ee8	-1.9686842e-38
37	0x014a04ac	3.7104892e-38
38	0x803c8fd0	-5.56172e-39
39	0xb3f43010	-1.1370878e-07
40	0x81d20e2d	-7.716216e-38
41	0x3555c735	7.963857e-07
42	0x35bfe02a	1.4295849e-06
43	0x358d07b1	1.0507557e-06
44	0xb49d19c8	-2.9262287e-07
45	0xb6026c6a	-1.9434615e-06
46	0x359d1cfa	1.1705845e-06
47	0xb49a517e	-2.874403e-07
48	0x003cc620	5.581204e-39
49	0x8149bba8	-3.7052506e-38
50	0x3585b02c	9.960545e-07
51	0x355e7792	8.287544e-07
52	0x01cf045a	7.6046035e-38
53	0xb621f1c9	-2.4131607e-06
54	0x007d01c8	1.1480076e-38
55	0x8035556b	-4.897923e-39
56	0x80ee6ab0	-2.189512e-38
57	0x345a81b8	2.0350024e-07
58	0xb53413a1	-6.708379e-07
59	0xb60ff9d7	-2.1454086e-06
60	0xb553e96f	-7.8943316e-07
61	0x3627c43e	2.4999167e-06
62	0x00118720	1.609677e-39
63	0x818acb3a	-5.098481e-38
64	0x347ec108	2.3725818e-07
65	0x01259fe4	3.042043e-38
66	0x0080aea0	1.1817587e-38
67	0x32e6f324	2.6886092e-08
68	0xb5da8fa9	-1.6284076e-06
69	0x811c8180	-2.8745586e-38
70	0x360dd9b5	2.113736e-06
71	0xb55196e2	-7.807813e-07
72	0xb6703b5b	-3.5797336e-06
73	0x34b48235	3.362235e-07
74	0x3607b6ea	2.0223038e-06
75	0x34d1f3f6	3.9106789e-07
76	0xb6658c0c	-3.4205177e-06
77	0x352cfa35	6.443909e-07
78	0x34fbf582	4.6931024e-07
79	0x3565c12b	8.5590244e-07
80	0xb4a9982e	-3.1589428e-07
81	0x81ad01e4	-6.3552876e-38
82	0x328d6a99	1.6463035e-08
83	0x800f8158	-1.423932e-39
84	0x815f1b24	-4.0978104e-38
85	0x361e2ca7	2.3569826e-06
86	0x35c1a333	1.4427118e-06
87	0x81682f10	-4.2645436e-38
88	0x36250ac4	2.4593182e-06
89	0x351fbf35	5.951036e-07
90	0x35e4a10c	1.7034195e-06
91	0x34b9c3a2	3.4601277e-07
92	0x8000de30	-7.9706e-41
93	0x008caaf8	1.2918301e-38
94	0x36204d9d	2.3887035e-06
95	0x34b1b5ec	3.3101185e-07
96	0x810bf018	-2.5702527e-38
97	0x35b1de4d	1.3252226e-06
98	0x0012cbbc	1.726125e-39
99	0x802fcd28	-4.389865e-39
100	0x818dccee	-5.208928e-38
101	0x36bab212	5.563962e-06
102	0x0147342c	3.658796e-38
103	0xb59eeea9	-1.1841377e-06
104	0x3588f188	1.0203084e-06
105	0xb60bfde7	-2.0860405e-06
106	0x0029f700	3.853862e-39
107	0x80661a18	-9.376581e-39
108	0x34ab6f65	3.1932282e-07
109	0x3480bbaa	2.3978401e-07
110	0xb417b868	-1.4130057e-07
111	0x339e2110	7.3634624e-08
112	0x8041ec9c	-6.054187e-39
113	0x3636fc60	2.7267015e-06
114	0xb528343e	-6.26609e-07
115	0x002640d7	3.513009e-39
116	0x004446de	6.270236e-39
117	0x81c21979	-7.1300896e-38
118	0x8156f0dc	-3.94784e-38
119	0x34a17728	3.0075284e-07
120	0xb597ff3d	-1.1324661e-06
121	0xb5781911	-9.2423676e-07
122	0xb5ee19b3	-1.7739861e-06
123	0x01c323f6	7.168329e-38
124	0x8095bce0	-1.3751245e-38
125	0xb583c8ee	-9.818739e-07
126	0x360fec70	2.1446285e-06
127	0xb51ec70a	-5.9149227e-07
128	0xb4ef03e2	-4.4520044e-07
129	0xb487e401	-2.5311604e-07
130	0x009fda68	1.4680193e-38
131	0xb62c5925	-2.5681886e-06
132	0x3611664e	2.1666233e-06
133	0x011f5f24	2.9271948e-38
134	0x34df594e	4.1601965e-07
135	0x368020e2	3.8185253e-06
136	0x349a2641	2.871257e-07
137	0x81d20618	-7.715056e-38
138	0x00388a89	5.192485e-39
139	0xb677e1a4	-3.6937208e-06
140	0xb583f1a8	-9.830592e-07
141	0x00ec2178	2.1685183e-38
142	0xb562c61a	-8.4479836e-07
143	0xb5eff2c2	-1.787754e-06
144	0x36312dd0	2.6401722e-06
145	0xb6265a70	-2.478857e-06
146	0x813d25b8	-3.474088e-38
147	0x3404618c	1.2328945e-07
148	0x34d045ab	3.879371e-07
149	0xb485d5b6	-2.4928676e-07
150	0x01a4f33c	6.059311e-38
151	0x358e3c30	1.0597341e-06
152	0x3657f92e	3.2182538e-06
153	0x34c481f6	3.6602404e-07
154	0x35f46e03	1.8211434e-06
155	0xb606e10f	-2.0098557e-06
156	0x01e28776	8.3213665e-38
157	0x3358547e	5.0368264e-08
158	0x811af764	-2.8462827e-38
159	0x8005c83c	-5.31008e-40
160	0x002af366	3.944406e-39
161	0x005d7860	8.583884e-39
162	0x356a0959	8.7185396e-07
163	0x000e7138	1.326312e-39
164	0x355df953	8.269173e-07
165	0xb60ba138	-2.0806456e-06
166	0xb4b4b828	-3.3661604e-07
167	0x354cb172	7.625414e-07
168	0x01ca4892	7.4307214e-38
169	0x01dd9610	8.139791e-38
170	0x0022fde4	3.213486e-39
171	0x00748f28	1.0704272e-38
172	0xb5a0faa8	-1.199388e-06
173	0xb4c0d6fe	-3.5919214e-07
174	0x34dfaa8e	4.1661082e-07
175	0xb60cf91c	-2.1006626e-06
176	0xb504b698	-4.943954e-07
177	0x35ae3fd7	1.298259e-06
178	0x00da5f70	2.0054375e-38
179	0xb59da96a	-1.1746718e-06
180	0x81b804de	-6.759791e-38
181	0xb4a019e6	-2.9821166e-07
182	0x352c0f7f	6.4097543e-07
183	0xb6224333	-2.4178996e-06
184	0xb50b50db	-5.1899195e-07
185	0xb508178b	-5.069821e-07
186	0x01abaf8c	6.3067377e-38
187	0x0031cb58	4.572885e-39
188	0x00aaabc8	1.5673658e-38
189	0xb66b3d71	-3.5053492e-06
190	0x33e8c18e	1.0838549e-07
191	0xb54abe9d	-7.5528243e-07
192	0x01377e3c	3.370236e-38
193	0x817fd208	-4.6986793e-38
194	0xb52c5d92	-6.4211156e-07
195	0x80894e70	-1.2609601e-38
196	0x34ca6854	3.770134e-07
197	0x3715a11b	8.918602e-06
198	0x81c78865	-7.329677e-38
199	0x35afd3d6	1.3100168e-06
200	0x01581e2c	3.9694582e-38
201	0xb66e5504	-3.551425e-06
202	0x81bb0904	-6.870589e-38
203	0x807e0618	-1.1573459e-38
204	0x36346f5e	2.6886914e-06
205	0x00dd6660	2.033237e-38
206	0xb665c3e1	-3.4237676e-06
207	0xb4e51f6a	-4.267743e-07
208	0x3523120d	6.07485e-07
209	0x36765998	3.6709007e-06
210	0xb4ae12fc	-3.2423839e-07
211	0x803e82be	-5.740702e-39
212	0x01a899ca	6.193413e-38
213	0xb59dfc10	-1.1770771e-06
214	0x36c485f2	5.8568485e-06
215	0x01764308	4.5231157e-38
216	0xb2b54568	-2.1102736e-08
217	0x0004ac65	4.29185e-40
218	0xb5592651	-8.089456e-07
219	0x01597abc	3.9944663e-38
220	0x3652d46d	3.1416087e-06
221	0x810bcfa8	-2.5679254e-38
222	0x8012defb	-1.733029e-39
223	0xb5910209	-1.0803934e-06
224	0xb57d5f63	-9.438865e-07
225	0x356264a5	8.433802e-07
226	0x35da7964	1.6277595e-06
227	0xb5bf00e5	-1.4230869e-06
228	0x01d8562c	7.946952e-38
229	0x00014bc8	1.1902e-40
230	0xb603aeb4	-1.9622212e-06
231	0x800489e0	-4.16802e-40
232	0x339167dc	6.7709806e-08
233	0x80f873c8	-2.2816738e-38
234	0x35a00276	1.1921645e-06
235	0x364639e5	2.9537998e-06
236	0x81a9b10e	-6.2334856e-38
237	0xb6183da2	-2.268564e-06
238	0x01942800	5.442401e-38
239	0x35c3275c	1.4540087e-06
240	0x36294d99	2.522813e-06
241	0xb6886f2b	-4.0660575e-06
242	0xb53ee55d	-7.1114283e-07
243	0x808bd700	-1.2842261e-38
244	0xb5a0bdca	-1.1976165e-06
245	0xb41498ef	-1.3839211e-07
246	0xb423cb08	-1.525442e-07
247	0xb5c30a10	-1.4531561e-06
248	0x001a0880	2.390772e-39
249	0x35354f9c	6.75436e-07
250	0x33978070	7.054848e-08
251	0x015a9ddc	4.0153535e-38
252	0x81cc99c7	-7.5158425e-38
253	0x00d13ee0	1.9216174e-38
254	0xb5fa6f5e	-1.8658864e-06
255	0xb56bd712	-8.785729e-07

model.1.weight f4 [256]
0	0x3dfe43a0	0.12415242
1	0x3d86fa53	0.06590714
2	0x0017dcca	2.19142e-39
3	0x0003a75c	3.35544e-40
4	0x3dd3e415	0.103462376
5	0x000798ef	6.97711e-40
6	0x006ca5cd	9.977712e-39
7	0x3d77d5e7	0.060506728
8	0x3d5c6228	0.053804547
9	0x3e123b84	0.14280516
10	0x3d8cb7d7	0.06871002
11	0x8059e1c0	-8.254343e-39
12	0x804f90a2	-7.306889e-39
13	0x3da68fd3	0.08132901
14	0x000ab1da	9.82156e-40
15	0x0009e1e8	9.0756e-40
16	0x3d8adf6e	0.06780897
17	0x3e0a07e4	0.13479573
18	0x8077c306	-1.0998385e-38
19	0x800f084b	-1.380507e-39
20	0x3d22f4a2	0.03978408
21	0x0029bd03	3.83306e-39
22	0x3e23bcff	0.15990065
23	0x3d95fe21	0.07323862
24	0x0004f189	4.53988e-40
25	0x3e4d60b4	0.2005642
26	0x0038b9e3	5.209471e-39
27	0x00346c20	4.814234e-39
28	0x3dfded0a	0.12398727
29	0x3de02f30	0.109465
30	0x3d970d2e	0.07375561
31	0x80139c0c	-1.800853e-39
32	0x3e5f7227	0.2182089
33	0x002c0c4e	4.045176e-39
34	0x3daebfee	0.085327014
35	0x3db9867c	0.09058854
36	0x002865c7	3.70993e-39
37	0x80312447	-4.512953e-39
38	0x80398673	-5.282855e-39
39	0x3d5e7afb	0.054316502
40	0x800407d9	-3.70157e-40
41	0x3db7b504	0.08970073
42	0x3e3ed444	0.1863566
43	0x3dd49ae9	0.10381109
44	0x3d73652d	0.05942266
45	0x3e4bdbf4	0.19908124
46	0x3da6379e	0.08116077
47	0x3da2675f	0.07929873
48	0x0030f6ae	4.496596e-39
49	0x00284a49	3.700068e-39
50	0x3dad5588	0.084635794
51	0x3d8de457	0.06928318
52	0x800891eb	-7.8703e-40
53	0x3e555dd1	0.2083657
54	0x00ef5eff	2.1982762e-38
55	0x8004a7bb	-4.27512e-40
56	0x800d4f91	-1.222404e-39
57	0x3d341c45	0.043972272
58	0x3e12bd12	0.14329937
59	0x3dcb5ded	0.09930024
60	0x3d8d72f5	0.06906692
61	0x3ddd199b	0.107958995
62	0x805f5ccc	-8.757661e-39
63	0x00481d88	6.62275e-39
64	0x3d552ac9	0.052042756
65	0x0018819e	2.25055e-39
66	0x003721fe	5.063146e-39
67	0x3db92dc5	0.09041933
68	0x3e240898	0.16018903
69	0x0029a69b	3.825022e-39
70	0x3e0524a7	0.13002263
71	0x3d66753c	0.056264147
72	0x3e2db361	0.16962959
73	0x3da6129c	0.08109018
74	0x3d7bf1cd	0.061509896
75	0x3d98b7a7	0.07456904
76	0x3e2140a3	0.15747313
77	0x3d56243d	0.052280653
78	0x3d293a45	0.041315336
79	0x3db8c506	0.09021954
80	0x3d84b164	0.06479147
81	0x002f2bfd	4.332048e-39
82	0x3de8f8f9	0.11375613
83	0x0009c29a	8.9633e-40
84	0x8044812c	-6.291152e-39
85	0x3e34b97f	0.17648886
86	0x3e430ce5	0.19047888
87	0x8013fc93	-1.835481e-39
88	0x3e36bef4	0.1784628
89	0x3e3bac8f	0.18327545
90	0x3dba8b43	0.09108593
91	0x3d89f25c	0.067356795
92	0x0042fdb5	6.152156e-39
93	0x004a7293	6.836928e-39
94	0x3d9d78d3	0.07689061
95	0x3e1bcc4c	0.15214652
96	0x00132a2d	1.760004e-39
97	0x3d4bceba	0.049757697
98	0x003d3c30	5.623556e-39
99	0x00404095	5.90064e-39
100	0x004982cf	6.750917e-39
101	0x3e517dc5	0.20458134
102	0x002df4bd	4.220393e-39
103	0x3d3d373f	0.046195265
104	0x3d5f58eb	0.05452816
105	0x3ddb1e13	0.106990956
106	0x011ecca4	2.916684e-38
107	0x0036a7df	5.019338e-39
108	0x3d8bf8a6	0.06834535
109	0x3d2fbe5c	0.04290615
110	0x3e0e1c62	0.13878015
111	0x3e3b0351	0.18262984
112	0x001ec859	2.826936e-39
113	0x3df58955	0.11989085
114	0x3da4f4b0	0.08054483
115	0x80338e88	-4.734741e-39
116	0x004593f8	6.38973e-39
117	0x001c6bdf	2.610091e-39
118	0x003b72fb	5.459541e-39
119	0x3d970102	0.07373239
120	0x3e75280c	0.23941058
121	0x3d49d027	0.049270775
122	0x3e5de52f	0.21669458
123	0x003534c1	4.886206e-39
124	0x002efde4	4.315512e-39
125	0x3d39424e	0.04522925
126	0x3dae9884	0.08525184
127	0x3d9482cf	0.07251512
128	0x3d86decc	0.06585464
129	0x3d885ebd	0.06658695
130	0x000fc745	1.449017e-39
131	0x3dae4879	0.08509917
132	0x3d032c6d	0.03202479
133	0x8025dfc3	-3.478184e-39
134	0x3daa59a2	0.08317877
135	0x3da769f8	0.08174509
136	0x3da80d24	0.082056314
137	0x002bdbec	4.02782e-39
138	0x00269525	3.543252e-39
139	0x3e3df78a	0.1855146
140	0x3e3f2808	0.18667614
141	0x8017b948	-2.178683e-39
142	0x3da34d68	0.079737484
143	0x3d8beaa4	0.068318635
144	0x3d3d7997	0.046258535
145	0x3da009a5	0.078143395
146	0x00460b72	6.43259e-39
147	0x3d908ba4	0.07057884
148	0x3d4a0e64	0.04933013
149	0x3d61e26b	0.05514757
150	0x003c9e47	5.566909e-39
151	0x3d03a2ef	0.032137807
152	0x3d813043	0.06308033
153	0x3d4d74a3	0.05016006
154	0x3d74e9bb	0.059793215
155	0x3d886aeb	0.06661018
156	0x80022313	-1.96253e-40
157	0x3d61120d	0.054948855
158	0x002b24f8	3.962188e-39
159	0x800d1beb	-1.203877e-39
160	0x000c7e6e	1.14738e-39
161	0x802053e1	-2.968826e-39
162	0x3d9ec040	0.077515125
163	0x8003093a	-2.78816e-40
164	0x3d8089f8	0.062763155
165	0x3e2cc0d0	0.16870427
166	0x3df2faeb	0.11864265
167	0x3d81dd22	0.06341006
168	0x800a70f3	-9.58874e-40
169	0x00b129ed	1.6269923e-38
170	0x000889d0	7.84122e-40
171	0x80069f77	-6.08218e-40
172	0x3daabeae	0.083371505
173	0x3da40fe4	0.080108434
174	0x3e2b1610	0.16707635
175	0x3d8a0c64	0.067406446
176	0x3dd74c8b	0.10512646
177	0x3d316a57	0.043314304
178	0x80236aa2	-3.252495e-39
179	0x3d0f720d	0.035020877
180	0x0025e004	3.478275e-39
181	0x3d4d700d	0.050155688
182	0x3d9723c6	0.0737987
183	0x3d9b65ca	0.07587774
184	0x3d987149	0.074434824
185	0x3da34884	0.07972816
186	0x803ec6a2	-5.765057e-39
187	0x803706a0	-5.053329e-39
188	0x000940ca	8.49761e-40
189	0x3e6b5e53	0.229852
190	0x3e05d5c8	0.13069832
191	0x3d9fa6f7	0.07795518
192	0x005b4c4e	8.384403e-39
193	0x801760c8	-2.146935e-39
194	0x3dc3c785	0.0955954
195	0x000ae618	1.000897e-39
196	0x3d1a08f5	0.0376062
197	0x3e923a16	0.2855994
198	0x00378183	5.097412e-39
199	0x3d87cff8	0.06631464
200	0x801bea7d	-2.563677e-39
201	0x3d8197b7	0.063277654
202	0x000c84b0	1.149625e-39
203	0x003b7d38	5.463214e-39
204	0x3dce2a19	0.10066623
205	0x8090029d	-1.3225249e-38
206	0x3e42b11d	0.19012876
207	0x3d317364	0.043322936
208	0x3ddf145a	0.10892554
209	0x3e19823c	0.14991087
210	0x3d5db434	0.054126933
211	0x00266c4f	3.528603e-39
212	0x801ff2e9	-2.93404e-39
213	0x3d86441f	0.06555962
214	0x3d7fd030	0.062454402
215	0x80f10be0	-2.2136615e-38
216	0x3d53861b	0.051641565
217	0x8016433e	-2.044503e-39
218	0x3d89d496	0.06730001
219	0x001374a5	1.786719e-39
220	0x3e24974e	0.16073343
221	0x000038e5	2.041e-41
222	0x00498493	6.75155e-39
223	0x3d99636c	0.07489666
224	0x3db17f23	0.086668275
225	0x3dfdd04f	0.12393247
226	0x3de823b1	0.113349326
227	0x3d84d4ab	0.06485876
228	0x802ea3a3	-4.283135e-39
229	0x000e127f	1.292332e-39
230	0x3d60a918	0.05484876
231	0x004465b8	6.281304e-39
232	0x3e1984b5	0.1499203
233	0x0017ba3e	2.179028e-39
234	0x3e454c38	0.19267356
235	0x3e98b54d	0.29825822
236	0x00043c68	3.89012e-40
237	0x3dccf349	0.100073405
238	0x0013d734	1.822075e-39
239	0x3d5142e8	0.051089197
240	0x3e264914	0.16238815
241	0x3e8f6edd	0.2801427
242	0x3df87ebf	0.1213355
243	0x000a53ed	9.48462e-40
244	0x3db66567	0.0890606
245	0x3d69085e	0.056892745
246	0x3d614aec	0.05500309
247	0x3d417f08	0.047240287
248	0x00070f90	6.48431e-40
249	0x3dabeb02	0.083944336
250	0x3e1af8e7	0.15134011
251	0x803582c3	-4.91419e-39
252	0x8013e214	-1.825976e-39
253	0x000e776d	1.328539e-39
254	0x3dc37584	0.09543899
255	0x3d755272	0.05989308

model.1.bias f4 [256]
0	0xbe13d4ad	-0.14436598
1	0x3ca94ece	0.02066746
2	0x8043a344	-6.211547e-39
3	0x801704c6	-2.113929e-39
4	0xbe1a1d5b	-0.1505026
5	0x804f841b	-7.302395e-39
6	0x80154337	-1.952658e-39
7	0xbd81d2fd	-0.06339071
8	0x3bc2659e	0.005932524
9	0xbe1ac159	-0.15112819
10	0xbd477ef4	-0.048705056
11	0x8073e14c	-1.0641903e-38
12	0x804b33e4	-6.906277e-39
13	0xbd05b8f8	-0.032647103
14	0x8024d209	-3.381424e-39
15	0x802cda49	-4.119068e-39
16	0xbdec383b	-0.115341626
17	0xbe3d4292	-0.18482426
18	0x8097d19d	-1.3942355e-38
19	0x80115a9b	-1.593707e-39
20	0x3cd3ba2a	0.025845606
21	0x801e882e	-2.803917e-39
22	0xbe3d79a8	-0.1850344
23	0x3c714fef	0.01472853
24	0x803a0b8f	-5.330605e-39
25	0xbc3abdaf	-0.011397763
26	0x800a5865	-9.50065e-40
27	0x80421acc	-6.070756e-39
28	0xbe3214a7	-0.1739069
29	0xbe1f3c11	-0.15550257
30	0xbded1d6b	-0.11577877
31	0x8004e043	-4.47792e-40
32	0xbe6f690e	-0.23379919
33	0x801dd802	-2.740718e-39
34	0xbe2a142a	-0.16609254
35	0xbcc067a1	-0.023486914
36	0x803e9c70	-5.74992e-39
37	0x8020d341	-3.01452e-39
38	0x800f07e3	-1.380362e-39
39	0xbcc1f4b1	-0.023676248
40	0x8010dd27	-1.548702e-39
41	0xbd757f05	-0.05993559
42	0xbe48ff4e	-0.19628641
43	0xbd8c8cc7	-0.06862789
44	0xbd27de6b	-0.0409836
45	0xbe28e906	-0.16495141
46	0xbdd326c9	-0.10310132
47	0xbe6c5a49	-0.23081316
48	0x8021d3c3	-3.106537e-39
49	0x802d921d	-4.185013e-39
50	0x39173dfa	0.0001442357
51	0x3c9e4a5b	0.019322565
52	0x8034cf7e	-4.84988e-39
53	0xbe7ddf8a	-0.24792305
54	0x811de628	-2.9001475e-38
55	0x80038255	-3.22261e-40
56	0x800fcadc	-1.450305e-39
57	0x3b93f8cf	0.0045157443
58	0xbe217ea7	-0.1577097
59	0xbdfbf397	-0.123023205
60	0xbdd11de3	-0.102107786
61	0xbd740a91	-0.05958039
62	0x800916bc	-8.34675e-40
63	0x801a6c1a	-2.426502e-39
64	0xbd47191a	-0.048607923
65	0x80612e39	-8.924625e-39
66	0x80569136	-7.949945e-39
67	0xbe1c6809	-0.15274061
68	0xbe21d005	-0.1580201
69	0x800fc690	-1.448763e-39
70	0xbdb36420	-0.08759332
71	0xbd41c0bf	-0.047302958
72	0xbe0be334	-0.1366089
73	0xbd70a496	-0.05875071
74	0x3d006350	0.03134471
75	0xbe581cbe	-0.21104714
76	0xbdfbc509	-0.12293441
77	0xbd9cc633	-0.07654991
78	0x3d066583	0.032811653
79	0xba9a2e60	-0.0011763088
80	0x3cb8c967	0.022556974
81	0x800ab338	-9.82647e-40
82	0xbd83ff42	-0.06445171
83	0x800179e1	-1.35557e-40
84	0x8078961f	-1.1074113e-38
85	0xbe58e5f0	-0.21181464
86	0xbc82b9a9	-0.01595767
87	0x80179df3	-2.168878e-39
88	0xbc979670	-0.018504351
89	0xbc6657af	-0.014058991
90	0x3b07f18b	0.0020743336
91	0xbd8cbb46	-0.06871657
92	0x8038fd69	-5.233694e-39
93	0x805a7951	-8.308715e-39
94	0xbe002aea	-0.1251637
95	0xbe1b82f1	-0.15186669
96	0x802208db	-3.125584e-39
97	0xbd3536ae	-0.0442416
98	0x80048d1b	-4.17961e-40
99	0x8016dcf1	-2.09964e-39
100	0x8013dbf6	-1.823782e-39
101	0xbe7758c5	-0.24154957
102	0x80145e81	-1.870612e-39
103	0x3c4edcd8	0.012625895
104	0x3d098d78	0.03358218
105	0xbdb1247c	-0.08649537
106	0x80534eb2	-7.650577e-39
107	0x8008e38b	-8.16311e-40
108	0x3c927ed4	0.017882742
109	0xbd1c4030	-0.03814715
110	0xbe25f587	-0.16206942
111	0xbe639995	-0.22226556
112	0x801c49c0	-2.59785e-39
113	0xbe21af78	-0.15789592
114	0x3c4a8fda	0.012363398
115	0x800fba84	-1.444442e-39
116	0x80303513	-4.427143e-39
117	0x801852c7	-2.233747e-39
118	0x800c0110	-1.102407e-39
119	0xbe1c2b4e	-0.15250894
120	0xbd9ff863	-0.07811048
121	0x3aa653d5	0.0012689779
122	0xbd6732d6	-0.056444965
123	0x802e500c	-4.253148e-39
124	0x80636e97	-9.131386e-39
125	0xbbbf8cc5	-0.0058456385
126	0xbd802d5a	-0.0625865
127	0xbdadd712	-0.08488287
128	0xbd56db19	-0.05245504
129	0xbe2834e9	-0.16426434
130	0x8045373a	-6.356461e-39
131	0xbe1092c4	-0.14118487
132	0xbc86ca56	-0.016453903
133	0x801ca95c	-2.632149e-39
134	0xbd787fdb	-0.060668807
135	0x3b8071d6	0.0039198203
136	0xbdb7ece7	-0.089807324
137	0x803c0504	-5.511929e-39
138	0x8017f36c	-2.19954e-39
139	0xbe6229c1	-0.2208624
140	0xbe65aa3a	-0.22428218
141	0x80235a73	-3.24669e-39
142	0xbd74e1e4	-0.05978574
143	0xbdb01633	-0.08597984
144	0x3cf52af9	0.029927718
145	0xbd83f45d	-0.06443093
146	0x8003e121	-3.56268e-40
147	0xbda141c3	-0.07873871
148	0xbdb3298e	-0.0874816
149	0x3bd559e3	0.0065109595
150	0x80090cbc	-8.31088e-40
151	0x3ce08b73	0.027410245
152	0x3ca0c718	0.019626185
153	0xbd6d26f7	-0.057898488
154	0xbd87c2fe	-0.06628989
155	0xbe568e59	-0.20952739
156	0x8005cf3d	-5.3352e-40
157	0xbcf65cdf	-0.030073581
158	0x804b2c8a	-6.90364e-39
159	0x80036cdf	-3.14562e-40
160	0x801c475b	-2.596991e-39
161	0x801be070	-2.560071e-39
162	0xbe09eb9f	-0.13468789
163	0x801017d0	-1.47791e-39
164	0x3cd0c692	0.02548531
165	0xbc6e4d8b	-0.014544855
166	0xbe1c6764	-0.15273815
167	0xbd4d4192	-0.05011136
168	0x8027282d	-3.595997e-39
169	0x80c14feb	-1.775292e-38
170	0x801d7adc	-2.707303e-39
171	0x80589020	-8.133226e-39
172	0xbd93db57	-0.0721957
173	0xbe280ea3	-0.16411833
174	0xbe0887fc	-0.13333124
175	0x3c2aff19	0.010436797
176	0xbe3abf6d	-0.18237086
177	0x3c0a9006	0.008457189
178	0x8001d544	-1.68341e-40
179	0xbd9395e3	-0.07206323
180	0x8018a2a0	-2.262391e-39
181	0xbd5cf310	-0.05394274
182	0xbddba866	-0.10725479
183	0xbdcb9d81	-0.09942151
184	0xbd86031d	-0.065435626
185	0xbe293220	-0.16523027
186	0x803cbfbb	-5.57891e-39
187	0x801feb42	-2.931295e-39
188	0x801a7ba4	-2.432077e-39
189	0xbdb184bd	-0.08667896
190	0xbe0896cd	-0.13338776
191	0xbe30316f	-0.17206357
192	0x800d0869	-1.196878e-39
193	0x801a51e6	-2.417103e-39
194	0xbe1914e9	-0.14949383
195	0x8031c382	-4.570074e-39
196	0xbcb12912	-0.02162603
197	0xbdfa012b	-0.12207254
198	0x800b3d82	-1.032255e-39
199	0xbe370c87	-0.17875873
200	0x8047a931	-6.581015e-39
201	0x3cd6187b	0.02613472
202	0x80400fcb	-5.883137e-39
203	0x8033330e	-4.701925e-39
204	0xb91e0631	-0.0001507036
205	0x80246132	-3.340945e-39
206	0xbc9d6f50	-0.019218117
207	0x3bad193e	0.00528255
208	0xbe16d84d	-0.1473095
209	0xbe371a0d	-0.17881031
210	0x3bc3ce35	0.0059755095
211	0x80043dbb	-3.89487e-40
212	0x80349cf8	-4.831756e-39
213	0xbd837c2c	-0.06420168
214	0xbd11185f	-0.035423633
215	0x8119dba1	-2.8259238e-38
216	0xbd9d5783	-0.07682707
217	0x800ed350	-1.361502e-39
218	0xbd9ce7a1	-0.07661367
219	0x8017cf61	-2.18661e-39
220	0xbe13acb3	-0.14421348
221	0x800fe937	-1.461194e-39
222	0x80238660	-3.262447e-39
223	0xbd82b2bc	-0.06381747
224	0xbe18c93c	-0.14920515
225	0xbe31ba5d	-0.17356248
226	0xbe20e583	-0.15712552
227	0xbd75b2c4	-0.059984937
228	0x8035c7e9	-4.938996e-39
229	0x801339fb	-1.765674e-39
230	0x3c9bfefd	0.019042486
231	0x800d91ce	-1.246166e-39
232	0xbe11d0f8	-0.14239872
233	0x800aa5c9	-9.77827e-40
234	0xbc84fdef	-0.016234366
235	0xbdf53821	-0.11973596
236	0x80594c79	-8.200792e-39
237	0xbe0fe9be	-0.1405401
238	0x800f6269	-1.412835e-39
239	0xbd20d913	-0.039269518
240	0xbe0224c6	-0.1270934
241	0xbdcd9dfb	-0.10039898
242	0xbe19695e	-0.149816
243	0x801dbb6a	-2.730461e-39
244	0x3bc32e47	0.0059564444
245	0xbb309a43	-0.0026947416
246	0xbd16ae95	-0.03678759
247	0xbd08004a	-0.0332034
248	0x8005bfe1	-5.2801e-40
249	0xbdbe46f0	-0.09290874
250	0xbe544bcb	-0.20732038
251	0x801a6cfc	-2.426819e-39
252	0x801aef7a	-2.473631e-39
253	0x800b6614	-1.046809e-39
254	0xbe388c37	-0.18022238
255	0xbe26dbca	-0.1629478

model.1.running_mean f4 [256]
0	0x3b1e4b33	0.002415371
1	0x3a63a588	0.0008684029
2	0x81cb9b1e	-7.4793005e-38
3	0x01da959d	8.0295237e-38
4	0x3a02aed2	0.00049851567
5	0x819f36e0	-5.848612e-38
6	0x01b87e76	6.777239e-38
7	0x39d23513	0.00040093865
8	0x397ef7d0	0.00024315645
9	0x3aafdc4c	0.0013417094
10	0xbaa0a877	-0.0012257238
11	0x8144a3fd	-3.611717e-38
12	0x01af7d03	6.446423e-38
13	0x3a804b74	0.0009788112
14	0x8094be8a	-1.3660006e-38
15	0x00003bd0	2.1457e-41
16	0xbb0d34b3	-0.0021546304
17	0x3b2fb6eb	0.0026811908
18	0x819ed28d	-5.834216e-38
19	0x80df9ac7	-2.0534839e-38
20	0x3a93953e	0.0011259688
21	0x819131d1	-5.333607e-38
22	0x3a271a5b	0.00063744717
23	0x3a5a329e	0.00083235826
24	0x809bcd42	-1.4308135e-38
25	0x38024000	3.105402e-05
26	0x81a9a8bf	-6.2322934e-38
27	0x01bf67d4	7.0311305e-38
28	0x3b26327d	0.0025359683
29	0x3b392267	0.0028249265
30	0x39b4113a	0.0003434511
31	0x01a3ef9a	6.0220555e-38
32	0x3a62a037	0.00086450897
33	0x8034e575	-4.85776e-39
34	0x3ab231aa	0.0013595123
35	0xb8a1fbfa	-7.7240125e-05
36	0x80d9388b	-1.9948586e-38
37	0x014a6da8	3.7180215e-38
38	0x803d7929	-5.64543e-39
39	0x39ab28e3	0.00032646125
40	0x81d2138c	-7.7169865e-38
41	0x3a0422f5	0.00050406094
42	0x3a0978ad	0.00052441173
43	0x39b0d8c2	0.00033730833
44	0x3a12472b	0.0005580063
45	0x3a86860b	0.0010263337
46	0xbb28e020	-0.0025768355
47	0x3a9049d9	0.0011008336
48	0x003c0352	5.511321e-39
49	0x81491311	-3.693155e-38
50	0x3a695e6b	0.0008902314
51	0x3a860435	0.0010224642
52	0x01ceac13	7.5919363e-38
53	0x3a214127	0.0006151371
54	0x007c85dd	1.1435623e-38
55	0x8033dc6e	-4.762686e-39
56	0x80ed2727	-2.1779058e-38
57	0x39fab986	0.00047821942
58	0x3a9be23d	0.0011892986
59	0x3a3a4df9	0.0007106956
60	0xbadac6b1	-0.0016691295
61	0x39ddc4e1	0.0004229909
62	0x00093c7e	8.4822e-40
63	0x818a854d	-5.088447e-38
64	0x3b0e70e8	0.0021734778
65	0x0124c8f2	3.0266214e-38
66	0x007fe89a	1.174655e-38
67	0x3b30e0b4	0.0026989402
68	0x3a41e309	0.00073961966
69	0x811bfc82	-2.865017e-38
70	0x3a3708e4	0.0006982221
71	0x3a243025	0.00062632776
72	0x3a7841d5	0.0009470259
73	0xb8b9d453	-8.861036e-05
74	0x39e7df7d	0.00044226265
75	0xba8bd674	-0.001066877
76	0x3a55937c	0.0008147282
77	0xbac5c4ef	-0.0015088598
78	0x3a7593c4	0.0009368027
79	0x3a65d41d	0.0008767264
80	0x3948a652	0.00019135445
81	0x81ad31bd	-6.3621534e-38
82	0x3a018c1c	0.00049418374
83	0x8010cbc5	-1.542467e-39
84	0x815edc42	-4.0932988e-38
85	0xba440952	-0.00074781955
86	0xb69ec9cb	-4.7322587e-06
87	0x81688d77	-4.2713166e-38
88	0x340a0926	1.285558e-07
89	0xb7f87964	-2.962043e-05
90	0x3a804a84	0.0009787832
91	0x39b1e5e6	0.00033931358
92	0x8002679a	-2.20836e-40
93	0x008d4b4e	1.2975819e-38
94	0xba6853ec	-0.0008862603
95	0x3955e5ee	0.00020398918
96	0x810b2857	-2.555921e-38
97	0x3a2d72a1	0.00066165073
98	0x0011ff85	1.652867e-39
99	0x80307026	-4.448335e-39
100	0x818dd890	-5.210597e-38
101	0xba5032fa	-0.00079421664
102	0x014782cd	3.6644372e-38
103	0x39850734	0.00025373104
104	0xba87ac1a	-0.0010350973
105	0x3989cdca	0.00026284
106	0x001b0188	2.480108e-39
107	0x8064f905	-9.272881e-39
108	0xba5fedc0	-0.00085422024
109	0x3a3f4ee3	0.0007297827
110	0x3a10d5d0	0.00055250246
111	0xba583d8f	-0.0008248919
112	0x8042ad97	-6.123415e-39
113	0x3b3c81bd	0.0028763853
114	0x3a61ca3f	0.0008613206
115	0x00267694	3.532287e-39
116	0x0044351c	6.263866e-39
117	0x81c22df4	-7.1330285e-38
118	0x8156d306	-3.9456994e-38
119	0xb9b741bb	-0.00034953453
120	0x3a1f1625	0.00060686684
121	0xbaafe40f	-0.0013419407
122	0x3a020057	0.0004959157
123	0x01c34e3a	7.1743937e-38
124	0x8096d73f	-1.385254e-38
125	0x3a9a7fd6	0.0011787366
126	0xb90853d5	-0.000130012
127	0xba750553	-0.00093468017
128	0x39b005f2	0.00033573766
129	0xbb102ae7	-0.0021998228
130	0x009f6768	1.4638939e-38
131	0xba700811	-0.00091564754
132	0xba464f28	-0.0007564896
133	0x01200dc9	2.939725e-38
134	0xba08827c	-0.0005207432
135	0x3a5dcc04	0.00084608817
136	0x39f956a4	0.00047557533
137	0x81d22aff	-7.7203513e-38
138	0x0037e765	5.133961e-39
139	0xba460d35	-0.00075550686
140	0xba43faac	-0.00074760127
141	0x00eb822b	2.1628037e-38
142	0x3a9558f1	0.0011394304
143	0x3902614c	0.00012434012
144	0xba56540c	-0.0008175976
145	0x394ac0dc	0.00019336067
146	0x813cf9f7	-3.4709488e-38
147	0x3b11663d	0.0022186183
148	0xba2542c1	-0.00063041976
149	0xba34a4ac	-0.0006890993
150	0x01a54c93	6.0721306e-38
151	0x3a3b2f57	0.0007140538
152	0x3a190ced	0.0005838413
153	0x3a8b26c9	0.0010616417
154	0x3a4b0156	0.00077440345
155	0xb9bfa7bf	-0.0003655534
156	0x01e2c2da	8.3298887e-38
157	0x39af4b08	0.00033434504
158	0x811af023	-2.8457622e-38
159	0x80053e20	-4.81464e-40
160	0x002a2565	3.870505e-39
161	0x005d9e93	8.597587e-39
162	0x3a436f2b	0.0007455225
163	0x000e1edf	1.296771e-39
164	0x39802e29	0.00024448454
165	0x39f4e6bf	0.00046711226
166	0xb9701ea5	-0.000228996
167	0x393b6968	0.00017872977
168	0x01ca69fc	7.435516e-38
169	0x01dd37ab	8.126246e-38
170	0x0024260c	3.319727e-39
171	0x0073696b	1.0598899e-38
172	0x3a0cb139	0.00053669844
173	0x3aab99b4	0.0013092072
174	0x3a8799ef	0.0010345558
175	0xba57911a	-0.0008223221
176	0x3a1de7c0	0.0006023608
177	0xb93cc165	-0.00018001122
178	0x00dae5ec	2.0102619e-38
179	0x3869436a	5.5614313e-05
180	0x81b7e51b	-6.7552333e-38
181	0x3a899ba7	0.0010498659
182	0xb99387ae	-0.00028139114
183	0xba241d7a	-0.0006260496
184	0xbaabeac7	-0.0013116234
185	0xba07ce2e	-0.00051805645
186	0x01ab317b	6.288648e-38
187	0x003266dc	4.628674e-39
188	0x00abce88	1.5777959e-38
189	0x3a05af47	0.0005099666
190	0x3a16483e	0.0005732811
191	0xbab0a99d	-0.0013478283
192	0x0138de1c	3.3954818e-38
193	0x817ee186	-4.6814237e-38
194	0x3b041609	0.0020154736
195	0x809c4457	-1.4350853e-38
196	0xb99a7090	-0.00029457035
197	0x39521055	0.00020033245
198	0x81c7a402	-7.3336395e-38
199	0x3aafd107	0.0013413735
200	0x01580cf2	3.9682222e-38
201	0x3a6e528c	0.000909128
202	0x81bb2034	-6.873916e-38
203	0x807e3499	-1.1590141e-38
204	0x3a69ea50	0.000892316
205	0x00dcd6d7	2.0280879e-38
206	0x386a28d3	5.5827968e-05
207	0x39e62520	0.0004389668
208	0x3a666d97	0.0008790134
209	0xba48d8a8	-0.0007661679
210	0xb904589c	-0.0001262151
211	0x804019f4	-5.886782e-39
212	0x01a85a26	6.184281e-38
213	0xbb283a16	-0.0025669388
214	0xbab02b68	-0.001344067
215	0x01772659	4.5394248e-38
216	0xbae37b15	-0.0017355407
217	0x0003fe3b	3.66707e-40
218	0xbacf8ea9	-0.0015835363
219	0x01590c02	3.986522e-38
220	0x3a44801f	0.0007495898
221	0x810be1b4	-2.5692202e-38
222	0x8013f166	-1.831472e-39
223	0x39d84949	0.00041253332
224	0xbb338248	-0.0027390886
225	0x3b140029	0.0022583103
226	0x3aee16ee	0.0018164793
227	0xbaf1b98c	-0.0018442138
228	0x01d88c99	7.9547616e-38
229	0x000156fb	1.23038e-40
230	0xb94298b9	-0.00018558175
231	0x8004f112	-4.53822e-40
232	0x3a21e57c	0.00061758584
233	0x80f7ac5a	-2.2745196e-38
234	0x369a4857	4.597979e-06
235	0x393a66ff	0.00017776711
236	0x81a9bde0	-6.235325e-38
237	0x3a85154e	0.0010153444
238	0x019473a8	5.453257e-38
239	0x3a0b56eb	0.0005315381
240	0x3a677de9	0.0008830713
241	0x395c61cc	0.00021017267
242	0xbac45e15	-0.0014981652
243	0x808bf294	-1.2852155e-38
244	0x3a7befc3	0.00096106174
245	0x3a11793f	0.0005549378
246	0x389b4e9e	7.4056195e-05
247	0x3a06d3bb	0.00051432446
248	0x001b7a90	2.523526e-39
249	0x3b1e6a46	0.002417223
250	0xbabac783	-0.0014250133
251	0x01599395	3.996249e-38
252	0x81ccbf7e	-7.521254e-38
253	0x00d11f76	1.9204905e-38
254	0xb95beea2	-0.00020974365
255	0xba97b9e4	-0.0011575785

model.1.running_var f4 [256]
0	0x3d4c658e	0.049901538
1	0x3d604b08	0.054759055
2	0x00000004	6e-45
3	0x00000004	6e-45
4	0x3d13fbd6	0.03612884
5	0x00000004	6e-45
6	0x00000004	6e-45
7	0x3d50d86b	0.050987642
8	0x3ca38c18	0.019964263
9	0x3d656a9b	0.05600987
10	0x3c73d1e4	0.014881585
11	0x00000004	6e-45
12	0x00000004	6e-45
13	0x3ce8587b	0.028362503
14	0x00000004	6e-45
15	0x00000004	6e-45
16	0x3d01b692	0.031668253
17	0x3d5e4eba	0.0542743
18	0x00000004	6e-45
19	0x00000004	6e-45
20	0x3d010756	0.031501137
21	0x00000004	6e-45
22	0x3d0a9c99	0.03384075
23	0x3d52737f	0.051379677
24	0x00000004	6e-45
25	0x3d80d6c6	0.06290965
26	0x00000004	6e-45
27	0x00000004	6e-45
28	0x3d5c0450	0.05371505
29	0x3d3944e9	0.045231733
30	0x3c962b35	0.01833115
31	0x00000004	6e-45
32	0x3d86958e	0.06571494
33	0x00000004	6e-45
34	0x3d192e16	0.037397467
35	0x3cb8b084	0.022545107
36	0x00000004	6e-45
37	0x00000004	6e-45
38	0x00000004	6e-45
39	0x3cd2bb98	0.025724217
40	0x00000004	6e-45
41	0x3cb1eb7d	0.021718735
42	0x3d4f203c	0.05056785
43	0x3cb7f04a	0.022453446
44	0x3c6106bc	0.013734516
45	0x3df5a387	0.11994081
46	0x3d114732	0.035468288
47	0x3d12076e	0.035651617
48	0x00000004	6e-45
49	0x00000004	6e-45
50	0x3d61bb8a	0.05511049
51	0x3d649ab5	0.055811603
52	0x00000004	6e-45
53	0x3d265cf7	0.040616002
54	0x00000004	6e-45
55	0x00000004	6e-45
56	0x00000004	6e-45
57	0x3ce17ea1	0.027526202
58	0x3d560c78	0.052257985
59	0x3cfdca7b	0.03098034
60	0x3cf111c2	0.029427413
61	0x3d1dac03	0.03849412
62	0x00000004	6e-45
63	0x00000004	6e-45
64	0x3c87bfad	0.01657089
65	0x00000004	6e-45
66	0x00000004	6e-45
67	0x3d3683c5	0.04455926
68	0x3d1c3e4e	0.038145356
69	0x00000004	6e-45
70	0x3d4a79fb	0.049432736
71	0x3d53bad0	0.05169183
72	0x3db25dd7	0.08709305
73	0x3d092d5b	0.03349052
74	0x3d22f25d	0.039781917
75	0x3d1b3c9f	0.03789961
76	0x3da27346	0.07932143
77	0x3ccb7b3d	0.024839038
78	0x3d08d0ab	0.033402126
79	0x3d8c88a1	0.068619974
80	0x3d4995e5	0.049215216
81	0x00000004	6e-45
82	0x3d34731f	0.0440551
83	0x00000004	6e-45
84	0x00000004	6e-45
85	0x3d4a54d8	0.04939732
86	0x3d93ed29	0.07222969
87	0x00000004	6e-45
88	0x3d57ee11	0.052717272
89	0x3d79c672	0.060980268
90	0x3d8fb24d	0.0701643
91	0x3d1944d9	0.037419174
92	0x00000004	6e-45
93	0x00000004	6e-45
94	0x3c760e87	0.015018112
95	0x3da462b3	0.08026638
96	0x00000004	6e-45
97	0x3d4275e7	0.04747572
98	0x00000004	6e-45
99	0x00000004	6e-45
100	0x00000004	6e-45
101	0x3d5da4b1	0.05411214
102	0x00000004	6e-45
103	0x3cb128e6	0.021625947
104	0x3d22e3c6	0.039768003
105	0x3cd3c7ad	0.025852049
106	0x00000004	6e-45
107	0x00000004	6e-45
108	0x3d309a10	0.043115675
109	0x3cd7bd9e	0.026335534
110	0x3d0258aa	0.031822838
111	0x3d6463af	0.05575913
112	0x00000004	6e-45
113	0x3d596373	0.053073358
114	0x3d85d3ae	0.06534515
115	0x00000004	6e-45
116	0x00000004	6e-45
117	0x00000004	6e-45
118	0x00000004	6e-45
119	0x3cf4f78c	0.029903196
120	0x3d6a95af	0.057271656
121	0x3d25e21a	0.04049883
122	0x3d3d2bbb	0.046184283
123	0x00000004	6e-45
124	0x00000004	6e-45
125	0x3c8a10ec	0.016853772
126	0x3d1de6e8	0.038550287
127	0x3d23c491	0.039982382
128	0x3d0670f2	0.032822557
129	0x3ce4538c	0.02787187
130	0x00000004	6e-45
131	0x3c6eb098	0.01456847
132	0x3bf2ae2e	0.0074060177
133	0x00000004	6e-45
134	0x3c6802fc	0.014160868
135	0x3d5bf466	0.053699873
136	0x3d1d64af	0.038426097
137	0x00000004	6e-45
138	0x00000004	6e-45
139	0x3d4b5e3d	0.04965042
140	0x3d4c3814	0.049858168
141	0x00000004	6e-45
142	0x3cc5fd27	0.024168564
143	0x3c26425f	0.01014766
144	0x3cc4cc54	0.024023212
145	0x3cc59ec1	0.024123551
146	0x00000004	6e-45
147	0x3d0d5103	0.034501087
148	0x3c3e296a	0.011606554
149	0x3d1034c9	0.03520659
150	0x00000004	6e-45
151	0x3cef842b	0.029237827
152	0x3d4a585f	0.049400683
153	0x3bfa5d9c	0.0076405536
154	0x3caff7bb	0.021480432
155	0x3d0cca0c	0.034372374
156	0x00000004	6e-45
157	0x3c7273fb	0.01479816
158	0x00000004	6e-45
159	0x00000004	6e-45
160	0x00000004	6e-45
161	0x00000004	6e-45
162	0x3d323668	0.043508917
163	0x00000004	6e-45
164	0x3cbd47ef	0.02310559
165	0x3d45bd6b	0.048276346
166	0x3d752be1	0.0598563
167	0x3c691bff	0.014227866
168	0x00000004	6e-45
169	0x00000004	6e-45
170	0x00000004	6e-45
171	0x00000004	6e-45
172	0x3c9fc2a0	0.019501984
173	0x3ce79aea	0.028272111
174	0x3dbe91ce	0.09305154
175	0x3d2d8cbd	0.042370547
176	0x3d200c17	0.03907403
177	0x3c290b60	0.010317653
178	0x00000004	6e-45
179	0x3ccf99c3	0.025341874
180	0x00000004	6e-45
181	0x3d045e28	0.032316357
182	0x3cb81607	0.022471441
183	0x3d0761e5	0.033052344
184	0x3ca900a4	0.020630188
185	0x3d2bcdf5	0.041944463
186	0x00000004	6e-45
187	0x00000004	6e-45
188	0x00000004	6e-45
189	0x3d5f82da	0.05456815
190	0x3d117746	0.03551414
191	0x3d227407	0.039661434
192	0x00000004	6e-45
193	0x00000004	6e-45
194	0x3cfb77d9	0.030696796
195	0x00000004	6e-45
196	0x3c0f73d5	0.008755644
197	0x3d84a24e	0.0647627
198	0x00000004	6e-45
199	0x3d024283	0.03180171
200	0x00000004	6e-45
201	0x3d3cb659	0.046072338
202	0x00000004	6e-45
203	0x00000004	6e-45
204	0x3d91334d	0.07089863
205	0x00000004	6e-45
206	0x3d8241d2	0.063602105
207	0x3cbe8fc0	0.023261905
208	0x3d0f9930	0.0350582
209	0x3d38b788	0.045096904
210	0x3c819695	0.015818873
211	0x00000004	6e-45
212	0x00000004	6e-45
213	0x3d01df5b	0.03170715
214	0x3ca2f2fc	0.019891255
215	0x00000004	6e-45
216	0x3ccc5e7d	0.0249474
217	0x00000004	6e-45
218	0x3d046629	0.03232399
219	0x00000004	6e-45
220	0x3dcfca54	0.10146013
221	0x00000004	6e-45
222	0x00000004	6e-45
223	0x3cfbe11b	0.030746987
224	0x3d1e904a	0.038711824
225	0x3d37f89e	0.044914834
226	0x3d6bf856	0.05760988
227	0x3cf1f85c	0.029537372
228	0x00000004	6e-45
229	0x00000004	6e-45
230	0x3cafb962	0.021450702
231	0x00000004	6e-45
232	0x3dc1c2a8	0.09460956
233	0x00000004	6e-45
234	0x3d84a5d7	0.06476944
235	0x3d82d4ca	0.063882425
236	0x00000004	6e-45
237	0x3d1f30c2	0.03886486
238	0x00000004	6e-45
239	0x3d40231b	0.04690848
240	0x3db2ed58	0.08736676
241	0x3d8134b4	0.063088804
242	0x3d266f36	0.040633403
243	0x00000004	6e-45
244	0x3d8d01f3	0.068851374
245	0x3cb59831	0.022167297
246	0x3c6f6be6	0.014613127
247	0x3d43fac9	0.04784659
248	0x00000004	6e-45
249	0x3d0f2a93	0.03495271
250	0x3d746e65	0.059675593
251	0x00000004	6e-45
252	0x00000004	6e-45
253	0x00000004	6e-45
254	0x3d0e511c	0.03474532
255	0x3cbcae7d	0.023032421

model.4.weight f4 [128, 256]
0	0xbb8780d1	-0.004135229
1	0x3ca5a0a8	0.020218208
2	0x0033679b	4.720777e-39
3	0x803c10db	-5.516176e-39
4	0xbc3f5f1c	-0.011680391
5	0x004a9e1a	6.852543e-39
6	0x802eef4c	-4.310276e-39
7	0x3c81a6dd	0.015826637
8	0x3915a254	0.00014270219
9	0x3aa72560	0.0012752227
10	0x3c5268cf	0.012842371
11	0x0165be0c	4.219701e-38
12	0x8046c8c7	-6.50051e-39
13	0x3c4e00c6	0.012573427
14	0x0044a34e	6.303396e-39
15	0x0040f3b1	5.964892e-39
16	0xbc4c2402	-0.012459757
17	0xbc45b2e6	-0.0120665785
18	0x8009305e	-8.4387e-40
19	0x801e2a40	-2.770221e-39
20	0x3c4814d5	0.012211998
21	0x804b2fd7	-6.904824e-39
22	0x3d20fa41	0.03930116
23	0x3c39d040	0.011341155
24	0x800842f0	-7.58697e-40
25	0x3b2413ec	0.0025036288
26	0x8024f5f4	-3.394309e-39
27	0x802783be	-3.628845e-39
28	0xb9b503d2	-0.00034525857
29	0x3a6c167b	0.00090060354
30	0x3ab302e9	0.0013657484
31	0x0006ad39	6.13154e-40
32	0x3d41c7a3	0.04730953
33	0x0004ced7	4.41542e-40
34	0xbb71d30c	-0.0036899475
35	0x3d212125	0.03933825
36	0x801e2a11	-2.770155e-39
37	0x8095cbb7	-1.3756568e-38
38	0x801da861	-2.723632e-39
39	0x3c545afe	0.012961147
40	0x0008014c	7.35149e-40
41	0x3d4424aa	0.047886528
42	0x3d4fa4d5	0.050694305
43	0x3d67e34b	0.056613248
44	0x3a06ec5a	0.00051469135
45	0x3bd9cff4	0.0066471044
46	0xbc6ccf39	-0.014453703
47	0xbbc1429a	-0.005897832
48	0x005481a4	7.760688e-39
49	0x80119cc4	-1.61744e-39
50	0x3ccd54e9	0.025064902
51	0x3c9c33d8	0.01906769
52	0x007b95b3	1.1349468e-38
53	0x3d095531	0.03352851
54	0x006f8281	1.0240556e-38
55	0x800fe5d6	-1.459982e-39
56	0x80287e52	-3.718735e-39
57	0xbb6bc67f	-0.0035976467
58	0x399a6668	0.00029449468
59	0xb9e87e42	-0.00044344558
60	0xbca6dcab	-0.020368895
61	0x3d12c09d	0.03582822
62	0x80609410	-8.869322e-39
63	0x001ee100	2.83578e-39
64	0x3c5ecc62	0.013598533
65	0x000310fb	2.81598e-40
66	0x002ff5e5	4.404479e-39
67	0xbc4931d6	-0.012279948
68	0x3d9c38c4	0.07628015
69	0x00060010	5.51035e-40
70	0x3c970ff2	0.01844022
71	0xbb7291ed	-0.0037013248
72	0x3a46bb51	0.0007581013
73	0x3cb48deb	0.022040328
74	0xba9c1ff8	-0.0011911383
75	0xbcf23f7e	-0.029571291
76	0x3c527b0f	0.012846722
77	0xbc543fde	-0.01295468
78	0x3cd80102	0.026367668
79	0x3cb44976	0.022007685
80	0xbb1f6e4c	-0.0024327217
81	0x00750bb0	1.0748946e-38
82	0x3d2ebfdd	0.042663444
83	0x00378a0c	5.100474e-39
84	0x8048579f	-6.643588e-39
85	0x3c835453	0.01603142
86	0xbb410c74	-0.0029456886
87	0x80420256	-6.061981e-39
88	0x3b291b88	0.0025803763
89	0x3c1f8140	0.009735405
90	0x3c9ec640	0.019381642
91	0xbbddd258	-0.0067694597
92	0x803ff74c	-5.87435e-39
93	0x0007e71c	7.25755e-40
94	0x3ca2c280	0.019868135
95	0x3bb94808	0.0056543387
96	0x002d0abd	4.13645e-39
97	0xbbd53ac9	-0.006507252
98	0x0002fbc0	2.73982e-40
99	0x8004f889	-4.565e-40
100	0x0045ebb4	6.421204e-39
101	0x3c853d52	0.016264591
102	0x80088e42	-7.85716e-40
103	0x3c2a886b	0.010408501
104	0xbc80b19c	-0.01570969
105	0x3d4261e2	0.04745663
106	0x805bdac8	-8.435514e-39
107	0x0021ae01	3.092992e-39
108	0x3b8522d4	0.0040629897
109	0x3c0f49dd	0.008745638
110	0x3d51ede9	0.05125228
111	0x3ccb98fc	0.024853222
112	0x80240f40	-3.311549e-39
113	0x3ae48fd6	0.0017437886
114	0x3c9283a2	0.017885033
115	0x0045eac4	6.420867e-39
116	0x801f8b4e	-2.896873e-39
117	0x8007912e	-6.94929e-40
118	0x000d082d	1.196794e-39
119	0xbc4bd9da	-0.012442077
120	0x3c19f0d0	0.009395793
121	0x3b811383	0.0039390936
122	0x3ca5195d	0.020153696
123	0x8014586b	-1.868428e-39
124	0x00342162	4.787421e-39
125	0x3c314644	0.010819975
126	0x3bf44ca8	0.007455427
127	0xbb724e08	-0.003697278
128	0x3bbb5d98	0.0057179444
129	0x3c7f2386	0.015572434
130	0x0027ddaf	3.66111e-39
131	0x3c79ebd7	0.0152539825
132	0x3bd538a8	0.006506998
133	0x800e6385	-1.321398e-39
134	0x3c94364a	0.018092293
135	0x3cb47490	0.022028238
136	0x3ca02b78	0.019551978
137	0x000d7db7	1.23896e-39
138	0x8025da08	-3.476128e-39
139	0x3c846e8c	0.016165994
140	0x3c96ef6d	0.018424714
141	0x801e6f3c	-2.794968e-39
142	0x3c1e3995	0.009657283
143	0x3c9b6c44	0.018972524
144	0xbc258e58	-0.010104738
145	0xbc8786a3	-0.016543692
146	0x00377ff4	5.096853e-39
147	0xbc54aa25	-0.012980019
148	0x3b0de88c	0.0021653501
149	0x3a97eefa	0.0011591606
150	0x800df29e	-1.280896e-39
151	0x3bbacea1	0.0057009016
152	0x3c5b999f	0.013403325
153	0x3c7fc786	0.015611535
154	0x3c39af0b	0.011333237
155	0xbc95b18e	-0.018273141
156	0x004be8bb	6.97115e-39
157	0xb857e4ab	-5.1472958e-05
158	0x801a0bb2	-2.391918e-39
159	0x80229b45	-3.178107e-39
160	0x001f4aca	2.87373e-39
161	0x803df981	-5.69147e-39
162	0x3c00e321	0.007866652
163	0x802a8e53	-3.908147e-39
164	0x3ce1789a	0.027523328
165	0x3c9c1dcd	0.019057179
166	0xbbdaacbc	-0.0066734236
167	0x3a7786e5	0.0009442403
168	0x0084de12	1.220195e-38
169	0x0041127f	5.975942e-39
170	0x0012099f	1.65649e-39
171	0x0015bc24	1.996038e-39
172	0x3a4860d9	0.0007643826
173	0xbae4a61d	-0.0017444525
174	0x3be0d210	0.006860979
175	0x39e41678	0.0004350429
176	0x3b9c71cc	0.004774308
177	0x3c3294fa	0.010899777
178	0x004548eb	6.362807e-39
179	0xbb8599f1	-0.004077189
180	0x8013807b	-1.790965e-39
181	0xbc12f5cb	-0.008969734
182	0x3c018aef	0.0079066595
183	0x3bacf112	0.0052777613
184	0xbb8800f9	-0.0041505066
185	0xba80a6e9	-0.0009815368
186	0x00169ab7	2.075882e-39
187	0x00855dcb	1.2247768e-38
188	0x800cdb29	-1.180646e-39
189	0x3c352991	0.0110572735
190	0x3d35f3fe	0.044422142
191	0x3bf1d647	0.00738028
192	0x804eb600	-7.228458e-39
193	0x000cd448	1.178178e-39
194	0x3c6bf76b	0.014402251
195	0x0121ff40	2.9754163e-38
196	0x3cab0193	0.020874774
197	0x3cb24384	0.02176071
198	0x802d3ea1	-4.155064e-39
199	0xbcdd9a81	-0.027051212
200	0x00361224	4.965624e-39
201	0x3c1fe73d	0.009759721
202	0x000677e0	5.94016e-40
203	0x0022b930	3.18884e-39
204	0x3cb69664	0.022288509
205	0x8024d0b6	-3.380949e-39
206	0x3bbe4c07	0.005807403
207	0xbc706d39	-0.014674478
208	0xbbaa443f	-0.005196124
209	0x3bcbdf77	0.0062217074
210	0x3c869238	0.016427144
211	0x8038cd1e	-5.21637e-39
212	0x0035f938	4.956684e-39
213	0xbcadfdef	-0.021239249
214	0xbc912048	-0.017715588
215	0x80498bfb	-6.754207e-39
216	0xbc290ef4	-0.0103185065
217	0x001ba84f	2.539936e-39
218	0x3be9f18b	0.00713939
219	0x8016ee24	-2.10581e-39
220	0xbc20d9f7	-0.009817592
221	0x0038b25e	5.206774e-39
222	0x8026c8e6	-3.561818e-39
223	0x3bf83436	0.0075745834
224	0xbc671027	-0.014102972
225	0x3b4e0aba	0.00314395
226	0xbc057295	-0.008144994
227	0xbc0a02d1	-0.008423523
228	0x007cf306	1.1474782e-38
229	0x8034b2f1	-4.839638e-39
230	0x3caff7e0	0.0214805
231	0x000476e0	4.09986e-40
232	0x3c0a7ec1	0.008453072
233	0x80223d5a	-3.144416e-39
234	0xbad69ef8	-0.0016374281
235	0x3cada965	0.021198938
236	0x8014725a	-1.877732e-39
237	0x3b24b291	0.0025130848
238	0x801a83bc	-2.43498e-39
239	0xbc0e62bc	-0.008690532
240	0xbc4d802d	-0.0125427665
241	0x3d088ec2	0.03333927
242	0xbbc4cfbb	-0.0060062087
243	0x800e3669	-1.305216e-39
244	0x3c496f91	0.012294666
245	0x3c89387f	0.016750572
246	0xb9d53923	-0.00040669096
247	0x3b8e6f08	0.004346732
248	0x000beb2b	1.094553e-39
249	0xbca8cf27	-0.02060659
250	0x3b8a8226	0.0042269407
251	0x001d8b2e	2.713158e-39
252	0x801040f8	-1.492674e-39
253	0x80438f31	-6.204346e-39
254	0xba6512c8	-0.00087384554
255	0xbb9f1437	-0.0048547047
