fraud_model.pth (torch, 191186 bytes, 19 tensors)

model.0.weight f4 [256, 10]
0	0x3d7b1bbd	0.06130575
1	0xbe1202ea	-0.14258924
2	0x3cd0719f	0.025444804
3	0x3d25dcb5	0.040493686
4	0xbd7095cf	-0.05873662
5	0x3be92a89	0.0071156663
6	0x3d951135	0.072786726
7	0xbec19421	-0.37808326
8	0xbc090379	-0.008362644
9	0xbe0775b4	-0.13228494
10	0x3e8c5d8f	0.2741513
11	0xbe5c898d	-0.21536846
12	0x3d9c14da	0.076211646
13	0x3e1e48f3	0.15457515
14	0x3da281ef	0.07934939
15	0xbe2b2b5e	-0.16715762
16	0xbea39238	-0.31947494
17	0x3d43675e	0.047706
18	0x3e0ff624	0.14058739
19	0x3d3fc7ad	0.046821285
20	0xbefc5370	-0.49282408
21	0x3e4aad72	0.19792727
22	0xbe1b0797	-0.15139614
23	0x3d2ce201	0.04220772
24	0x3dd519a8	0.10405284
25	0x3c9a9f23	0.01887471
26	0x3e1a9d2f	0.15099023
27	0xbd4768f7	-0.048684087
28	0xbda54904	-0.08070567
29	0xbd04a986	-0.032388233
30	0x3eb6202c	0.3557142
31	0xbda302f9	-0.07959551
32	0x3e410d10	0.18852639
33	0xbe47c975	-0.19510444
34	0xbdb2cabc	-0.08730075
35	0x3d3c6360	0.04599321
36	0x3dc9d616	0.09855287
37	0xbe0ebd27	-0.13939343
38	0x3e48c8ef	0.196079
39	0xbe222535	-0.15834506
40	0x3e807445	0.25088707
41	0xbe8b53bf	-0.2721233
42	0x3d83292c	0.06404337
43	0x3e43a50d	0.1910593
44	0xbc84b839	-0.016201125
45	0x3d08568c	0.033285663
46	0xbd48a710	-0.04898745
47	0x3e5c095e	0.21487948
48	0x3e3c3ddf	0.18382977
49	0x3dde3647	0.10850196
50	0xbee3b952	-0.44477326
51	0x3bfb777f	0.007674157
52	0x3ac3ddd0	0.0014943425
53	0xbc9258ee	-0.01786467
54	0x3c63f273	0.013912785
55	0x3d85467d	0.06507585
56	0x3d492d1f	0.049115296
57	0xbe5e2aa4	-0.21695954
58	0xbe0c7d72	-0.13719729
59	0x3a9ae0fa	0.0011816316
60	0xbe30fd78	-0.1728419
61	0x3e8d1cbe	0.2756099
62	0x3d03d7b6	0.03218814
63	0xbc892e5e	-0.016745742
64	0xbdb0b0c8	-0.08627468
65	0xbe07843b	-0.13234036
66	0x3e687437	0.22700582
67	0xbe1bfc37	-0.15232931
68	0xbd868ea1	-0.06570173
69	0xbd7e397d	-0.062066544
70	0xbe9adc9f	-0.30246446
71	0x3e336baa	0.1752154
72	0xbda8baf2	-0.08238782
73	0xbd6cf4ab	-0.05785052
74	0x3d4f51e0	0.05061519
75	0xbe3278aa	-0.17428842
76	0xbe0212a7	-0.12702428
77	0x3e9592f6	0.29213685
78	0x3ceff34d	0.02929082
79	0x3ce0493e	0.027378675
80	0x3e5afd62	0.2138572
81	0x3df593fb	0.11991116
82	0x3e49d864	0.19711453
83	0x3e1cb019	0.15301551
84	0xbcb1eda4	-0.021719761
85	0x3e2a8fd3	0.16656427
86	0x3d08b085	0.033371467
87	0xbd0758d9	-0.033043716
88	0x3e3fa8f6	0.18716797
89	0xbc46846e	-0.012116535
90	0xbecbdc5f	-0.39816567
91	0x3dc00e65	0.093777455
92	0x3ca9917f	0.02069926
93	0x3d9198d7	0.0710923
94	0xbc5c1b2a	-0.013434211
95	0x3d696e2c	0.056989834
96	0xbde50d75	-0.11184207
97	0xbe7ce2e0	-0.24695921
98	0x3d718079	0.05896041
99	0x3cd63cfc	0.026152126
100	0x3c7cf9d7	0.015440426
101	0xbe9544d6	-0.2915408
102	0xbdc9c18a	-0.09851368
103	0xbd9c61dc	-0.07635853
104	0x3d061ba6	0.03274121
105	0x3d8157bd	0.06315563
106	0x3d3d4bb9	0.046214793
107	0xbe6aa1f1	-0.22913338
108	0x3e0c9767	0.1372963
109	0xbc950e0f	-0.01819518
110	0x3c705018	0.014667533
111	0x3e4c3fad	0.19946165
112	0xbcf05cdd	-0.029341156
113	0x3e2cfdf4	0.1689375
114	0xbc1d8dca	-0.009616325
115	0x3e02af80	0.1276226
116	0x3ea3f885	0.32025543
117	0x3d8cf521	0.06882692
118	0x3dbb7359	0.0915286
119	0xbc0a4abd	-0.008440671
120	0x3dc12a31	0.094318755
121	0xbd2eb0d4	-0.042649105
122	0xbe1c171f	-0.15243195
123	0xbd265aef	-0.040614065
124	0xbc49130b	-0.012272607
125	0xbcda0579	-0.026613938
126	0xbd763f1c	-0.06011878
127	0x3e9a1507	0.30094168
128	0x3dfa8bda	0.12233706
129	0x3d6266f9	0.055273984
130	0x3cd778a1	0.026302638
131	0x3eb675c6	0.3563673
132	0xbc15cc18	-0.009142898
133	0x3e0566f5	0.13027556
134	0x3d35f831	0.044426147
135	0xbafe39dc	-0.0019395906
136	0x3e2e6bc3	0.17033295
137	0xbc1bd597	-0.009511373
138	0x3bd3c0e7	0.0064622047
139	0xbc2fd42b	-0.010731737
140	0x3ed7b2ab	0.421285
141	0x3d2a2fbb	0.041549426
142	0xbcdf1cf1	-0.02723548
143	0xbd453280	-0.048143864
144	0x3be6da2b	0.0070450506
145	0x3d50de52	0.05099327
146	0x3ceb5f50	0.028731972
147	0xbea7c945	-0.32770744
148	0xbcb2c0d0	-0.021820456
149	0x3b070225	0.0020600643
150	0xbf028a7c	-0.5099256
151	0xbd16dbd9	-0.036830757
152	0x3d6fa88a	0.05851034
153	0x3b9b11cc	0.004732346
154	0x3d404186	0.046937488
155	0x3d3d92a5	0.04628243
156	0xbd82d90b	-0.06389054
157	0x3d758ec4	0.059950605
158	0xbc869f18	-0.016433284
159	0x3c9e1e25	0.019301483
160	0xbf244720	-0.6417103
161	0xbd2d018a	-0.042237796
162	0x3bf01d14	0.007327685
163	0x3be5ecf6	0.0070167733
164	0xbc1cd774	-0.009572852
165	0x3d4c8588	0.049932033
166	0x3d63f47c	0.05565308
167	0x3d9eef91	0.077605374
168	0xbba4f3ec	-0.0050339606
169	0x3c53fe01	0.012938977
170	0x3d811d4d	0.06304417
171	0x3e441ab0	0.19150805
172	0xbdfde5d6	-0.12397353
173	0xbcb76a35	-0.02238951
174	0x3c8e5a9d	0.017377192
175	0x3d0de256	0.03463968
176	0x3ea55d31	0.32297662
177	0xbe939cd7	-0.28830597
178	0x3e24f204	0.16107947
179	0x3d64ec3d	0.055889357
180	0xbd24b500	-0.040211678
181	0xbea9e58d	-0.33182946
182	0xbc9084c1	-0.017641427
183	0xbe570ba9	-0.21000542
184	0x3d0bf0fe	0.034165375
185	0x3e1e05a4	0.15431839
186	0x3dba5594	0.09098354
187	0x3d3e3d84	0.046445385
188	0xbdb3c3c9	-0.087775774
189	0x3dd49f9a	0.10382004
190	0xbf0f5a53	-0.559972
191	0xbd04e7e7	-0.03244772
192	0x384f3fc0	4.9412018e-05
193	0xbc26def4	-0.010184992
194	0x3c9e163d	0.019297713
195	0x3d68b1c8	0.05681017
196	0x3e1a7b21	0.15086032
197	0x3caa3284	0.02077604
198	0x3d2a5053	0.04158051
199	0xbb186b27	-0.0023257227
200	0xbca25505	-0.019815931
201	0xbc1178f1	-0.008878932
202	0x3bc98974	0.006150419
203	0xbe87838f	-0.2646756
204	0xbcd88d47	-0.026434554
205	0xbe09c898	-0.13455427
206	0xbd22cec1	-0.039747957
207	0x3d462c0e	0.048381858
208	0xbe823681	-0.25432208
209	0xbe6b30e9	-0.22967876
210	0x3e4bdded	0.19908877
211	0x3d866e49	0.06564004
212	0xbcf7c43a	-0.030244935
213	0xbd066b24	-0.03281702
214	0x3cb4e465	0.022081563
215	0x3c31efff	0.010860442
216	0xbe88f5fa	-0.26750165
217	0xbece7abd	-0.40328017
218	0xbcb46dc7	-0.022025002
219	0x3d03ce48	0.032179147
220	0xbde7b88c	-0.113144964
221	0xbe287800	-0.16452026
222	0x3dc5c91e	0.09657501
223	0x3cceedd1	0.025259884
224	0x3daee86e	0.08540426
225	0x3e0a96c7	0.1353408
226	0x3e2ef07a	0.17083922
227	0x3e89deea	0.26927882
228	0x3d33746a	0.043812193
229	0x3dec3e51	0.115353234
230	0xbe8812a5	-0.26576725
231	0xbe14a500	-0.14516068
232	0xbcdff180	-0.027336836
233	0x3da7b6a9	0.081891365
234	0x3ba2da42	0.004969866
235	0x3da816e7	0.08207493
236	0xbdc66c1d	-0.0968859
237	0x3e909eb2	0.28246075
238	0x3cbd57de	0.023113187
239	0xbe0a45b2	-0.13503149
240	0x3e86b0da	0.26306802
241	0x3ec4d3be	0.38442796
242	0x3d48bc5a	0.04900775
243	0xbc151f82	-0.00910175
244	0xbd2b3bd8	-0.04180512
245	0xbded1fbc	-0.115783185
246	0x3dba6aaf	0.091023795
247	0x3d643afc	0.055720314
248	0xbd2a84be	-0.0416305
249	0xbcce4213	-0.025177991
250	0x3e5f6986	0.21817598
251	0xbe616481	-0.22010995
252	0x3daf8e09	0.08572013
253	0x3db77312	0.08957495
254	0x3d83337c	0.06406304
255	0xbdf25177	-0.118319444

model.0.bias f4 [256]
0	0x31168103	2.1901208e-09
1	0xb36a07f1	-5.4489593e-08
2	0x33ab6383	7.980909e-08
3	0xb3d4cf03	-9.9096745e-08
4	0xb3a7d459	-7.815169e-08
5	0x3209fd6b	8.03207e-09
6	0xb4510f2e	-1.9470164e-07
7	0x33242daa	3.8225757e-08
8	0xb373e49c	-5.6785765e-08
9	0x34b0f92a	3.2963845e-07
10	0x33253d13	3.8472603e-08
11	0x32d5ae8b	2.4875837e-08
12	0xb2e48147	-2.6601482e-08
13	0x341e12ed	1.4721782e-07
14	0xb3f0cf86	-1.1213619e-07
15	0x341948b0	1.4275679e-07
16	0xb4fc246d	-4.696516e-07
17	0xb4cae588	-3.7792438e-07
18	0x32cd4739	2.389753e-08
19	0xb500aa73	-4.793175e-07
20	0x332ec06f	4.068755e-08
21	0xb58da3f6	-1.0553038e-06
22	0x33a49bd3	7.6651894e-08
23	0xb3cf9813	-9.666851e-08
24	0xb3b1ea2d	-8.284801e-08
25	0x33861f72	6.245581e-08
26	0xb3a0fce6	-7.4965826e-08
27	0x342a6814	1.5870347e-07
28	0xb3fc7c9a	-1.1757329e-07
29	0xb3bcc1a4	-8.789655e-08
30	0x32d2d37b	2.4543388e-08
31	0xb39c538b	-7.2795125e-08
32	0xb3287c3a	-3.922853e-08
33	0x35c9f5e5	1.5047232e-06
34	0xb3ced07e	-9.630547e-08
35	0xb598d885	-1.1387898e-06
36	0xb2f30812	-2.8292593e-08
37	0xb3cb83d3	-9.476903e-08
38	0x32b57486	2.1124162e-08
39	0x32939cb9	1.7184322e-08
40	0xb33ad54c	-4.3500492e-08
41	0x31ea3b34	6.817027e-09
42	0x32098ed6	8.006927e-09
43	0xb49e3415	-2.9467688e-07
44	0xb34cb8b9	-4.7665456e-08
45	0x32a86f83	1.9608484e-08
46	0xb1db456a	-6.3816303e-09
47	0xb55c1b95	-8.1996524e-07
48	0x33b94436	8.627141e-08
49	0xb4069653	-1.253441e-07
50	0xb3e55763	-1.0679539e-07
51	0x3301f4f8	3.025795e-08
52	0x34051861	1.2395459e-07
53	0x33702bba	5.5919124e-08
54	0xb4a7646e	-3.1179246e-07
55	0xb21f5a58	-9.27556e-09
56	0xb4a98268	-3.1573586e-07
57	0xb4209798	-1.495631e-07
58	0x320362d6	7.647676e-09
59	0x32bc9518	2.195388e-08
60	0x339c100b	7.267234e-08
61	0x34585aec	2.0149645e-07
62	0xb40f976b	-1.3372998e-07
63	0x32a5088d	1.9212417e-08
64	0xb3214799	-3.755085e-08
65	0xb3ed4807	-1.1049274e-07
66	0xb3e7b2bd	-1.0789288e-07
67	0x33b9f128	8.6586e-08
68	0xb3ed5008	-1.105073e-07
69	0x3356ec4b	5.0040665e-08
70	0x3424192e	1.528285e-07
71	0xb26c5f2b	-1.3758647e-08
72	0x32dc017c	2.5612046e-08
73	0x315ef0fc	3.2442236e-09
74	0x33bee2e8	8.8888385e-08
75	0xb343c550	-4.558143e-08
76	0xb370826a	-5.5997965e-08
77	0x33605a84	5.2236388e-08
78	0x34407e41	1.7927324e-07
79	0x3455eb22	1.9922712e-07
80	0x31bfd662	5.583204e-09
81	0xb4c296ec	-3.6245126e-07
82	0xb348c871	-4.674843e-08
83	0xb47a15aa	-2.3290946e-07
84	0xb4b74a68	-3.4140544e-07
85	0xb37f353f	-5.942024e-08
86	0x3503c770	4.909152e-07
87	0x338fee67	6.7023215e-08
88	0xb412c566	-1.3669123e-07
89	0xb462fd7a	-2.1140104e-07
90	0x30d83b8e	1.5732995e-09
91	0x33ba2051	8.667178e-08
92	0x332e763d	4.062007e-08
93	0x33b57ecc	8.4515335e-08
94	0x35523a16	7.831562e-07
95	0x336cf2b3	5.5168766e-08
96	0x31be8571	5.5448983e-09
97	0xb3ae744b	-8.12366e-08
98	0x3346d4a4	4.6293863e-08
99	0x341d6d3d	1.4661505e-07
100	0xb474ebad	-2.2810009e-07
101	0xb379351e	-5.802314e-08
102	0x330b4edd	3.2435185e-08
103	0x344303ea	1.8162214e-07
104	0xb4b0eea9	-3.2956203e-07
105	0x3461709e	2.0995728e-07
106	0x338d5b80	6.582468e-08
107	0x33e4d65c	1.0656069e-07
108	0xb4330983	-1.6674134e-07
109	0xb30997d4	-3.2035885e-08
110	0xb404f01d	-1.238081e-07
111	0x348c51dc	2.6136593e-07
112	0xb2964947	-1.7495621e-08
113	0xb35c8eee	-5.1352735e-08
114	0xb446d826	-1.8518821e-07
115	0xb51dafc1	-5.8742813e-07
116	0xb27d7ed8	-1.4755379e-08
117	0x33e871fa	1.0824074e-07
118	0xb46a5403	-2.1823512e-07
119	0xb43690d0	-1.7002753e-07
120	0x31c0feff	5.616925e-09
121	0x343da0b1	1.7660456e-07
122	0xb2f3f487	-2.8400121e-08
123	0x34c1384e	3.5990018e-07
124	0x32c1093a	2.2472353e-08
125	0x3487b68a	2.5278524e-07
126	0xb60641d2	-2.0005868e-06
127	0x33ed844c	1.1060237e-07
128	0x331d65bf	3.664695e-08
129	0x34606ddb	2.0901591e-07
130	0x34c68ca7	3.6982712e-07
131	0xb264288e	-1.3280568e-08
132	0x348e4626	2.65006e-07
133	0x33fc7132	1.17552545e-07
134	0xb2b6e830	-2.1293175e-08
135	0xb437dfce	-1.7124623e-07
136	0xb3291311	-3.936572e-08
137	0xb4b8e896	-3.44419e-07
138	0xb31ea130	-3.693384e-08
139	0xb38d4092	-6.5775694e-08
140	0x34d6bbe6	3.999732e-07
141	0xb30454ef	-3.081089e-08
142	0xaf0d6d1d	-1.286264e-10
143	0xb4d1d03c	-3.9080794e-07
144	0xb3a5b29d	-7.715901e-08
145	0x348d27d0	2.6292264e-07
146	0x367b046b	3.7404486e-06
147	0x329bfc1b	1.815902e-08
148	0x3487e077	2.530903e-07
149	0x338e089c	6.613956e-08
150	0x34c499c1	3.6619716e-07
151	0xb49ae99c	-2.8854708e-07
152	0xb407201b	-1.2584535e-07
153	0x33d5131d	9.922062e-08
154	0xb44ecd53	-1.9259942e-07
155	0x34039690	1.22551e-07
156	0xb3ee3da2	-1.10939496e-07
157	0xb3b6a16f	-8.5044e-08
158	0x340ba03f	1.3003681e-07
159	0x34c85468	3.7314317e-07
160	0xb3968211	-7.008578e-08
161	0xb30279e6	-3.037885e-08
162	0xb2f6e2a1	-2.8741228e-08
163	0xb36ce01f	-5.515187e-08
164	0x351f582d	5.936043e-07
165	0xb3c0d4c9	-8.979402e-08
166	0xb3023487	-3.0315757e-08
167	0xb30e83f7	-3.3181973e-08
168	0x3483ca10	2.454767e-07
169	0x34bd6d3b	3.528347e-07
170	0x3473ced1	2.2706378e-07
171	0xb3a621b1	-7.736106e-08
172	0xb265eca4	-1.338336e-08
173	0xb3282949	-3.9153097e-08
174	0xb44b7f9d	-1.8952274e-07
175	0x33902fc1	6.714209e-08
176	0xb1a72d7b	-4.86551e-09
177	0xb42d42df	-1.6136208e-07
178	0xb057c320	-7.8493834e-10
179	0xb3620a44	-5.2629062e-08
180	0xb3c2f038	-9.0775245e-08
181	0xb320de97	-3.7455347e-08
182	0xb275d3db	-1.4309047e-08
183	0xb482f972	-2.4395882e-07
184	0xb3acd998	-8.048954e-08
185	0xb385fbc9	-6.2390946e-08
186	0x31367d32	2.655565e-09
187	0x32fed508	2.9666367e-08
188	0xb4e4f83f	-4.2648932e-07
189	0xb35ee744	-5.1898738e-08
190	0x339d4814	7.323993e-08
191	0x3442ad7c	1.8130771e-07
192	0xb42d3bea	-1.6133677e-07
193	0x339363ca	6.8633724e-08
194	0x34851031	2.478496e-07
195	0x326d5882	1.381534e-08
196	0x33bce183	8.7954525e-08
197	0xb406385d	-1.2500227e-07
198	0xb3d4ee57	-9.915373e-08
199	0x34c92c02	3.7471187e-07
200	0x33053faf	3.1024395e-08
201	0x343e9cfc	1.775224e-07
202	0x33c47708	9.148613e-08
203	0x341a1344	1.4349376e-07
204	0xb3fb2a7e	-1.16958276e-07
205	0xb2ea12a4	-2.7249662e-08
206	0xb36bfa13	-5.4942642e-08
207	0x3224d076	9.593455e-09
208	0xb436f604	-1.7039571e-07
209	0x34cc8987	3.8098025e-07
210	0xb21b4cef	-9.03968e-09
211	0x35c1274d	1.4391059e-06
212	0x3315b5c1	3.485707e-08
213	0xb3887919	-6.355021e-08
214	0xb41058d5	-1.3443362e-07
215	0x31b692bf	5.3135802e-09
216	0xb57c8e46	-9.408435e-07
217	0x3477c7d9	2.3076372e-07
218	0x337ce59a	5.8882144e-08
219	0xb448a126	-1.8685077e-07
220	0xb4358de8	-1.6908564e-07
221	0x3396f5e1	7.0296444e-08
222	0x34d4b5b7	3.9620292e-07
223	0xb41ce7e4	-1.4612993e-07
224	0x33815a99	6.02351e-08
225	0xb1f8703c	-7.2305095e-09
226	0xb3974463	-7.043925e-08
227	0x34a6fe65	3.1105006e-07
228	0x3174e2fe	3.5635703e-09
229	0x3312474c	3.4058118e-08
230	0x345f5e24	2.0802742e-07
231	0x334f7b4a	4.8308074e-08
232	0xb3613611	-5.2436068e-08
233	0x344529fb	1.8362327e-07
234	0x33d96633	1.012344e-07
235	0x332c6afe	4.014418e-08
236	0xb3558f7e	-4.9723432e-08
237	0x3345fcb3	4.6097465e-08
238	0x339eca62	7.3942616e-08
239	0x32c8785a	2.3337794e-08
240	0xb47cd428	-2.3546511e-07
241	0x34910843	2.7014366e-07
242	0xb4c8092c	-3.7259576e-07
243	0x32d897b2	2.5214693e-08
244	0x342abd20	1.5901287e-07
245	0xb42ec9ad	-1.6278382e-07
246	0x34265ddb	1.5494099e-07
247	0xb52f81ef	-6.538166e-07
248	0x33685527	5.4094155e-08
249	0xb3d6aa05	-9.996078e-08
250	0xb338bd75	-4.301315e-08
251	0xb3c9e8e7	-9.4021566e-08
252	0x3305b413	3.1130252e-08
253	0xb2b6fdd9	-2.1303025e-08
254	0xb357e4d7	-5.0266717e-08
255	0xb2a35020	-1.9012134e-08

model.1.weight f4 [256]
0	0x3f187223	0.5954916
1	0x3f0cb4e4	0.5496352
2	0x3f179c36	0.59222734
3	0x3f11f343	0.5701181
4	0x3f05746a	0.5213076
5	0x3f300a0d	0.68765336
6	0x3f18baa7	0.5965981
7	0x3f2261da	0.6343056
8	0x3f0bdd09	0.5463415
9	0x3f3daff5	0.74096614
10	0x3f1acfab	0.60473126
11	0x3f230698	0.63681936
12	0x3f042cca	0.5163084
13	0x3f3d514d	0.7395218
14	0x3f240329	0.6406732
15	0x3f23ef7f	0.6403732
16	0x3f594ec8	0.84885836
17	0x3f045839	0.5169712
18	0x3f15109a	0.58228457
19	0x3f2fb30e	0.6863259
20	0x3f076abd	0.52897245
21	0x3f32dfb4	0.69872594
22	0x3f017fdf	0.5058574
23	0x3f2acc0f	0.6671762
24	0x3f28ef01	0.6598969
25	0x3f0aebc5	0.54266006
26	0x3f36ae15	0.7135938
27	0x3f2fc85b	0.68665093
28	0x3ef64c19	0.48104933
29	0x3f320aa3	0.6954748
30	0x3eed186d	0.46307698
31	0x3f491e10	0.78561497
32	0x3f140f05	0.5783542
33	0x3f8b2bd4	1.087275
34	0x3f243693	0.64145774
35	0x3f5d23ba	0.8638264
36	0x3f0d1827	0.5511498
37	0x3f1216f7	0.5706629
38	0x3f13fbc6	0.5780605
39	0x3f05f7d7	0.523313
40	0x3f0ac957	0.5421347
41	0x3f17eb3e	0.59343326
42	0x3f43b675	0.7645028
43	0x3f21df03	0.63230914
44	0x3f2d159b	0.6761109
45	0x3f14e409	0.58160454
46	0x3f1d23a4	0.6138251
47	0x3f5979d4	0.8495152
48	0x3f26f629	0.6521936
49	0x3f18728d	0.5954979
50	0x3f1c4b7b	0.61052674
51	0x3f30a014	0.6899426
52	0x3f2f856e	0.6856297
53	0x3f115365	0.56767875
54	0x3f1f0b86	0.6212696
55	0x3ee37b7c	0.4443015
56	0x3f7f1ddb	0.9965493
57	0x3f1d3e3d	0.61423093
58	0x3f09ac3c	0.53778434
59	0x3f6254db	0.8841073
60	0x3f159b8a	0.5844046
61	0x3f281c9c	0.65668654
62	0x3f3f935e	0.7483424
63	0x3f08bc9c	0.53412795
64	0x3f250839	0.6446567
65	0x3f1ed710	0.6204691
66	0x3f0a4736	0.5401491
67	0x3f371f87	0.7153248
68	0x3f27ea68	0.6559205
69	0x3f1504d8	0.58210516
70	0x3f2fd7e5	0.68688804
71	0x3efd960a	0.49528533
72	0x3f09c163	0.5381071
73	0x3f1f5064	0.6223204
74	0x3f183b37	0.59465355
75	0x3f445357	0.76689667
76	0x3f35e60b	0.7105414
77	0x3f1501d3	0.5820591
78	0x3f652bab	0.8951976
79	0x3f23c0e2	0.6396619
80	0x3f0a78ea	0.5409075
81	0x3f084341	0.5322762
82	0x3f0238a9	0.50867707
83	0x3f1a0225	0.6015952
84	0x3f23217a	0.63722956
85	0x3f055af2	0.52091897
86	0x3f610744	0.8790171
87	0x3f066c75	0.5250924
88	0x3f4b8a2a	0.79507697
89	0x3f22b125	0.6355155
90	0x3f047ecb	0.5175597
91	0x3f61b7e1	0.881712
92	0x3f0d37d2	0.551633
93	0x3f0619fb	0.52383393
94	0x3f70ff33	0.94139403
95	0x3f36e6a8	0.71445704
96	0x3f320d75	0.69551784
97	0x3f193746	0.59849966
98	0x3f1de503	0.6167757
99	0x3f2a9a8b	0.66642064
100	0x3f2c3702	0.67271435
101	0x3f29c308	0.6631322
102	0x3f1bab3a	0.60808146
103	0x3f1b3b10	0.60637
104	0x3f5c5b69	0.8607698
105	0x3f0d9bce	0.55315864
106	0x3f15784e	0.58386695
107	0x3f2d2f6d	0.6765049
108	0x3f5c289b	0.8599946
109	0x3f416c1f	0.75555605
110	0x3f18e0c7	0.59717983
111	0x3f11e0eb	0.5698382
112	0x3f15b696	0.5848173
113	0x3f15fa3b	0.58584946
114	0x3f310b69	0.69158036
115	0x3f6101c5	0.87893325
116	0x3f0b9e30	0.5453825
117	0x3f0944af	0.5362043
118	0x3f147781	0.5799485
119	0x3efc2ee9	0.4925454
120	0x3f0d9e48	0.55319643
121	0x3f0da30d	0.5532692
122	0x3eeccc49	0.46249607
123	0x3f2446e7	0.6417069
124	0x3f02d323	0.5110342
125	0x3f16bd0a	0.588822
126	0x3f47474b	0.7784316
127	0x3f208fb3	0.6271927
128	0x3f23dfe3	0.640135
129	0x3ee28efd	0.44249716
130	0x3f676129	0.9038263
131	0x3f26ff1b	0.6523301
132	0x3f0e4f96	0.5559019
133	0x3f0d132f	0.55107397
134	0x3f126042	0.5717813
135	0x3f19eec8	0.60129976
136	0x3f18ca20	0.5968342
137	0x3f222007	0.6333012
138	0x3f1fc31f	0.62407106
139	0x3f0c7255	0.54861957
140	0x3f0f44da	0.55964434
141	0x3f23c457	0.63971466
142	0x3f1ee060	0.6206112
143	0x3f21cecd	0.6320618
144	0x3f2b6160	0.6694546
145	0x3f3905db	0.7227456
146	0x3f84c9ce	1.0374086
147	0x3f192b10	0.59831333
148	0x3f2d7210	0.6775217
149	0x3f13527b	0.5754773
150	0x3f3c5b4a	0.73576796
151	0x3f34c1b2	0.70608056
152	0x3f3d375b	0.7391259
153	0x3f1ff66b	0.6248538
154	0x3f1a04d4	0.6016362
155	0x3efa6aa1	0.48909476
156	0x3efc60c2	0.4929257
157	0x3f06a125	0.5258964
158	0x3f108cde	0.56464946
159	0x3f51dc45	0.8197673
160	0x3f0a4cf4	0.5402367
161	0x3f1dc666	0.61630857
162	0x3f12e1b0	0.5737562
163	0x3f07c302	0.53031933
164	0x3f294c69	0.6613222
165	0x3f432e27	0.762423
166	0x3f220f3c	0.63304496
167	0x3f39d14d	0.7258499
168	0x3f092d58	0.53584814
169	0x3f5df409	0.86700493
170	0x3f0c9c0e	0.5492562
171	0x3f01f792	0.5076839
172	0x3f197415	0.5994275
173	0x3f11ec3b	0.57001084
174	0x3f373ad7	0.7157416
175	0x3f2a705d	0.665777
176	0x3f30f482	0.6912309
177	0x3f3e59b1	0.7435561
178	0x3f22c228	0.6357751
179	0x3ef3d167	0.476207
180	0x3f13ef53	0.57787055
181	0x3f4c3f87	0.79784435
182	0x3f15102e	0.58227813
183	0x3f5b6ffe	0.8571776
184	0x3f4c31db	0.79763573
185	0x3f20d4bc	0.62824607
186	0x3f05ce96	0.5226835
187	0x3f17533d	0.59111387
188	0x3f32e226	0.69876325
189	0x3f1724f2	0.5904075
190	0x3f28c7f9	0.65930134
191	0x3f46864f	0.7754869
192	0x3f11cfa1	0.5695744
193	0x3f0044c0	0.50104904
194	0x3f07c685	0.5303729
195	0x3f331fa4	0.69970155
196	0x3eed0494	0.46292555
197	0x3f23eed3	0.6403629
198	0x3efc26a0	0.4924822
199	0x3f63a074	0.8891671
200	0x3f2beead	0.67161065
201	0x3f0c7607	0.54867595
202	0x3f12ba65	0.57315665
203	0x3f1fc675	0.62412196
204	0x3f265c92	0.64985
205	0x3f2b9f25	0.6703971
206	0x3f15bc88	0.584908
207	0x3f0e46f0	0.5557699
208	0x3f380045	0.7187541
209	0x3f4a8c1f	0.7912006
210	0x3f083a58	0.53214025
211	0x3f5c6493	0.86090964
212	0x3ee3c493	0.44485912
213	0x3eff02d7	0.49806854
214	0x3f262cac	0.64911914
215	0x3efcb539	0.49357012
216	0x3f43817a	0.7636944
217	0x3f2138f4	0.6297753
218	0x3f2b3240	0.6687355
219	0x3f234589	0.6377798
220	0x3f25fccc	0.6483886
221	0x3f47b793	0.7801449
222	0x3f1a4cd0	0.60273457
223	0x3f1c7bf3	0.6112663
224	0x3f0a620f	0.54055876
225	0x3f1b3e41	0.60641867
226	0x3f14775d	0.57994634
227	0x3f4c20c9	0.79737526
228	0x3f2ce8f0	0.67542934
229	0x3f05994c	0.5218704
230	0x3f0d92dd	0.5530222
231	0x3f3c3ada	0.735273
232	0x3ef1aa22	0.47200114
233	0x3f3a9ec8	0.7289853
234	0x3f2d18ab	0.67615765
235	0x3f2d679b	0.67736214
236	0x3f049890	0.5179529
237	0x3f112dc2	0.56710446
238	0x3f24be65	0.6435302
239	0x3efa94d0	0.4894166
240	0x3f1a3bde	0.602476
241	0x3f30fb6a	0.6913363
242	0x3f20ad44	0.6276438
243	0x3ee800e4	0.4531318
244	0x3f345b23	0.70451564
245	0x3f2a9449	0.66632515
246	0x3f3cfd45	0.7382396
247	0x3f8aa82e	1.0832574
248	0x3eec6bec	0.46176088
249	0x3ee8ff49	0.45507267
250	0x3f0aaebc	0.54172873
251	0x3f3d8e06	0.74044836
252	0x3f0dbc47	0.55365413
253	0x3f36368b	0.71176976
254	0x3f36b9b6	0.7137712
255	0x3f301927	0.6878838

model.1.bias f4 [256]
0	0xbe91a889	-0.28448895
1	0xbdc411d6	-0.095737144
2	0xbd7b6bad	-0.061381985
3	0xbdf725ee	-0.120677814
4	0xbe8cb668	-0.27482915
5	0xbd39cc97	-0.045361128
6	0xbe2e79df	-0.17038678
7	0xbe3c96b8	-0.1841687
8	0xbcf4c113	-0.029877221
9	0x3bb4a650	0.00551299
10	0xbe9b092e	-0.3028044
11	0xbdd4f798	-0.10398787
12	0xbe0652a2	-0.1311746
13	0xbe808c51	-0.25107053
14	0xbdf17a04	-0.11790851
15	0xbdde7e07	-0.108638816
16	0xbe708ea9	-0.2349192
17	0xbd77562e	-0.06038492
18	0xbe9496b4	-0.29021227
19	0xbe0a4f1d	-0.13506742
20	0xbd9ae1c6	-0.07562594
21	0xbe8305be	-0.25590318
22	0xbad8a0dc	-0.0016527432
23	0x3d715fc7	0.05892923
24	0xbe712a23	-0.2355123
25	0xbe4e769e	-0.20162436
26	0xbe341316	-0.17585406
27	0xbe9a4f74	-0.30138743
28	0xbe2ae08e	-0.16687223
29	0xbe440147	-0.19141112
30	0xbdbd1d12	-0.0923406
31	0x3d1c260e	0.03812223
32	0xbd5cf7f3	-0.0539474
33	0xbed5628c	-0.41676748
34	0xbe8d4f2a	-0.2759946
35	0xbe8aefbd	-0.2713603
36	0xbe553cf3	-0.20824032
37	0xbdc9999e	-0.09843753
38	0xbe3142dd	-0.17310663
39	0xbe32725a	-0.17426434
40	0xbe87a410	-0.26492357
41	0xbdd16199	-0.102236934
42	0xbd9ded28	-0.077112496
43	0xbe336010	-0.17517114
44	0xbb8e743c	-0.0043473523
45	0xbe0f8f27	-0.14019452
46	0xbdc0ce2c	-0.09414324
47	0xbe8bf6d4	-0.27336752
48	0xbe22135a	-0.15827695
49	0xbe96760d	-0.2938694
50	0xbddea3a0	-0.10871053
51	0xbe7bb979	-0.24582471
52	0x3d7077bd	0.05870794
53	0xbd865a3c	-0.065601796
54	0x3e3b3015	0.1828006
55	0xbdd4ad6f	-0.10384642
56	0xbec90a4c	-0.39265668
57	0xbd5688f0	-0.052376688
58	0xbe10671f	-0.14101838
59	0xbe8db6da	-0.27678567
60	0xbd88870c	-0.06666383
61	0xbdd25a6c	-0.10271153
62	0xbdde10c7	-0.10843044
63	0xbd0e0cba	-0.034680106
64	0xbe3bd501	-0.18342973
65	0xbe78fb67	-0.24314652
66	0x3c51ac0d	0.012797368
67	0xbd66217a	-0.05618427
68	0xbd2c5ab6	-0.042078696
69	0xbe670ffe	-0.22564694
70	0xbea334fa	-0.31876355
71	0xbe6591b1	-0.22418858
72	0xbdf13bb2	-0.11778964
73	0x3b305bb2	0.0026910123
74	0xbe6804ac	-0.22658032
75	0xbd0ee6d9	-0.034888122
76	0xbe2d7fb7	-0.1694325
77	0xbc67be71	-0.014144526
78	0x3d64a0b8	0.055817336
79	0xbe86570e	-0.26238292
80	0xbdadd7aa	-0.084884
81	0xbdb3b907	-0.087755255
82	0xbe166431	-0.14686657
83	0xbe174e0c	-0.14775866
84	0xbee6e6ae	-0.4509787
85	0xbe65f568	-0.22456896
86	0xbe6fe680	-0.23427773
87	0xbe1a96f8	-0.15096653
88	0xbdaffe8d	-0.085934736
89	0xbeae5d43	-0.34055528
90	0xbe33ac46	-0.17546186
91	0xbea9e921	-0.33185676
92	0xbd9058a2	-0.07048155
93	0xbe018266	-0.126474
94	0x3cc89c3d	0.024488563
95	0xbcfe0ad5	-0.031011024
96	0xbddce69e	-0.10786174
97	0xbe9160b8	-0.28394103
98	0xbe0d0b4a	-0.13773838
99	0xbe8b8cda	-0.272559
100	0xbeb58962	-0.35456377
101	0xbea7fabd	-0.32808486
102	0xbe8dc606	-0.27690142
103	0xbe8d74f5	-0.27628294
104	0xbe6d02df	-0.23145626
105	0xbe82fb07	-0.25582144
106	0xbe66cf82	-0.22540095
107	0xbe92fa5d	-0.28706637
108	0xbe92ff18	-0.28710246
109	0xbe13854b	-0.14406316
110	0xbdec3fe1	-0.115356214
111	0xbe8017cb	-0.25018153
112	0xbc1e19c7	-0.0096497005
113	0xbe5c61ce	-0.21521685
114	0xbe0c690c	-0.13711947
115	0xbead6830	-0.3386855
116	0xbe83d71a	-0.25750047
117	0xbe2c7b40	-0.16843891
118	0xbe97185c	-0.29510772
119	0xbda77645	-0.08176855
120	0xbe2273d9	-0.15864505
121	0xbcb8c0c3	-0.022552853
122	0xbde5ca5c	-0.112202376
123	0xbe9e6174	-0.30933726
124	0xbe3baf26	-0.18328533
125	0xbe999954	-0.29999793
126	0xbe92155c	-0.2853192
127	0xbcbb8eaf	-0.022895185
128	0xbebe74a7	-0.37198374
129	0xbe1479c2	-0.14499572
130	0xbea946ab	-0.33061728
131	0xbd93461e	-0.07191108
132	0xbd84606f	-0.06463706
133	0xbe40135c	-0.18757385
134	0xbe3cf9f4	-0.18454725
135	0xbeac815a	-0.33692437
136	0x3bcc6ae2	0.0062383274
137	0xbd8629d2	-0.06550945
138	0xbe45ad14	-0.19304305
139	0xbe091b87	-0.13389407
140	0xbe21d5d8	-0.15804231
141	0xbe54930e	-0.20759222
142	0xbeb60161	-0.35547927
143	0xbe658ba7	-0.22416554
144	0xbe335207	-0.1751176
145	0xbd3c1210	-0.045915663
146	0xbec4a336	-0.3840577
147	0xbe72b721	-0.2370267
148	0xbed2fd2d	-0.41208783
149	0xbe6ddbea	-0.23228422
150	0xbd990a31	-0.07472647
151	0xbeb4834a	-0.35256416
152	0xbe4344de	-0.1906924
153	0xbe5df30e	-0.2167475
154	0xbe2bfb3f	-0.16795062
155	0xbe40eff7	-0.1884154
156	0xbe112d60	-0.14177465
157	0xbe2a4c51	-0.16630675
158	0xbe78887a	-0.24270812
159	0xbe521dff	-0.20519255
160	0xbc9e43df	-0.019319473
161	0x3cf499e2	0.029858533
162	0xbe4625f2	-0.19350412
163	0x3cedfb39	0.029050456
164	0xbed92d20	-0.4241724
165	0xbd412df7	-0.047162976
166	0xbe04cc98	-0.12968671
167	0xbe10fb14	-0.14158279
168	0xbe52fcc8	-0.20604241
169	0xbe90afc6	-0.28259104
170	0xbd7cd460	-0.061725974
171	0xbdfa575d	-0.122236945
172	0xbe40a765	-0.18813856
173	0xbdda9191	-0.10672296
174	0xbeb16c77	-0.34653065
175	0xbe24d9dd	-0.16098733
176	0xbc596d86	-0.013270741
177	0xbe3b64e7	-0.1830021
178	0x3d67ba7a	0.056574322
179	0xbd3236ed	-0.043509413
180	0xbdd9c296	-0.106328174
181	0xbe31bc82	-0.17357066
182	0xbe079409	-0.13240065
183	0x3cc209ed	0.023686374
184	0x3e002407	0.12513743
185	0xbe05f0aa	-0.13080087
186	0xbd82d211	-0.06387723
187	0xbe47146b	-0.19441383
188	0xba11acde	-0.000555707
189	0xbddb0576	-0.10694401
190	0xbe2e9633	-0.17049484
191	0xbd377aa1	-0.044794682
192	0xbef9bbb8	-0.4877603
193	0xbd38de2f	-0.045133766
194	0xbd3a6ecc	-0.04551582
195	0x3d3037d1	0.04302198
196	0xbe41e682	-0.18935588
197	0xbe6bbe43	-0.23021798
198	0xbcdf24fa	-0.027239311
199	0x3d82d76a	0.06388743
200	0xbbf15dfb	-0.0073659397
201	0xbe90f50c	-0.28311956
202	0xbe53596d	-0.20639582
203	0xbe55cf4e	-0.20879862
204	0xbe9a7b1f	-0.3017206
205	0xbe8ba834	-0.27276766
206	0xbd2f4399	-0.042789076
207	0x3c87cb97	0.016576571
208	0xbe437ce5	-0.19090612
209	0x3d78252c	0.060582325
210	0xbe7a0aeb	-0.24418227
211	0xbe7b53fc	-0.24543756
212	0xbdaf0aad	-0.08546958
213	0xbe1e8f9e	-0.15484473
214	0xbe98da5b	-0.29854092
215	0xbe41c5f6	-0.18923172
216	0xbe4a21ee	-0.19739506
217	0xbe6a1a35	-0.2286156
218	0xbe8bfc12	-0.27340752
219	0xbd832092	-0.06402697
220	0xbd485206	-0.04890635
221	0xbe8c52ef	-0.27407023
222	0xbdc80edb	-0.097684585
223	0xbe8cbaa4	-0.27486145
224	0x3d72708a	0.059189357
225	0xbe286ce6	-0.16447791
226	0xbe2bc30f	-0.16773628
227	0xbe5208de	-0.20511195
228	0xbd240ae8	-0.040049464
229	0xbe191be7	-0.1495205
230	0xbc0566b3	-0.008142161
231	0xbe8c04ee	-0.2734751
232	0xbd2dae16	-0.04240235
233	0xbe43fc06	-0.19139108
234	0xbbf99fc6	-0.0076179234
235	0xbe0ed1dd	-0.13947244
236	0xbe2199a3	-0.15781264
237	0xbe22b0c2	-0.1588774
238	0xbdaf0d64	-0.08547476
239	0xbda58b5b	-0.080832206
240	0xbd7ef25e	-0.062242858
241	0xbe6ecf64	-0.233213
242	0xbc9cd77a	-0.019145716
243	0xbe2dbd59	-0.16966762
244	0xbe07c157	-0.13257347
245	0xbe8bdede	-0.27318472
246	0xbe33e685	-0.17568405
247	0xbed19764	-0.40935814
248	0xbe3bb6b5	-0.18331416
249	0xbe1a098c	-0.15042704
250	0xbe1fdd8c	-0.15611857
251	0xbde302fd	-0.11084554
252	0xbe021be9	-0.1270596
253	0xbd62d6e8	-0.05538073
254	0xbe397b3c	-0.18113416
255	0xbed15848	-0.40887666

model.1.running_mean f4 [256]
0	0xbbf939c7	-0.0076057645
1	0xbc1f45e6	-0.009721255
2	0x3c14bbd8	0.009077989
3	0xbb38ecf9	-0.0028217419
4	0xbc1694d2	-0.009190755
5	0x3b8d4851	0.0043115993
6	0x3c13ec53	0.009028512
7	0x3c42f365	0.01189885
8	0x3a4a6a75	0.0007721552
9	0x3ba9d838	0.005183246
10	0xbc2e32f2	-0.0106322635
11	0x3b6e60e6	0.0036373674
12	0xb9fc2a15	-0.0004809654
13	0x3bd2ec0f	0.006436832
14	0xbc2690cf	-0.010166361
15	0x3c08a4e6	0.008340096
16	0x3c289c90	0.010291234
17	0xbb0d8a06	-0.002159716
18	0xbbdd24bf	-0.0067487652
19	0x3c0b48b3	0.00850122
20	0x3ba89e96	0.005145858
21	0xbbefaae5	-0.0073140734
22	0x3a0d5953	0.00053920335
23	0x3b9d134d	0.0047935606
24	0x3bdfe017	0.0068321335
25	0xbbf226ae	-0.007389865
26	0x3c829f64	0.015945144
27	0xbac67a07	-0.0015142568
28	0x3b800fa0	0.0039081126
29	0xbb45af42	-0.0030164276
30	0x3b4012b8	0.0029308032
31	0x3b8835f5	0.004156823
32	0xbbe4e0f1	-0.006984823
33	0x3c5ece21	0.01359895
34	0xbb5cbeea	-0.003368313
35	0x3c25b367	0.010113574
36	0x3a33536c	0.0006840739
37	0xbb22a002	-0.002481461
38	0x3b1d9556	0.002404531
39	0x3a652647	0.00087413605
40	0x3c2ddd15	0.010611792
41	0x3b82c156	0.0039903326
42	0x3b62b7e4	0.003459447
43	0xbbd9b26a	-0.006643583
44	0xbbd1f94d	-0.006407893
45	0x3bc680ee	0.00605785
46	0x3c075281	0.008259417
47	0x3c26464e	0.010148598
48	0x3a060bd2	0.00051134557
49	0x3b6f240f	0.0036489998
50	0x3c055a60	0.008139223
51	0x3a0fd970	0.0005487418
52	0x3c2499b7	0.010046414
53	0x3a681678	0.0008853446
54	0x3c3437e2	0.010999652
55	0x3ad79874	0.0016448633
56	0x3c178c5b	0.009249772
57	0xbaf447b9	-0.0018637098
58	0x3bd38823	0.0064554377
59	0x3c2e4fed	0.010639173
60	0x3ab7e45e	0.0014029851
61	0x3a3076a0	0.00067315437
62	0x3c3131f5	0.010815133
63	0x39ba64c5	0.00035551764
64	0xbc22413b	-0.0099032475
65	0xbc4b47af	-0.012407227
66	0x3b9b475c	0.0047387313
67	0x3bf210b2	0.007387244
68	0x3c391db2	0.011298584
69	0x3c23b1ce	0.009991122
70	0x3ae3a5d1	0.0017368143
71	0xbc2a4b0c	-0.010393869
72	0x3bea5aa4	0.0071519185
73	0xbaccfda9	-0.0015639561
74	0xbb9021bd	-0.004398553
75	0x3b0227fd	0.001986026
76	0x3c063ade	0.008192746
77	0xbbea3402	-0.007147313
78	0x3b8a3dee	0.0042188084
79	0x3b7c6fab	0.0038518708
80	0xba78726e	-0.00094775006
81	0xbb7bad31	-0.003840279
82	0x3b6d29b0	0.0036188178
83	0x38f88154	0.00011849651
84	0x3c03b25f	0.008038132
85	0xbbb184c5	-0.0054174387
86	0x3c62f0f3	0.013851392
87	0xbb8ab951	-0.004233517
88	0x3c2148b9	0.009843999
89	0xbc7cf71e	-0.015439777
90	0x3acdfad6	0.0015715014
91	0xbc0ed377	-0.008717409
92	0xbb827ef4	-0.003982419
93	0xbaf03d9f	-0.0018328911
94	0x3b65ee57	0.0035084689
95	0x3b7c5b23	0.003850647
96	0xbbc48404	-0.005997183
97	0x3c0a36b4	0.008435894
98	0x3c16021b	0.009155775
99	0xbbfc4b22	-0.007699386
100	0x3c0109ce	0.007875873
101	0x3c16a4ae	0.009194536
102	0xbb9c6071	-0.004772239
103	0x3c2e5e79	0.010642641
104	0x3c0a7821	0.0084514925
105	0x3c4ccb10	0.012499586
106	0x3bd8415f	0.0065995897
107	0x3bd0de7b	0.006374178
108	0xbc2ae197	-0.010429761
109	0xba5fda9d	-0.0008539351
110	0xba04fb27	-0.0005072825
111	0x3c37725e	0.011196701
112	0x3c3bd1a8	0.01146356
113	0x3ba268be	0.004956334
114	0xbc2beb12	-0.010493057
115	0xbc11650e	-0.008874191
116	0xbc4d5c8c	-0.012534272
117	0x3c2e48c7	0.010637469
118	0x3c27bd0f	0.010237946
119	0x3bb00fed	0.0053729923
120	0x3c127832	0.00893979
121	0x3b23273b	0.002489521
122	0xbacb3bf9	-0.0015505544
123	0xbc14eac7	-0.009089178
124	0xbc08cec0	-0.008350074
125	0x3b29987c	0.0025878241
126	0x3c14d81a	0.009084726
127	0x3b09aedd	0.0021008768
128	0xbc293cb1	-0.010329411
129	0xbc2e0432	-0.010621117
130	0x3c2a0917	0.010378144
131	0x3c0ad5bd	0.008473811
132	0x3bd617f7	0.0065336186
133	0x3bef7acb	0.0073083392
134	0x3ba647a1	0.005074457
135	0xba86c042	-0.0010280686
136	0x3bb0f1b9	0.0053999093
137	0x3b96d862	0.0046034316
138	0x3b814f5b	0.0039462275
139	0x39e76ef1	0.0004414241
140	0xbad987ea	-0.0016596292
141	0x3be91c06	0.0071139364
142	0x3c345a3e	0.011007844
143	0x3ba64264	0.0050738323
144	0x3be3da1e	0.006953492
145	0x3bdbd89b	0.006709171
146	0x3c1fd9a0	0.009756476
147	0xbc438d6a	-0.011935571
148	0x3baa2f3d	0.0051936195
149	0xbc3bc4b7	-0.011460475
150	0x3b6284fd	0.003456413
151	0xbc472b81	-0.012156368
152	0x3bb24291	0.0054400642
153	0x3c28a66b	0.010293583
154	0xbb89051e	-0.004181518
155	0x3a76e671	0.0009418494
156	0x3bfbcd34	0.007684374
157	0x3bd17f97	0.0063933837
158	0xbab9354e	-0.0014130266
159	0x3c160afd	0.009157893
160	0x3bb1c99e	0.005425646
161	0xbb149b5e	-0.0022675614
162	0xbb4d7543	-0.003135041
163	0xbb29bb9e	-0.0025899182
164	0xbc5b7f91	-0.013397113
165	0x3b61a1da	0.0034428746
166	0x3bb7895f	0.0056010927
167	0x3b72021c	0.0036927527
168	0x3c5e398d	0.013563526
169	0x3c3a29f3	0.011362541
170	0x3c3607f6	0.0111102965
171	0x3b4bc594	0.0031093108
172	0xbc7525fa	-0.014962668
173	0xbb0d8ee8	-0.0021600071
174	0xbb8b7234	-0.0042555574
175	0x39ffa31d	0.0004875892
176	0xbb7cc08c	-0.0038566915
177	0xbbd06b08	-0.0063604154
178	0x3c75f39e	0.015011696
179	0x3bb721e3	0.0055887564
180	0xbc121f1d	-0.008918551
181	0x3aa48767	0.001255256
182	0x3c0c02ee	0.00854562
183	0x3b4eab18	0.0031535085
184	0x3beb1686	0.007174316
185	0x3bd81594	0.006594369
186	0x3a5ec137	0.0008497419
187	0x3aa23fa5	0.0012378587
188	0x3be402da	0.0069583477
189	0x39657de6	0.00021886043
190	0xbc0e4f7c	-0.008685943
191	0x3c0e58b8	0.008688144
192	0x3c2cafef	0.010539993
193	0x3aaab09c	0.0013022604
194	0x3bd521cc	0.006504273
195	0x3c01bd65	0.00791869
196	0x3a67f10d	0.000884787
197	0x3bcd1a4c	0.0062592383
198	0xba911052	-0.0011067486
199	0x3b72beed	0.003704007
200	0x3bd3177f	0.00644201
201	0xb9f60a46	-0.0004692843
202	0xbbe7a405	-0.007069113
203	0xbb22b258	-0.002482554
204	0x3c1c290f	0.0095312735
205	0x3bace552	0.0052763605
206	0x3b276e25	0.002554783
207	0x3afe2571	0.001938982
208	0xbb9c8346	-0.004776391
209	0x3b862964	0.0040942896
210	0xbbae5290	-0.005319901
211	0x3c197c2d	0.009367985
212	0xbbc4fb5e	-0.0060114106
213	0x3ba8494d	0.0051356913
214	0x3bdd5948	0.006755028
215	0x3b016037	0.0019741186
216	0x3c2f9a47	0.010717935
217	0x3bc25b58	0.005931299
218	0xbc53f661	-0.012937159
219	0x3a9290eb	0.0011182105
220	0xbba7086e	-0.0050974404
221	0xbbf40124	-0.007446425
222	0x3bd9a784	0.006642284
223	0xbc21c69d	-0.009874013
224	0x3c03292f	0.008005424
225	0x3c14a24c	0.009071898
226	0xba9c01c8	-0.0011902386
227	0xbbedd960	-0.007258579
228	0x3c0ef9e1	0.008726568
229	0x3bb3122e	0.0054648137
230	0x3bdbcd67	0.0067078355
231	0xbbdbebcd	-0.0067114593
232	0x3c12e762	0.008966299
233	0xbb9367b6	-0.0044984473
234	0x3ae9d2bb	0.0017839292
235	0x3c366771	0.011133061
236	0x3bbc4852	0.005745926
237	0xbbde91b4	-0.0067922715
238	0x3bbe7f5f	0.0058135237
239	0x3ab72404	0.0013972525
240	0x39de5d14	0.00042412488
241	0xbbbc6616	-0.0057494743
242	0xbbc971e4	-0.00614761
243	0x3b1ffa29	0.0024410582
244	0x3c66389d	0.014051584
245	0xbbb0dbe4	-0.0053973068
246	0x3a84e8e0	0.0010140203
247	0x3c3dedd8	0.011592351
248	0xbaac50dc	-0.0013146657
249	0xbb46c371	-0.0030328894
250	0xbb1e1d7d	-0.0024126463
251	0x3c2ecc16	0.010668775
252	0xbbfa96f7	-0.007647391
253	0x3b7a5d81	0.0038202705
254	0x3bf1ee2c	0.0073831286
255	0xbc608259	-0.013702952

model.1.running_var f4 [256]
0	0x3e4e25e3	0.2013164
1	0x3e8915d6	0.26774472
2	0x3e85ae81	0.26109698
3	0x3e8a23d4	0.2698046
4	0x3e7e1bde	0.24815318
5	0x3e86ec6a	0.26352245
6	0x3e1da9ad	0.15396757
7	0x3e83e016	0.25756902
8	0x3e44133f	0.19147967
9	0x3e8423b6	0.25808495
10	0x3e45fa7d	0.19333835
11	0x3e738b79	0.23783673
12	0x3e138d7e	0.14409444
13	0x3e319dff	0.17345427
14	0x3e5b0ec7	0.21392356
15	0x3e74234f	0.23841594
16	0x3ea600fa	0.3242262
17	0x3e8278ef	0.2548289
18	0x3e3ec1d4	0.18628627
19	0x3e7c4880	0.24637032
20	0x3e4e3f68	0.20141375
21	0x3e5d4484	0.21608168
22	0x3e2b58eb	0.16733138
23	0x3e2e24fa	0.17006293
24	0x3e8a7b6c	0.27047288
25	0x3e44ca6b	0.19217841
26	0x3e8620a9	0.26196793
27	0x3e86740a	0.26260406
28	0x3e7ca9ee	0.24674198
29	0x3de42a4b	0.11140879
30	0x3e5c7e3e	0.21532533
31	0x3ecfd737	0.40593883
32	0x3e23ea04	0.16007239
33	0x3f0b39db	0.54385155
34	0x3e71e887	0.23623858
35	0x3e9ad97b	0.3024405
36	0x3e48e945	0.19620235
37	0x3e6c4414	0.23072845
38	0x3e0bab99	0.13639678
39	0x3e1cef04	0.15325552
40	0x3e8a5485	0.27017608
41	0x3e804dc6	0.25059336
42	0x3eab257e	0.33427042
43	0x3dc50e21	0.096218355
44	0x3e52e5cb	0.20595472
45	0x3e5dc5cd	0.21657486
46	0x3e94faa3	0.2909747
47	0x3e9aaa59	0.3020809
48	0x3e62e719	0.2215847
49	0x3e486460	0.1956954
50	0x3e36d5ef	0.17855047
51	0x3ea0db9f	0.31417558
52	0x3eae5522	0.34049326
53	0x3e82821b	0.25489888
54	0x3e74a0c0	0.23889446
55	0x3e1fd972	0.15610293
56	0x3e8ce580	0.27518845
57	0x3e21637c	0.15760607
58	0x3e41bfc5	0.1892081
59	0x3eaf6e0a	0.3426364
60	0x3e14485a	0.14480725
61	0x3e86f5fa	0.2635954
62	0x3eaf7a47	0.34272978
63	0x3e855adb	0.2604588
64	0x3e63658a	0.22206703
65	0x3e5eaa0d	0.21744557
66	0x3e5792e6	0.21052131
67	0x3eb5ed9e	0.3553285
68	0x3e9bb05e	0.30407995
69	0x3e75f0b8	0.24017608
70	0x3e32cc18	0.17460668
71	0x3e6458c3	0.22299485
72	0x3e34684e	0.17617914
73	0x3e14faaa	0.14548746
74	0x3ebe414f	0.37159202
75	0x3ecc5ddb	0.39915356
76	0x3ebe5af4	0.37178767
77	0x3e69dc14	0.2283786
78	0x3eb67f9b	0.3564423
79	0x3e1a5418	0.15071142
80	0x3e5f80f5	0.21826537
81	0x3e109f99	0.14123382
82	0x3dee51b7	0.116366796
83	0x3e20f915	0.15720017
84	0x3dfd0ef5	0.123563685
85	0x3e3a8684	0.18215376
86	0x3f0aadc3	0.5417139
87	0x3e3ebd00	0.18626785
88	0x3ec4dcbd	0.3844966
89	0x3e942222	0.2893229
90	0x3e09d5c6	0.13460454
91	0x3e353c05	0.17698677
92	0x3e6ffbaa	0.23435846
93	0x3db9b785	0.09068207
94	0x3e74c7ca	0.23904338
95	0x3e8e8fbe	0.27844042
96	0x3e65ed6a	0.22453848
97	0x3e8c4769	0.27398232
98	0x3e3e9d4a	0.18614689
99	0x3e99758f	0.29972503
100	0x3e2d0f96	0.16900477
101	0x3e9f55bb	0.31120095
102	0x3e8c8e32	0.27452236
103	0x3e8b9bde	0.27267355
104	0x3e9bebda	0.30453378
105	0x3e945a97	0.28975365
106	0x3e04fc59	0.12986888
107	0x3e9c9d01	0.30588534
108	0x3e802511	0.2502828
109	0x3eac4f4d	0.33654252
110	0x3e8df372	0.27724797
111	0x3e5515a5	0.20809038
112	0x3e2f38f7	0.17111574
113	0x3e887924	0.26654923
114	0x3e7dc8fb	0.24783699
115	0x3e2657c1	0.16244413
116	0x3e3027a7	0.17202626
117	0x3e152847	0.14566146
118	0x3e80f719	0.2518852
119	0x3dfda45b	0.12384864
120	0x3e449ba7	0.19200002
121	0x3ea1cc96	0.316014
122	0x3e361e36	0.17784962
123	0x3e685f41	0.22692586
124	0x3e5ea695	0.21743234
125	0x3e1eee14	0.15520507
126	0x3e94d351	0.29067472
127	0x3e901a4c	0.28145063
128	0x3ec93a3f	0.3930225
129	0x3e284659	0.16433086
130	0x3eb24cf1	0.34824327
131	0x3e5b6b5e	0.21427676
132	0x3e5f690b	0.21817414
133	0x3e91523f	0.2838306
134	0x3e630b16	0.22172198
135	0x3e8ac718	0.2710502
136	0x3e53df7d	0.20690723
137	0x3e8698cd	0.26288453
138	0x3e32d370	0.1746347
139	0x3e23eba1	0.16007854
140	0x3e075148	0.132146
141	0x3e779dbf	0.24181269
142	0x3e61c09e	0.22046134
143	0x3e84df57	0.25951645
144	0x3ea5d3cf	0.3238816
145	0x3e37a285	0.1793309
146	0x3e918bad	0.28426877
147	0x3e4295d3	0.19002466
148	0x3e028507	0.12746058
149	0x3e7b63b4	0.24549752
150	0x3e61521a	0.22003976
151	0x3e801579	0.25016382
152	0x3e84837a	0.2588156
153	0x3e64c349	0.2234012
154	0x3e6f6511	0.23378398
155	0x3e09ecfd	0.1346931
156	0x3e2f5ec7	0.17125998
157	0x3e51bcaa	0.20482126
158	0x3e7c230c	0.24622744
159	0x3e9319b0	0.28730536
160	0x3e34b533	0.17647247
161	0x3e869207	0.26283285
162	0x3e4b4799	0.19851531
163	0x3e5e8c90	0.21733308
164	0x3e85ac8c	0.26108205
165	0x3e8add29	0.27121857
166	0x3e2e844d	0.17042656
167	0x3e5715a8	0.21004355
168	0x3e715b58	0.23570001
169	0x3ec81609	0.3907931
170	0x3e8ae016	0.2712409
171	0x3e163aef	0.14670919
172	0x3e978c2f	0.2959914
173	0x3e3b6e74	0.18303853
174	0x3e31e7cf	0.17373584
175	0x3e717802	0.23580936
176	0x3e082a66	0.13297424
177	0x3e442cac	0.19157666
178	0x3e89639e	0.26833814
179	0x3e615410	0.22004724
180	0x3e836ed9	0.25670508
181	0x3e61deff	0.22057723
182	0x3e24be9c	0.16088337
183	0x3e5e9eef	0.21740316
184	0x3df40ec4	0.11916879
185	0x3e69a9db	0.22818701
186	0x3e4ce082	0.20007518
187	0x3e85d9ca	0.26142722
188	0x3e853148	0.2601416
189	0x3e7fb0de	0.24969813
190	0x3e830328	0.25588346
191	0x3f090abe	0.53532016
192	0x3e4bcbb5	0.19901927
193	0x3e321bf1	0.17393471
194	0x3e481499	0.19539107
195	0x3eae9ae1	0.34102538
196	0x3e365caf	0.17808793
197	0x3e92a57a	0.28641874
198	0x3e4b7d74	0.19872075
199	0x3e8d6a07	0.27619955
200	0x3e40d754	0.18832141
201	0x3dba6354	0.091009766
202	0x3e674166	0.22583541
203	0x3e650c5a	0.22367993
204	0x3e78a3d2	0.24281242
205	0x3eacde4f	0.33763358
206	0x3e848ffc	0.258911
207	0x3e879210	0.26478624
208	0x3dacbe0a	0.084346846
209	0x3ea30c55	0.31845346
210	0x3e57dc6b	0.21080177
211	0x3e8bc007	0.27294943
212	0x3e3400bc	0.17578405
213	0x3e0fbc9c	0.14036793
214	0x3e904ef0	0.28185225
215	0x3e39c3e7	0.18141137
216	0x3eb1fb45	0.34762016
217	0x3e9ba7e0	0.30401516
218	0x3e921553	0.28531894
219	0x3e5ec9e1	0.21756698
220	0x3e850602	0.25981146
221	0x3e256020	0.1614995
222	0x3e5b721c	0.21430248
223	0x3e53be6f	0.20678113
224	0x3e3b8e1f	0.18315934
225	0x3e9664ec	0.29373872
226	0x3eb6b134	0.3568207
227	0x3dfaa801	0.122390755
228	0x3e74dfcf	0.23913501
229	0x3e4d7031	0.20062329
230	0x3dedf2b8	0.116185606
231	0x3e0bdb21	0.1365781
232	0x3e325fcd	0.17419358
233	0x3e166c8b	0.14689843
234	0x3e523016	0.20526156
235	0x3e6d23f5	0.23158248
236	0x3e543843	0.20724587
237	0x3e376b1d	0.17911954
238	0x3e74f2d1	0.23920752
239	0x3e2045b6	0.15651593
240	0x3e5e7c73	0.21727161
241	0x3e23feab	0.16015117
242	0x3e4203dd	0.18946786
243	0x3dd35e48	0.10320717
244	0x3e84715d	0.2586774
245	0x3e494096	0.19653544
246	0x3e5d8948	0.216344
247	0x3eca5786	0.395199
248	0x3e05eeb9	0.13079347
249	0x3e63d4f6	0.22249207
250	0x3e49e473	0.19716053
251	0x3eb51b7b	0.35372528
252	0x3e3433b8	0.17597854
253	0x3e85cfec	0.26135194
254	0x3ea5150e	0.32242626
255	0x3e89befe	0.26903528

model.4.weight f4 [128, 256]
0	0xbd6c7854	-0.05773194
1	0x3c06c74a	0.008226225
2	0xbd1bd830	-0.03804797
3	0x3d265f4d	0.04061823
4	0x3d846cbc	0.06466052
5	0xbdc64450	-0.09680998
6	0xbd59a575	-0.053136308
7	0x3c02862d	0.00796656
8	0xbb5bfaae	-0.0033566165
9	0x3b92608d	0.004467076
10	0xbd1d44a4	-0.03839554
11	0xbd9beaac	-0.076131195
12	0xbc128da4	-0.008944903
13	0x3c3cf0d7	0.01153203
14	0xbc97a904	-0.01851321
15	0x3c858e07	0.016303075
16	0x3d7ee4a5	0.06222977
17	0xbcd014d9	-0.025400566
18	0xbd755f47	-0.059905317
19	0xbd07192b	-0.032982986
20	0xbda86eda	-0.08224268
21	0xbddb1211	-0.10696805
22	0x3c46c452	0.012131767
23	0xbc82e46a	-0.015978057
24	0xbd83e70b	-0.06440552
25	0x3d7c8292	0.06164796
26	0xbcbbfc4b	-0.022947451
27	0xbda0d447	-0.07852989
28	0xbd18a528	-0.03726688
29	0xbce3ddf3	-0.027815795
30	0x3c0e48fe	0.008684395
31	0xbd4b531d	-0.04963981
32	0xbb83f980	-0.0040275455
33	0x3d493215	0.049120028
34	0x3d4000ec	0.04687588
35	0x3d101dba	0.0351846
36	0x3bf97026	0.007612246
37	0x39897f81	0.00026225674
38	0xbaab1ea6	-0.0013055399
39	0xbce5f6ea	-0.02807184
40	0xbbaa8558	-0.005203884
41	0x3d93d80f	0.07218944
42	0xbd0a8cc5	-0.033825655
43	0xbc74d48b	-0.014943252
44	0x39c85d93	0.0003821669
45	0xbd52d1ed	-0.051469732
46	0x3d90209a	0.07037468
47	0x3d53712b	0.051621597
48	0xbcec0e48	-0.028815404
49	0xbd7e5cbd	-0.06210016
50	0xbbd9318a	-0.00662822
51	0xbb9fc4bb	-0.004875747
52	0x3c768415	0.015046139
53	0x3cfec771	0.03110096
54	0x3ca254b9	0.01981579
55	0x3d1847c0	0.0371778
56	0x3d775304	0.060381904
57	0x3c990a27	0.018681599
58	0xbd2a71af	-0.041612323
59	0x3d3bd58b	0.045857947
60	0xbcf52f03	-0.029929643
61	0x3d968ee6	0.073514745
62	0x3c58e142	0.013237299
63	0x3c599f49	0.013282605
64	0xbd930f42	-0.071806446
65	0x3b376031	0.0027980919
66	0x3c70b3d0	0.014691308
67	0xbc869674	-0.016429164
68	0x3d4a3018	0.049362272
69	0x3c394072	0.011306869
70	0xbd656a34	-0.056009486
71	0x3c9d0fa1	0.019172492
72	0x3c9e010b	0.019287607
73	0x3cef5c80	0.029218912
74	0xbcfc19a9	-0.030773954
75	0x3b92d6d7	0.0044811773
76	0x3d593866	0.0530323
77	0x3d0be63f	0.034155127
78	0x3c587efd	0.01321387
79	0xbd060c71	-0.03272671
80	0xbcb5ccf0	-0.022192448
81	0xbc048d36	-0.008090308
82	0x3d6a56ce	0.05721169
83	0x3d6bf648	0.05760792
84	0x3d22ea5c	0.039774284
85	0x3d099265	0.03358688
86	0x3cae4e42	0.02127755
87	0xbbd89d1c	-0.006610526
88	0x3c909fa4	0.017654248
89	0xbc9e1581	-0.019297363
90	0x3ccb7b79	0.02483915
91	0x39e5060c	0.0004368279
92	0x3cb2ec62	0.021841232
93	0x3d167a40	0.03673768
94	0x3968f4a2	0.00022216377
95	0xbccd3ac5	-0.025052438
96	0x3c58d71f	0.013234883
97	0xbd13bd01	-0.03606892
98	0xbbd08bae	-0.0063643074
99	0xbd967eb8	-0.073483884
100	0xbd4d4d72	-0.050122686
101	0xbd0ccdd0	-0.034375966
102	0x3d6da1e3	0.058015715
103	0xbc11f775	-0.008909096
104	0xbca17baa	-0.019712288
105	0xbcd86f90	-0.026420385
106	0x3bf8f7b6	0.007597889
107	0xbd5f85a4	-0.05457081
108	0xbd687f66	-0.05676212
109	0xbd908b43	-0.07057812
110	0xbc816ed4	-0.015799917
111	0x3d2e26c2	0.04251743
112	0xbbe1457f	-0.0068747397
113	0xbc778a5e	-0.015108673
114	0xbd48666b	-0.0489258
115	0xbcc4ad2f	-0.024008362
116	0xbc14387a	-0.009046668
117	0xbc86fc6a	-0.016477782
118	0x3d006907	0.031350162
119	0x3b99748f	0.0046830843
120	0x3d5a2050	0.05325347
121	0x3d907759	0.07054014
122	0xbd2d4cb7	-0.04230949
123	0xbd3432b7	-0.043993678
124	0x3c8bd836	0.01707087
125	0xbd25671a	-0.04038153
126	0x3d7b1908	0.06130317
127	0x3cdd78bf	0.027035115
128	0xbdae62b7	-0.08514922
129	0x3cb14f65	0.021644304
130	0xbb9dbee4	-0.0048140157
131	0x3cb65e22	0.022261683
132	0x3da68923	0.081316255
133	0xbcd51e61	-0.026015462
134	0x3d1ed664	0.038778678
135	0xbd10349c	-0.035206422
136	0xbc77651c	-0.01509979
137	0x3d97dd16	0.07415216
138	0xbcb0e912	-0.021595512
139	0x3d053223	0.032518517
140	0xbdd12ae9	-0.102132626
141	0xbd40de7c	-0.047087178
142	0x3ccac837	0.024753673
143	0xbd58aa45	-0.052896757
144	0x3c2434a6	0.010022318
145	0xbd58e487	-0.052952316
146	0x3d61c492	0.055119105
147	0xbc3f132e	-0.011662288
148	0xbddcb4a7	-0.10776644
149	0xbd843d37	-0.06456988
150	0xbc610f0e	-0.0137364995
151	0xbd41d703	-0.04732419
152	0xbd2c5ece	-0.0420826
153	0xbb8c150c	-0.00427497
154	0xbcc01094	-0.023445405
155	0x3d99d336	0.075109884
156	0x3d9f1a28	0.07768661
157	0xbccd8cda	-0.025091577
158	0x3c8572ed	0.016290152
159	0x3d0681f6	0.032838784
160	0x3b5ccbfd	0.0033690922
161	0x3d1ebafb	0.038752537
162	0x3d65e018	0.056121916
163	0x3d656813	0.056007456
164	0xbc9c38df	-0.019070087
165	0xbb8753d0	-0.0041298643
166	0xbd8b26fd	-0.06794546
167	0xbb279bf1	-0.0025575126
168	0x3d63dd27	0.05563083
169	0x3d22c137	0.039735045
170	0x3c9d97b7	0.019237382
171	0x3c10c452	0.008835869
172	0x3a51273a	0.00079785625
173	0x3cbf7c57	0.02337472
174	0xbdeffa63	-0.11717679
175	0xbc4f151d	-0.012639311
176	0x3d3fe78d	0.046851683
177	0xbce9670a	-0.028491516
178	0x3b7f5d74	0.0038965615
179	0x3ccb873f	0.024844764
180	0xbe3a7d7d	-0.18211932
181	0x3ccb2009	0.024795549
182	0x3cf3aa01	0.02974415
183	0xbcd97947	-0.026547087
184	0xbbbc7ee5	-0.0057524317
185	0x3d0bb410	0.034107268
186	0x3c2102f7	0.009827367
187	0xbc0799e1	-0.008276434
188	0x3ccc2ea8	0.024924591
189	0xbb3c7b82	-0.002876014
190	0xbd8eb133	-0.06967392
191	0x3b759f1f	0.0037478877
192	0x3c5df7db	0.013547863
193	0xbd86902e	-0.06570469
194	0x3db883e4	0.09009531
195	0xbd924d49	-0.07143647
196	0xbc4000bf	-0.011718928
197	0xbcd064ce	-0.025438692
198	0xbbc0c13b	-0.00588241
199	0x3ccd6740	0.025073647
200	0x3b73102f	0.0037088504
201	0xbce72014	-0.028213538
202	0x3d08dec2	0.033415563
203	0xbcbd5e76	-0.023116332
204	0xbc66e337	-0.014092258
205	0x3ca431ed	0.020043338
206	0x3d86d9f2	0.065845385
207	0x3cf60dbd	0.030035848
208	0xbb407355	-0.0029365618
209	0xbd016dab	-0.03159873
210	0x3d855d5d	0.06511948
211	0x3d33daa6	0.04390969
212	0x3c991f02	0.018691543
213	0xbd2d7789	-0.042350326
214	0xbde14338	-0.10999149
215	0xbcd43455	-0.02590386
216	0x3c25671e	0.010095386
217	0xbd909226	-0.070591256
218	0xbc49e954	-0.012323696
219	0x3e12083f	0.14260958
220	0x3b1196a3	0.002221503
221	0xbd47b0fb	-0.048752766
222	0x3bb48882	0.005509437
223	0xbd2f2f90	-0.04276997
224	0xbb8e0e91	-0.0043352325
225	0xbd796139	-0.060883734
226	0x3c989e34	0.018630125
227	0x3c86e596	0.016466897
228	0xbc93a010	-0.01802066
229	0x3d728cc6	0.059216283
230	0xbbee7beb	-0.0072779558
231	0xbc89e70e	-0.016833808
232	0x3cd0a2f6	0.02546833
233	0x3daa3078	0.08310026
234	0x3d9c58cd	0.07634125
235	0xbd36459f	-0.04449999
236	0xbd4e0376	-0.05029627
237	0xbe127a22	-0.14304402
238	0x3dcbb9c0	0.099475384
239	0xbd9920c7	-0.07476955
240	0x3c150bcd	0.009097052
241	0xbdc6fbc6	-0.09715991
242	0xbbb297e2	-0.0054502347
243	0xbbdcf1ff	-0.0067427154
244	0xbc808b8c	-0.015691541
245	0xbcaf6e4a	-0.021414895
246	0x3d33ecc2	0.04392696
247	0x3c47a5cc	0.012185525
248	0x3cf39ad9	0.029736923
249	0xbc0ac4c8	-0.008469768
250	0x3bb67ba3	0.005568938
251	0x3d2862ea	0.041109957
252	0x3c7939ff	0.015211581
253	0xbd9f74b2	-0.0778593
254	0x3c071eac	0.008247059
255	0xbd6e2f99	-0.05815086
