back_end/model/fraud_model.pth (torch, 191186 bytes, 19 tensors)

model.0.weight f4 [256, 10]
-0.5833986 0.0026001814 -0.0022408941 0.002149677 0.0015172338 0.0041054864 0.11004907 -0.0019715142
-0.002144047 0.0008400702 0.34954745 0.05720849 0.0034958008 -0.011411768 0.009570241 0.012751387
-0.022607496 -0.31887308 0.0070317946 0.009786419 -0.36740586 -0.0060109454 -0.0053857053 0.009178443
-0.007102893 -0.011561637 -0.43409276 0.060369022 0.005134105 -0.009158667 0.32822785 0.13095494
-0.046908222 -0.17656715 -0.025524985 0.017531034 -0.14670432 0.06812008 -0.0406086 -0.19752435
0.3061041 0.3214931 -0.02321017 -0.06908238 0.00049657276 -0.101930276 -0.12891394 0.17994513
-0.01718638 -0.09692211 -0.17233953 -0.4804639 -0.0025026528 -0.11850176 -0.101198144 -0.006727805
0.121072784 -0.08666821 0.038239863 0.0058133365 0.03644271 0.17670175 -0.1113029 -0.0068985466
-0.052610062 0.03340517 0.1321014 -0.14598575 -0.113155104 -0.22287104 -0.6642255 -0.06159057
-0.005741462 0.022026267 -0.008398725 -0.009570693 0.18609132 0.14177784 0.014060471 -0.04201189
-0.107295044 0.38121417 0.06507744 -0.098752216 -0.007254017 -0.19760555 0.122208424 -0.052844103
0.12232969 0.12983294 -0.45525274 -0.068860754 -0.013778653 -0.014536155 0.02203079 -0.013385239
-0.32075495 0.04391118 0.024064299 0.020009182 -0.101065956 -0.054730214 0.087959066 -0.3289229
0.03948762 -0.032450352 -0.0428091 -0.06858067 0.17362237 -0.08307286 0.019160075 0.37258473
0.022786567 0.031365428 0.009629153 0.01025456 0.123018704 0.048278943 0.0062110974 0.0323782
-0.1433785 0.3572593 -0.08961921 0.15585332 -0.04225052 -0.017093027 -0.003470314 0.08372438
-0.020055516 -0.114958145 -0.10285221 0.22173639 0.051304005 0.29026985 0.060791425 -0.02018436
0.08138145 0.11439891 0.09800442 -0.08983996 0.097491056 -0.13793276 -0.011286079 0.09638943
0.0019725726 0.0030961095 0.022209298 -0.5052263 0.05763412 0.0010236987 0.25577688 0.1148287
-0.07523968 0.0690221 -0.0065540536 -0.07776893 -0.07263715 0.32788488 0.085873894 -0.12510534
0.032274865 0.067059346 -0.19215971 -0.035558138 0.10416917 -0.048759546 -0.045808323 0.04310064
-0.16930485 0.1173582 0.20178145 -0.060058802 0.017058134 0.013570629 -0.09647841 0.091814704
0.008925499 0.07457437 0.2260134 0.071676716 -0.019335398 0.48693055 -0.012217366 0.11714236
-0.0058552544 0.020051861 0.10905654 -0.01339748 -0.050298017 0.022106595 0.24884667 0.1882334
-0.025918657 0.0976473 -0.021436248 0.06480166 -0.20184603 -0.048768535 0.05661393 -0.24742325
-0.70916665 -0.071200974 -0.002030262 0.00015700782 0.0011573451 0.007538156 0.022798168 0.14575739
0.01721213 -0.09580043 0.38757166 0.06622839 0.0082510095 0.00473945 -0.0039532557 0.008574724
-0.03294418 -0.32816935 0.0076897824 0.013387197 -0.17227466 0.10362872 -0.015765937 -0.04855369
-0.014576956 0.0025898747 -0.19079854 -0.31887278 0.14541204 0.0016867867 -0.39255622 -0.08057666
0.119841285 -0.08379128 -0.034882337 0.04067779 -0.2919373 0.0903154 -0.03612036 0.025735741
-0.030554144 0.21104164 0.043262932 0.2836728 0.04503093 0.011539602 0.0877356 -0.059043445
0.10283549 0.07842209 0.07756844 -0.28681344 -0.022389954 0.01898485 0.020127023 0.014784344
00000000: 9c59 15bf ce67 2a3b f7db 12bb 98e1 0c3b
00000010: ebdd c63a 5187 863b 6861 e13d 8534 01bb
00000020: 2483 0cbb 2838 5c3a e2f7 b23e 7353 6a3d
00000030: ce19 653b 6df8 3abc 80cc 1c3c 32eb 503c
00000040: 5b33 b9bc 5543 a3be f86a e63b 3757 203c
00000050: 9f1c bcbe 77f7 c4bb 927a b0bb 2e61 163c
00000060: 63bf e8bb 056d 3dbc 6841 debe 8245 773d
00000070: ff3b a83b 3c0e 16bc 7b0d a83e 0d19 063e
00000080: d622 40bd 05ce 34be c619 d1bc 3e9d 8f3c
00000090: a839 16be 8a82 8b3d 3455 26bd d343 4abe
000000a0: adb9 9c3e be9a a43e 4123 bebc 107b 8dbd
000000b0: 6f2c 023a d2c0 d0bd 0402 04be 8943 383e
000000c0: 74ca 8cbc 197f c6bd c679 30be 5dff f5be
000000d0: 8c03 24bb 0db1 f2bd f940 cfbd eb74 dcbb
000000e0: 02f5 f73d 1a7f b1bd 67a1 1c3d cd7d be3b
000000f0: f344 153d 4ef1 343e c6f2 e3bd 340d e2bb
00000100: a67d 57bd dcd3 083d 9745 073e 4a7d 15be
00000110: ddbd e7bd 4e38 64be af0a 2abf 6546 7cbd
00000120: e022 bcbb 6e70 b43c ce9a 09bc 65ce 1cbc
00000130: b98e 3e3e 362e 113e e45d 663c a914 2cbd
00000140: 81bd dbbd 812e c33e 5247 853d 9a3e cabd
00000150: 1bb3 edbb 1c59 4abe 6948 fa3d 0f73 58bd
00000160: fd87 fa3d edf2 043e e316 e9be de06 8dbd
00000170: dcbf 61bc 0e29 6ebc ea79 b43c c34d 5bbc
00000180: fe39 a4be 36dc 333d 7e22 c53c 4cea a33c
00000190: abfb cebd ca2c 60bd e223 b43d 9568 a8be
000001a0: c5bd 213d a9ea 04bd 9858 2fbd 0674 8cbd
000001b0: 10ca 313e 1b22 aabd 97f5 9c3c 6dc3 be3e
000001c0: e5aa ba3c 0979 003d 98c3 1d3c be02 283c
000001d0: 3bf1 fb3d 24c0 453d 7686 cb3b 019f 043d
000001e0: d0d1 12be b1ea b63e 478a b7bd 0398 1f3e
000001f0: e20e 2dbd ad06 8cbc 356e 63bb b077 ab3d
00000200: 774b a4bc 2d6f ebbd 2ea4 d2bd dd0e 633e
00000210: 2624 523d 409e 943e 6e00 793d ac59 a5bc
00000220: 51ab a63d fa49 ea3d 8bb6 c83d 03fe b7bd
00000230: 64a9 c73d 3f3e 0dbe 3fe9 38bc d267 c53d
00000240: 4746 013b 19e8 4a3b 46f0 b53c 8356 01bf
00000250: c111 6c3d a12d 863a 30f5 823e 4f2b eb3d
00000260: 4317 9abd 755b 8d3d 63c3 d6bb 5145 9fbd
00000270: c9c2 94bd 87e0 a73e a7de af3d 9d1b 00be
00000280: a632 043d 6956 893d 84c5 44be 69a5 11bd
00000290: a556 d53d 17b8 47bd 82a1 3bbd 4c8a 303d
000002a0: 405e 2dbe 7f59 f03d cc9f 4e3e 3800 76bd
000002b0: 80bd 8b3c 5857 5e3c 7996 c5bd 5909 bc3d
000002c0: 423c 123c 73ba 983d 0f70 673e 3ecb 923d
000002d0: 4565 9ebc f64e f93e 592b 48bc 55e8 ef3d
000002e0: 6fdd bfbb cd43 a43c 0959 df3d 1b81 5bbc
000002f0: 4b05 4ebd e418 b53c a9d1 7e3e 42c0 403e
00000300: 5d53 d4bc 4ffb c73d 129b afbc bcb6 843d
00000310: bab0 4ebe 84c1 47bd 02e4 673d 855c 7dbe
00000320: f28b 35bf d1d1 91bd 250e 05bb 77a2 2439
00000330: 0fb2 973a a302 f73b 39c3 ba3c 6d41 153e
00000340: 7400 8d3c 0433 c4bd cb6f c63e c0a2 873d
00000350: 3e2f 073c 634d 9b3b 508a 81bb 007d 0c3c
00000360: 7af0 06bd d005 a8be 92fa fb3b f955 5b3c
00000370: c568 30be 4b3b d43d 9127 81bc 3ce0 46bd
00000380: 2fd4 6ebc e3ba 293b b160 43be 4b43 a3be
00000390: e5e6 143e 2b17 dd3a 21fd c8be 6005 a5bd
000003a0: 596f f53d c39a abbd c8e0 0ebd c19d 263d
000003b0: ce78 95be 48f7 b83d f1f2 13bd c3d3 d23c
000003c0: af4c fabc 4d1b 583e 7934 313d 903d 913e
000003d0: 5a72 383d 9910 3d3c b9ae b33d 8ad7 71bd
000003e0: 6a9b d23d c39b a03d 34dc 9e3d 36d9 92be
000003f0: 236b b7bc 1e86 9b3c 6de1 a43c 083a 723c

model.0.bias f4 [256]
1.1858751e-06 1.7010102e-06 -1.5191088e-06 3.3234418e-08 1.0646464e-07 8.9886136e-08 6.906451e-08 -3.7658322e-07
4.1204946e-09 3.8180247e-07 1.0762559e-07 6.298884e-07 -1.760963e-08 -1.8957738e-07 2.186954e-07 3.3951443e-07
1.8295161e-07 -6.092158e-07 3.2432303e-07 1.954795e-07 -1.3956337e-06 2.0296102e-06 1.0815723e-07 2.813954e-07
-9.202862e-07 9.273091e-08 1.0436854e-07 -1.1755184e-07 -6.6135044e-07 3.032164e-08 -1.7089398e-08 3.6513876e-07
2.1585034e-08 1.4894643e-07 -7.578128e-08 2.4229846e-07 -3.4826945e-07 3.1854541e-09 -1.763185e-07 -9.280244e-07
-6.699763e-08 4.279631e-08 1.5558669e-07 4.9199727e-08 4.987422e-07 -3.8413276e-07 4.658431e-07 7.788499e-08
-4.4515414e-07 5.222771e-07 1.979776e-07 -2.8963422e-07 1.2628191e-08 4.875983e-08 1.2177836e-07 -6.818423e-08
3.1031635e-07 2.498264e-06 1.8823101e-07 7.506737e-09 -4.7655377e-07 5.470381e-08 -4.099965e-07 -1.6390354e-07
-2.0087188e-07 -1.7555638e-07 -1.06113525e-07 -1.4648157e-07 -9.5190035e-07 5.277795e-07 -2.941538e-07 -2.5646116e-07
-2.0488685e-06 4.3158911e-07 -1.0146237e-08 1.4380382e-07 -4.945373e-08 2.6677372e-07 -5.7237795e-08 4.5521137e-08
1.8282344e-07 -6.6145695e-08 -4.542111e-08 -7.1832e-07 -5.9061826e-08 8.441429e-09 9.038241e-07 -2.0867172e-07
-4.8233346e-07 2.53069e-07 -5.2884744e-08 3.0666815e-08 -3.5047333e-07 2.1034398e-07 9.649152e-08 -4.0947672e-08
-1.4518533e-06 -2.3415677e-08 9.589866e-09 7.729308e-08 -3.7403237e-07 3.480615e-07 -8.805626e-08 3.0297922e-08
3.827294e-07 7.093279e-08 -7.72253e-08 4.9243386e-07 -1.2903193e-07 -7.175076e-09 -4.5864195e-07 2.3885707e-07
5.4867826e-07 -2.0592759e-09 9.3306625e-08 -1.66944e-06 -1.2627902e-07 -5.2253483e-07 3.1643893e-07 3.2595804e-07
2.641844e-07 5.1196878e-08 1.0304943e-06 9.063701e-08 2.5515618e-07 2.456803e-07 4.310571e-08 8.417608e-08
7.279941e-08 -1.2722392e-08 -6.834557e-07 -4.699205e-07 -4.7353436e-07 -2.660199e-07 1.8137969e-07 -2.2307724e-07
-4.1986286e-06 1.2272744e-07 -3.6917027e-07 9.3210895e-07 5.4969814e-07 -2.994401e-07 -1.8093695e-07 -5.0731256e-08
-5.5243504e-08 5.593025e-07 8.8943764e-08 6.027985e-07 2.0936635e-07 -3.8132676e-08 4.3549175e-08 -8.992234e-08
1.2624166e-08 -1.2197987e-07 -4.4205606e-08 -2.3503131e-07 -1.455399e-07 -1.4987235e-07 -8.954594e-07 4.0696222e-07
2.6686163e-07 -3.7881323e-06 2.9069565e-07 -7.4240965e-08 4.1211956e-07 -4.2427192e-08 1.13454874e-07 -6.8726433e-07
-1.580667e-07 -3.4221443e-09 1.5927362e-09 3.147568e-07 -2.447775e-07 1.18605044e-07 5.4170545e-07 1.7609963e-07
2.161686e-06 8.9571394e-08 -3.9712938e-07 -5.917257e-07 3.2978866e-07 2.417376e-07 2.6144005e-07 -3.978514e-06
-6.4885334e-08 -2.8485458e-06 -3.4658817e-07 5.2773924e-08 7.195572e-07 -2.4283207e-07 4.6637038e-07 -2.613436e-07
5.1461006e-07 -8.0831626e-08 -7.579037e-07 3.0919955e-07 -1.629694e-07 -8.4203003e-07 1.1452787e-07 -5.8867492e-08
3.8542782e-07 9.857236e-08 -7.1457784e-08 2.0017003e-08 -2.4600997e-08 -1.2816322e-07 -1.6438683e-08 -2.9854237e-07
-9.292275e-06 -5.586004e-08 1.01974344e-07 9.119735e-09 7.281721e-07 -2.8490987e-07 2.1641172e-07 6.0013576e-09
3.7623412e-08 1.9792641e-07 3.9172264e-07 -5.1861184e-07 -4.4766298e-07 3.9422983e-07 -6.70598e-08 6.43845e-08
-1.2393467e-07 -2.3121424e-07 2.2981877e-07 -9.751325e-08 -2.2923051e-07 3.634805e-08 1.8408196e-08 -1.14970845e-07
-6.2840434e-07 2.4629077e-08 9.77202e-08 6.637666e-07 -8.8983796e-07 -1.2941776e-07 -3.0637434e-08 -9.49435e-08
-6.950517e-07 -1.6161685e-07 -1.1113881e-09 -7.190725e-07 1.9480088e-07 -6.141869e-10 1.7593871e-07 -2.3271727e-07
7.898887e-08 2.6348425e-07 1.301477e-06 1.3894303e-08 1.4056305e-07 3.7848736e-08 1.3583976e-07 1.1026218e-07
00000000: 5c2a 9f35 444e e435 2ee4 cbb5 a1bd 0e33
00000010: 8ea1 e433 6d07 c133 9e50 9433 342d cab4
00000020: 4194 8d31 88fa cc34 cb1f e733 9a15 2935
00000030: fc43 97b2 a28e 4bb4 89d2 6a34 8246 b634
00000040: 5b71 4434 fe88 23b5 9e1e ae34 ffe4 5134
00000050: 9c51 bbb5 7034 0836 1144 e833 b012 9734
00000060: 9609 77b5 5b23 c733 3621 e033 cf70 fcb3
00000070: a887 31b5 ff3a 0233 fccb 92b2 4a08 c434
00000080: fe69 b932 15ee 1f34 33bd a2b3 3f15 8234
00000090: caf9 bab4 1ae7 5a31 0f52 3db4 5a1d 79b5
000000a0: 56e0 8fb3 0acf 3733 580f 2734 ac4f 5333
000000b0: 4ee1 0535 ce3a ceb4 fd18 fa34 ba41 a733
000000c0: 85fd eeb4 9c32 0c35 ab93 5434 067f 9bb4
000000d0: 5ff3 5832 006c 5133 2ec2 0234 ad6c 92b3
000000e0: 8e99 a634 d9a7 2736 8c1c 4a34 faf6 0032
000000f0: 0dd9 ffb4 7af3 6a33 7d1d dcb4 76fd 2fb4
00000100: 3eaf 57b4 9280 3cb4 87e0 e3b3 8c48 1db4
00000110: 1886 7fb5 bbac 0d35 31ec 9db4 c1af 89b4
00000120: 4b7f 09b6 28b5 e734 9f4f 2eb2 7e68 1a34
00000130: f466 54b3 1a39 8f34 9fd5 75b3 0583 4333
00000140: 204e 4434 fb0b 8eb3 0a15 43b3 93d2 40b5
00000150: 2aab 7db3 cc05 1132 529e 7235 3f0f 60b4
00000160: b479 01b5 8add 8734 6423 63b3 85b6 0333
00000170: b028 bcb4 eada 6134 c636 cf33 71de 2fb3
00000180: 4ddd c2b5 9e23 c9b2 adc0 2432 52fc a533
00000190: 9ece c8b4 35dd ba34 7119 bdb3 eb20 0233
000001a0: ee79 cd34 b753 9833 0fd7 a5b3 cc2f 0435
000001b0: 078c 0ab4 a388 f6b1 453b f6b4 443c 8034
000001c0: e248 1335 2a83 0db1 dc5f c833 8611 e0b5
000001d0: 5097 07b4 5244 0cb5 09e3 a934 55ff ae34
000001e0: 3ad5 8d34 90e3 5b33 844f 8a35 39a4 c233
000001f0: 66fc 8834 0be6 8334 3b23 3933 4ac4 b433
00000200: e655 9c33 ac91 5ab2 b876 37b5 6249 fcb4
00000210: 113a feb4 7fd1 8eb4 45c1 4234 0187 6fb4
00000220: f2e1 8cb6 10c7 0334 6032 c6b4 0a36 7a35
00000230: f88e 1335 bcc2 a0b4 9247 42b4 9be3 59b3
00000240: e044 6db3 fa22 1635 5a01 bf33 ffcf 2135
00000250: 2fce 6034 52c7 23b3 d30a 3b33 541b c1b3
00000260: abe1 5832 92f9 02b4 94dc 3db3 ea5c 7cb4
00000270: b445 1cb4 99ec 20b4 805f 70b5 767c da34
00000280: 2f45 8f34 9e37 7eb6 e810 9c34 676e 9fb3
00000290: 4841 dd34 3139 36b3 7aa4 f333 727c 38b5
000002a0: 0bb9 29b4 002b 6bb1 6ce7 da30 d8fb a834
000002b0: f769 83b4 d0b3 fe33 b769 1135 e615 3d34
000002c0: 7c11 1136 655a c033 0c35 d5b4 15d7 1eb5
000002d0: cf0d b134 2ac8 8134 0c5c 8c34 2d7f 85b6
000002e0: 1757 8bb3 a529 3fb6 b712 bab4 8ba9 6233
000002f0: 9827 4135 965e 82b4 7561 fa34 ca4e 8cb4
00000300: bc23 0a35 a895 adb3 bf72 4bb5 1000 a634
00000310: b0fc 2eb4 dd07 62b5 5df2 f533 7ed5 7cb3
00000320: ccec ce34 baae d333 5574 99b3 dbf1 ab32
00000330: 2a52 d3b2 3d9d 09b4 0c35 8db2 5a47 a0b4
00000340: 04e6 1bb7 c3ea 6fb3 fdfc da33 05ad 1c32
00000350: 9b77 4335 b7f5 98b4 cd5e 6834 8034 ce31
00000360: 6197 2133 9985 5434 f34d d234 bc36 0bb5
00000370: 5556 f0b4 89a6 d334 8402 90b3 c143 8a33
00000380: e712 05b4 b043 78b4 1ac4 7634 7a68 d1b3
00000390: 6722 76b4 1b1d 1c33 0d20 9e32 e4e5 f6b3
000003a0: 9eaf 28b5 ea8f d332 40da d133 b22d 3235
000003b0: 33dd 6eb5 15f6 0ab4 3796 03b3 bee3 cbb3
000003c0: 9793 3ab5 e788 2db4 7ebf 98b0 4906 41b5
000003d0: 752a 5134 90d3 28b0 aae9 3c34 d6e0 79b4
000003e0: 97a0 a933 0075 8d34 69ae ae35 cab3 6e32
000003f0: aded 1634 208f 2233 59db 1134 46c9 ec33

model.1.weight f4 [256]
1.0625172 0.8410144 0.8181087 0.44732007 0.5038483 0.50360674 0.41201258 0.6607593
0.44124305 0.63035 0.49996087 0.49414778 0.48068607 0.48282054 0.5711191 0.60221535
0.30569133 0.38899913 0.5934921 0.5023512 0.7186238 0.7524464 0.5693969 0.5332732
0.53430253 0.47609586 0.5088293 0.58141625 0.60647863 0.37377506 0.58741885 0.6418815
0.47249472 0.43918675 0.3905139 0.52528435 0.5938397 0.31927428 0.65438783 0.73416024
0.4940596 0.60843873 0.52495575 0.5016221 0.61811966 0.42890665 0.5004148 0.2862163
0.6469426 0.54533094 0.4384736 0.78344715 0.34182018 0.4170063 0.5126218 0.3748972
0.32084718 0.85595316 0.51767826 0.39572942 0.6469595 0.7230759 0.6031871 0.32789236
0.60677683 0.42404458 0.5757611 0.48635352 0.74668384 0.42573044 0.45468596 0.54157907
0.63845825 0.52788585 0.6070233 0.41030923 0.4242492 0.44327918 0.6180698 0.45133352
0.49076015 0.5192823 0.5765348 0.65196574 0.5492672 0.59167963 0.5961072 0.46447378
0.6113293 0.6013321 0.39411458 0.8032855 0.3704527 0.5609325 0.59359026 0.40986788
0.5959777 0.39255494 0.49211136 0.39387128 0.69324917 0.7057605 0.4131505 0.59630984
0.37005362 0.3306304 0.4221676 0.6652671 0.45009413 0.6128744 0.48191974 0.6871129
0.55838066 0.6507871 0.42766193 0.71434283 0.5437324 0.6347878 0.3289505 0.47542742
0.6015894 0.4336457 0.73393947 0.5393265 0.71913546 0.4671965 0.44989112 0.35952863
0.52290964 0.37944585 0.7613293 0.5460433 0.69894207 0.6004679 0.675094 0.5183033
0.8717342 0.44374746 0.47831148 0.90106666 0.51385045 0.6166894 0.4935835 0.6435031
0.6547633 0.628566 0.5717018 0.77881587 0.46248382 0.45832062 0.6792876 0.62554497
0.40363252 0.63244253 0.47838694 0.51516044 0.43928993 0.42333224 0.72997713 0.59515893
0.5035762 0.45800534 0.4582224 0.5084978 0.51268655 0.5114231 0.4185213 0.66587
0.6325289 0.59243435 0.4310257 0.51653624 0.58186275 0.738322 0.60635763 0.5938341
0.96193236 0.5945381 0.546399 0.53861636 0.50521964 0.6023199 0.69869685 1.0717148
0.44307554 0.61095464 0.5623003 0.4484629 0.5123615 0.6036703 0.66745824 0.45677492
0.5613748 0.50844336 0.67413414 0.4243659 0.45123887 0.69238436 0.39116448 0.4557837
0.59200037 0.36226386 0.49883556 0.30369556 0.30848345 0.59225184 0.41359076 0.718935
0.8679164 0.43016952 0.47862723 0.5161787 0.48026934 0.4422403 0.53164995 0.5159475
0.36308086 0.6132012 0.48998618 0.8998424 0.6193537 0.888272 0.5010458 0.55856246
0.54748267 0.54762864 0.46774676 0.49210784 0.524173 0.47409636 0.525294 0.44311318
0.7324077 0.5038401 0.5854196 0.51663965 0.65573007 0.5345172 0.4181919 0.3983287
0.62960684 0.45708376 0.3867571 0.7825584 0.54137266 0.39017084 0.5209056 0.41021514
0.45832002 0.6323697 0.6350784 0.49874827 0.42501172 0.3216477 0.5869038 0.3542866
00000000: 9000 883f b84c 573f 926f 513f 2307 e53e
00000010: 34fc 003f 5fec 003f 50f3 d23e 8627 293f
00000020: 9cea e13e 9e5e 213f dffa ff3e f000 fd3e
00000030: 7c1c f63e 4134 f73e dd34 123f c92a 1a3f
00000040: 9383 9c3e e52a c73e 19ef 173f 179a 003f
00000050: bbf7 373f 54a0 403f ffc3 113f 9884 083f
00000060: 0dc8 083f d6c2 f33e a342 023f b2d7 143f
00000070: 2f42 1b3f 725f bf3e 1561 163f 5952 243f
00000080: d4ea f13e 16dd e03e 70f1 c73e 0979 063f
00000090: e105 183f eb77 a33e f685 273f edf1 3b3f
000000a0: 61f5 fc3e a4c2 1b3f 8063 063f 4e6a 003f
000000b0: 173d 1e3f a799 db3e 2f1b 003f f18a 923e
000000c0: 089e 253f cf9a 0b3f 9d7f e03e fe8f 483f
000000d0: 0e03 af3e da81 d53e 2f3b 033f 87f2 bf3e
000000e0: 1546 a43e bf1f 5b3f 9086 043f 0c9d ca3e
000000f0: 239f 253f 811b 393f 786a 1a3f 82e1 a73e
00000100: ba55 1b3f 5f1c d93e 1465 133f 5403 f93e
00000110: ac26 3f3f 57f9 d93e 99cc e83e eda4 0a3f
00000120: 0072 233f 8723 073f e165 1b3f 0d14 d23e
00000130: 3137 d93e 7df5 e23e d339 1e3f 3015 e73e
00000140: ea44 fb3e afef 043f c997 133f 3ae7 263f
00000150: c69c 0c3f 5178 173f 7b9a 183f 82cf ed3e
00000160: 1480 1c3f e7f0 193f 63c9 c93e 1ea4 4d3f
00000170: faab bd3e 4699 0f3f 88f5 173f 34da d13e
00000180: ff91 183f f6fc c83e 05f6 fb3e 7fa9 c93e
00000190: c778 313f b8ac 343f 7688 d33e c3a7 183f
000001a0: ab77 bd3e 6348 a93e 5a26 d83e f24e 2a3f
000001b0: bd72 e63e 56e5 1c3f 2fbe f63e a2e6 2f3f
000001c0: 09f2 0e3f fc99 263f 81f6 da3e 2cdf 363f
000001d0: 0c32 0b3f 7481 223f 336c a83e 396b f33e
000001e0: c301 1a3f cf06 de3e 75e3 3b3f 4d11 0a3f
000001f0: 4319 383f 6134 ef3e 2158 e63e 2314 b83e
00000200: 68dd 053f ba46 c23e 7ae6 423f 7ec9 0b3f
00000210: deed 323f 44b8 193f f6d2 2c3f 86af 043f
00000220: f929 5f3f de32 e33e 3ee5 f43e 4eac 663f
00000230: b48b 033f 5bdf 1d3f fab6 fc3e 9fbc 243f
00000240: 919e 273f b4e9 203f 0d5b 123f 7a60 473f
00000250: aeca ec3e 00a9 ea3e cbe5 2d3f b723 203f
00000260: eca8 ce3e c1e7 213f 22ef f43e 8ee1 033f
00000270: 9cea e03e 01bf d83e c8df 3a3f 565c 183f
00000280: 5fea 003f ad7f ea3e 209c ea3e e92c 023f
00000290: 6d3f 033f a0ec 023f 6d48 d63e 7576 2a3f
000002a0: 6aed 213f c7a9 173f 67af dc3e b83b 043f
000002b0: f5f4 143f ac02 3d3f 413a 1b3f 8305 183f
000002c0: 3341 763f a633 183f cee0 0b3f c3e2 093f
000002d0: 1356 013f a331 1a3f ccdd 323f f32d 893f
000002e0: ccda e23e 8667 1c3f eaf2 0f3f ee9c e53e
000002f0: 202a 033f 238a 1a3f 8bde 2a3f 67de e93e
00000300: 42b6 0f3f 5829 023f 0e94 2c3f 7d46 d93e
00000310: c808 e73e 1a40 313f b646 c83e 7b5c e93e
00000320: 568d 173f a67a b93e 6067 ff3e fc7d 9b3e
00000330: 8bf1 9d3e d19d 173f 2bc2 d33e 200c 383f
00000340: c52f 5e3f 2e3f dc3e a10e f53e 4a24 043f
00000350: dde5 f53e 526d e23e 361a 083f 2315 043f
00000360: bce5 b93e c1fa 1c3f 78df fa3e 125c 663f
00000370: f78d 1e3f cb65 633f 8a44 003f f3fd 0e3f
00000380: d327 0c3f 6431 0c3f 817c ef3e 8ff5 fb3e
00000390: 3430 063f c2bc f23e ab79 063f bbdf e23e
000003a0: 127f 3b3f aafb 003f 0fde 153f 7f42 043f
000003b0: eddd 273f 1fd6 083f 401d d63e bdf1 cb3e
000003c0: ea2d 213f e206 ea3e 0705 c63e bf55 483f
000003d0: 6697 0a3f 79c4 c73e 125a 053f b807 d23e
000003e0: eca8 ea3e fbe2 213f 7f94 223f ef5b ff3e
000003f0: 239b d93e 02af a43e 543f 163f 0e65 b53e

model.1.bias f4 [256]
-0.45641792 -0.28501263 -0.29971692 -0.115448676 -0.24153535 -0.3407729 -0.21661857 -0.14713308
-0.22692154 -0.19427738 -0.13685293 -0.34161702 -0.24029522 -0.12428535 -0.36605355 -0.22323315
-0.17759578 -0.1438906 -0.42492414 -0.21661603 -0.2115473 -0.22123213 -0.19431154 -0.14023478
-0.21803792 -0.3395065 -0.03599479 -0.12879907 -0.034717124 -0.16144958 -0.124891 -0.27395108
-0.2155463 -0.28604245 -0.15744594 -0.32474065 -0.018034192 -0.15136558 -0.23386447 0.02577422
-0.16195108 -0.068217084 -0.26725432 -0.10617714 -0.4086015 -0.37870017 -0.14115971 -0.1588006
-0.16802895 -0.42091346 -0.18811747 -0.23266016 -0.10228042 -0.22923353 -0.14334808 -0.09942377
-0.021938125 -0.27776948 -0.14463401 -0.088480555 -0.10426934 -0.25921795 -0.15530802 -0.18393971
-0.20384774 -0.27244997 -0.0693747 -0.120007485 -0.23285845 -0.0902779 -0.054098893 -0.23731257
-0.1919321 -0.1923023 -0.42719594 -0.119547494 -0.12963435 -0.30140662 -0.46351662 -0.33228418
-0.24188395 -0.19203654 -0.08721058 0.05400459 -0.069422975 -0.118333526 -0.38176656 -0.08511241
0.07063308 -0.21712752 -0.1037193 -0.31541845 -0.07669175 -0.34344792 -0.4054171 -0.20062566
-0.3579766 -0.19457571 -0.045677204 -0.10356084 -0.30954963 -0.20713592 -0.09340158 -0.49167082
0.00010526548 -0.14145352 -0.08678428 -0.18182749 -0.15739313 -0.21351708 -0.32319367 -0.20611347
-0.12563202 -0.13672791 -0.15431921 -0.21187694 -0.17571184 0.024532167 -0.10624996 -0.21885972
-0.59172773 -0.23370682 -0.37429336 -0.13483544 -0.11278067 -0.0063216705 -0.15521662 -0.18344934
-0.29648462 -0.039244957 -0.27974564 -0.44508323 -0.18941377 -0.4592483 -0.52133065 -0.17544147
-0.311183 -0.24818954 -0.09796065 -0.36975315 -0.23658438 -0.097835004 -0.34376886 -0.18406206
-0.4713204 -0.06918532 -0.29987362 -0.2537747 -0.2589373 -0.32330567 -0.23878005 -0.38138923
-0.19011346 -0.19979367 -0.3389956 -0.21206605 -0.122413784 -0.047940686 -0.39520863 -0.3704515
-0.25719768 -0.20365691 -0.2129883 -0.012695031 -0.29106167 -0.20034418 -0.3409822 -0.3141522
-0.16523013 -0.014753186 -0.25737637 -0.31433234 -0.19100279 0.032426674 -0.20846985 -0.38461915
-0.3491105 -0.11773755 -0.4668486 -0.12528606 -0.3620859 -0.48200262 0.051268328 -0.46250588
-0.36359012 -0.22056554 -0.37025756 -0.16850188 -0.045258 -0.27460864 -0.19037147 -0.07693638
-0.021427043 -0.25873104 0.04776067 -0.16929163 -0.10916905 -0.18755686 -0.12807566 -0.12270044
-0.19011103 -0.05509399 -0.12995115 -0.22989286 -0.07187926 -0.09822827 -0.20585857 -0.21405736
-0.30419686 -0.082791165 -0.3353581 -0.26941198 -0.318069 -0.27741024 -0.20595405 -0.0869227
-0.15175755 -0.4536913 -0.09469828 -0.33776605 -0.22092424 -0.38227484 -0.28949377 -0.22775477
-0.106594324 -0.219313 -0.15595853 -0.33091554 -0.27728674 -0.26233557 -0.27823183 -0.22708446
-0.22979137 -0.119157255 -0.07267209 -0.38158563 -0.18008377 -0.19415712 -0.12655349 -0.094310336
-0.37659296 -0.20248051 -0.17845698 -0.24061972 -0.36263955 -0.3101353 -0.12317253 -0.28091487
-0.25883472 -0.0939702 -0.63018143 -0.2541312 -0.17644314 -0.16496055 -0.35435376 -0.061061185
00000000: 9caf e9be 2ded 91be 7f74 99be 5b70 ecbd
00000010: 0b55 77be c979 aebe 42d1 5dbe 0eaa 16be
00000020: 1f5e 68be a6f0 46be 2d23 0cbe 6de8 aebe
00000030: f30f 76be 5189 febd 5f6b bbbe 3b97 64be
00000040: abdb 35be 0f58 13be a88f d9be 98d0 5dbe
00000050: db9f 58be ad8a 62be 9bf9 46be b599 0fbe
00000060: 5545 5fbe ccd3 adbe 466f 13bd e7e3 03be
00000070: 8b33 0ebd 0a53 25be dac6 ffbd 5143 8cbe
00000080: 2bb8 5cbe 2874 92be 8239 21be 6844 a6be
00000090: 71bc 93bc 94ff 1abe 2b7a 6fbe 7524 d33c
000000a0: 81d6 25be 66b5 8bbd 8fd5 88be 6673 d9bd
000000b0: 3734 d1be fde4 c1be 2c8c 10be a09c 22be
000000c0: c80f 2cbe f881 d7be dea1 40be 773e 6ebe
000000d0: 6678 d1bd 32bc 6abe d7c9 12be b19e cbbd
000000e0: 95b7 b3bc cd37 8ebe f01a 14be 4b35 b5bd
000000f0: 2a8b d5bd 37b8 84be 1109 1fbe b15a 3cbe
00000100: 76bd 50be 907e 8bbe 5314 8ebd 7cc6 f5bd
00000110: 7272 6ebe 9fe3 b8bd cd96 5dbd 1102 73be
00000120: d989 44be e5ea 44be 6db9 dabe 51d5 f4bd
00000130: debe 04be f851 9abe 0d52 edbe 2721 aabe
00000140: 6db0 77be 3aa5 44be 769b b2bd eb33 5d3d
00000150: a22d 8ebd d958 f2bd e876 c3be 6a4f aebd
00000160: 14a8 903d ad56 5ebe c96a d4bd 877e a1be
00000170: 9010 9dbd 68d8 afbe d592 cfbe d070 4dbe
00000180: b548 b7be db3e 47be 0518 3bbd b517 d4bd
00000190: 4a7d 9ebe 701b 54be 5449 bfbd 47bc fbbe
000001a0: f9c1 dc38 31d9 10be f5bb b1bd fc30 3abe
000001b0: aa2b 21be 39a4 5abe a479 a5be 690f 53be
000001c0: aea5 00be 6702 0cbe db05 1ebe 45f6 58be
000001d0: ceed 33be aff7 c83c 9499 d9bd c31c 60be
000001e0: 787b 17bf d750 6fbe 61a3 bfbe 4d12 0abe
000001f0: 8df9 e6bd 0426 cfbb 1bf1 1ebe 25da 3bbe
00000200: d5cc 97be 52bf 20bd d23a 8fbe f3e1 e3be
00000210: aff5 41be 9822 ebbe ed75 05bf eea6 33be
00000220: 6153 9fbe 6625 7ebe 989f c8bd 4950 bdbe
00000230: 2d43 72be b85d c8bd 7902 b0be c47a 3cbe
00000240: e850 f1be 08b1 8dbd 0989 99be c2ee 81be
00000250: 6e93 84be 5288 a5be c282 74be 7345 c3be
00000260: 1aad 42be b696 4cbe d590 adbe d827 59be
00000270: 14b4 fabd 745d 44bd c958 cabe d2ab bdbe
00000280: 6aaf 83be 708b 50be 9b19 5abe d2fe 4fbc
00000290: 0906 95be 0627 4dbe 3895 aebe 8fd8 a0be
000002a0: 1632 29be 59b7 71bc d6c6 83be 2bf0 a0be
000002b0: 3c96 43be d5d1 043d 1f79 55be cdec c4be
000002c0: 9dbe b2be 6220 f1bd c806 efbe fd4a 00be
000002d0: 5363 b9be 0cc9 f6be bdfe 513d 92cd ecbe
000002e0: 7c28 babe efdb 61be 6692 bdbe c28b 2cbe
000002f0: 7460 39bd 8199 8cbe bdf0 42be d290 9dbd
00000300: c487 afbc 6578 84be b1a0 433d c95a 2dbe
00000310: 0694 dfbd e80e 40be 4426 03be 5e4a fbbd
00000320: 77ac 42be 3caa 61bd ea11 05be 0969 6bbe
00000330: 6f35 93bd e72b c9bd 97cc 52be da31 5bbe
00000340: b1bf 9bbe 6a8e a9bd 0fb4 abbe 5ef0 89be
00000350: f1d9 a2be b708 8ebe 9ee5 52be 8704 b2bd
00000360: 5566 1bbe 3a4a e8be 2cf1 c1bd acef acbe
00000370: f739 62be 87b9 c3be 8738 94be 8c38 69be
00000380: 204e dabd 9693 60be 98b3 1fbe c36d a9be
00000390: 87f8 8dbe d950 86be 6774 8ebe d488 68be
000003a0: 6e4e 6bbe b808 f4bd 1bd5 94bd 315f c3be
000003b0: e167 38be 20d1 46be 3d97 01be c725 c1bd
000003c0: cbd0 c0be 0d57 4fbe 6dbd 36be 0465 76be
000003d0: e4ab b9be 0eca 9ebe e141 fcbd 13d4 8fbe
000003e0: fc85 84be 7373 c0bd 9253 21bf 7c1d 82be
000003f0: 83ad 34be 6beb 28be db6d b5be 4b1b 7abd

model.1.running_mean f4 [256]
0.0032761307 -0.002425175 0.010074529 -0.0059196735 -0.0076363063 0.0037091014 -0.005868371 0.0023066134
-0.007447059 0.009498943 -0.0042213327 -0.005191291 -0.0026222393 -0.0030464244 0.0017514924 -0.0059013027
0.0011782604 5.5187535e-05 -0.004316926 -0.0029348708 0.004588282 -0.0024217588 0.0028666249 0.009534417
-0.00017080338 -0.001643536 0.0071468316 0.0031682425 0.0073070377 0.004772632 -0.0038870394 0.005062054
0.0009039149 0.007739407 -0.0072989874 -0.003934136 0.010485418 -0.006350349 0.0053731077 0.0032114296
0.005115323 -0.007141791 -0.0032665443 -0.0048343525 -0.0030092716 0.0023754104 -0.0007158273 0.0015951524
0.0016206009 -0.0015973792 -0.0053186296 0.0069682645 0.0019169057 -0.0019859252 -0.005387917 -0.0005980045
-0.0003386338 0.0006416319 0.003181892 0.002629789 0.007338615 -0.0038281558 0.0047861915 0.0070563145
0.012156878 -0.0024238229 -0.0040516043 0.0072484906 0.011714183 4.1729963e-05 0.008763911 0.0014162096
0.0052172355 -0.0014888564 0.0023931453 0.00043548545 -0.00012021513 -0.00092198467 -0.0028179255 0.0013945051
-0.0026703088 -0.002809819 0.005079088 0.0034625118 0.0054729492 0.005516406 0.00079914223 -0.0013731621
0.007285185 -0.00080521667 -0.00162367 0.0077470425 -0.0032731716 -0.00026846238 0.0023820756 0.0027005912
-0.008340936 0.0002743364 0.0060312008 -0.0011108071 0.009952867 0.009847776 -0.0008957915 -0.00025040287
0.004847124 -0.0003554838 0.002609687 0.010751133 -0.0035507148 0.011503748 -0.0029622447 0.005090777
-0.0032134468 0.00044639604 0.0031533092 0.0055180453 0.004203056 0.0055204676 0.0018747151 0.006875548
-0.0058763837 0.008550681 0.0009043269 0.0005652841 0.0019260488 -0.0022030452 0.0032364791 -0.00026938223
-0.00934144 0.00220959 0.009069987 0.0002804903 0.006405888 0.003824149 -0.0013579759 0.0060295346
0.0043250425 -0.006489636 -0.002040508 0.011800876 -0.0005319758 0.011058489 0.0015441854 -0.0034442996
-0.008236529 0.00031074794 -0.00800176 0.008385943 0.008398521 0.0047776373 0.0022451414 -0.0031003493
-0.0029020282 0.0052900948 0.0015354388 -0.0055716946 0.0019988448 0.006406875 0.00047487856 -0.006418564
0.00649285 0.0029817913 -0.00031500173 0.005822457 0.0034659558 -0.001570197 -0.004873097 -0.0011721436
-0.0040146317 0.0067914682 -0.00037901956 -0.0019042011 -0.0079759415 0.0022277432 0.008105307 -0.0028825442
0.006351798 0.0054965406 -0.0038378069 -0.0026099707 0.0024072176 0.00047780146 0.004634323 0.0027764728
-0.0018587579 0.0066688955 -0.0064421883 0.0022902074 0.0055545974 -0.0038351598 0.0076309554 0.0007618851
0.009974671 4.9052524e-05 0.004932986 -0.0033842812 0.002707458 -0.0038879828 -0.005403451 -0.0002215348
0.004173637 -0.0042128023 -0.0018487903 0.00077716424 -0.002745936 0.007132624 -0.0034920631 0.009479062
0.0010999803 0.00037749007 0.0011707678 -0.0043252157 -0.0053373035 -0.0050424645 -0.0018265588 0.008313007
-0.0023891206 -0.009289273 0.0019542095 0.01090676 0.010354574 0.010704457 -0.0060944958 0.0040052254
-0.00046719244 -0.0075508677 -0.006340637 -0.0039874343 0.0046863416 -0.0010134181 -0.0021999364 -0.0022409495
0.007633967 0.007971384 0.0047703274 -0.004649037 -0.001463839 0.008012364 -0.0049475553 0.00019943267
0.0012081632 -0.0025247796 -0.0028652379 -0.0030218272 -0.0014164764 -0.0008509221 0.003955388 -0.0019684993
0.0024495767 -0.0033324438 -0.0049778176 0.0036424631 0.0059419125 0.002973195 0.0023552263 -0.0027773539
00000000: 5ab4 563b afef 1ebb a30f 253c d2f9 c1bb
00000010: fb39 fabb 6514 733b 774b c0bb 8d2a 173b
00000020: 7506 f4bb 74a1 1b3c 1b53 8abb b51b aabb
00000030: e0d9 2bbb 85a6 47bb 5592 e53a b75f c1bb
00000040: dc6f 9a3a 2a79 6738 0075 8dbb f656 40bb
00000050: 4d59 963b 5fb6 1ebb fcdd 3b3b 3e36 1c3c
00000060: af19 33b9 eb6b d7ba f82f ea3b 4aa2 4f3b
00000070: e06f ef3b bd63 9c3b b3bd 7ebb 96df a53b
00000080: b4f4 6c3a da9a fd3b 582c efbb ede9 80bb
00000090: 08cb 2b3c 9716 d0bb e510 b03b d976 523b
000000a0: 709e a73b af05 eabb 8513 56bb 7d69 9ebb
000000b0: 3337 45bb c6ac 1b3b 5ba6 3bba 6f14 d13a
000000c0: 586a d43a 275f d1ba e647 aebb 0a56 e43b
000000d0: af40 fb3a 4c26 02bb 208d b0bb 67c3 1cba
000000e0: a98a b1b9 3033 283a 4a87 503b 8a58 2c3b
000000f0: c478 f03b cce1 7abb 7cd5 9c3b a838 e73b
00000100: a42d 473c 00d9 1ebb 52c3 84bb bf84 ed3b
00000110: d8ec 3f3c 3507 2f38 8296 0f3c 1ca0 b93a
00000120: 58f5 aa3b bb25 c3ba 51d6 1c3b de51 e439
00000130: 021c fcb8 58b1 71ba f2ac 38bb d4c7 b63a
00000140: 5900 2fbb f124 38bb 7a6e a63b 4feb 623b
00000150: 6d56 b33b f8c2 b43b 877d 513a adfb b3ba
00000160: 90b8 ee3b 2d15 53ba 53d1 d4ba e7da fd3b
00000170: b582 56bb 69c0 8cb9 991c 1c3b 67fc 303b
00000180: 6ca8 08bc cfd4 8f39 61a1 c53b 8098 91ba
00000190: 5a11 233c 9158 213c 8dd3 6aba 8148 83b9
000001a0: a0d4 9e3b 3a60 bab9 4807 2b3b 8525 303c
000001b0: 1cb3 68bb 377a 3c3c 3822 42bb 88d0 a63b
000001c0: b198 52bb 430a ea39 c0a7 4e3b b8d0 b43b
000001d0: cab9 893b 0ae5 b43b 00b9 f53a 474c e13b
000001e0: ae8e c0bb 2818 0c3c 5a10 6d3a 932f 143a
000001f0: 7973 fc3a f760 10bb 1c1b 543b df3b 8db9
00000200: d70c 19bc c5ce 103b 489a 143c c50e 9339
00000210: 7ce8 d13b 939e 7a3b 1cfe b1ba 6793 c53b
00000220: 16b9 8d3b 03a7 d4bb 0bba 05bb 7658 413c
00000230: 4b74 0bba aa2e 353c 4466 ca3a c2b9 61bb
00000240: 82f2 06bc e2eb a239 d019 03bc 3265 093c
00000250: f399 093c ba8d 9c3b 3923 133b 3b2f 4bbb
00000260: f42f 3ebb 8858 ad3b c740 c93a c392 b6bb
00000270: 0dff 023b c3f0 d13b 1ff9 f839 d152 d2bb
00000280: f9c1 d43b 286a 433b d126 a5b9 4fca be3b
00000290: 1725 633b 12cf cdba 80ae 9fbb 9da2 99ba
000002a0: 2c8d 83bb f78a de3b 25b7 c6b9 6396 f9ba
000002b0: 86ad 02bc 54ff 113b 1fcc 043c 11e9 3cbb
000002c0: be22 d03b 531c b43b b783 7bbb 0b0c 2bbb
000002d0: 69c2 1d3b 6d81 fa39 85db 973b 7cf5 353b
000002e0: 91a1 f3ba c086 da3b fe18 d3bb 4e17 163b
000002f0: 5703 b63b 4e57 7bbb 180d fa3b 3eb9 473a
00000300: cd6c 233c bfbd 4d38 e3a4 a13b d1ca 5dbb
00000310: 9c6f 313b 87cd 7ebb 6f0f b1bb cc4b 68b9
00000320: 01c3 883b 8c0b 8abb 1c53 f2ba 9cba 4b3a
00000330: 29f5 33bb c9b8 e93b 19db 64bb 114e 1b3c
00000340: 372d 903a dce9 c539 7374 993a 8aba 8dbb
00000350: 8ce4 aebb 423b a5bb 2569 efba 4733 083c
00000360: cb92 1cbb 0932 18bc 3212 003b 44b2 323c
00000370: 3ba6 293c bf61 2f3c 56b4 c7bb 443e 833b
00000380: 82f1 f4b9 456d f7bb 1ec5 cfbb 06a9 82bb
00000390: e28f 993b abd4 84ba cf2c 10bb e5dc 12bb
000003a0: 5b26 fa3b 689a 023c 6850 9c3b f356 98bb
000003b0: 49de bfba 4a46 033c 1a1f a2bb cd1e 5139
000003c0: 3b5b 9e3a c676 25bb b7c6 3bbb d909 46bb
000003d0: 10a9 b9ba 6a10 5fba 339c 813b f001 01bb
000003e0: 1489 203b 2165 5abb f61c a3bb 64b6 6e3b
000003f0: 60b4 c23b efd9 423b 245a 1a3b 4404 36bb

model.1.running_var f4 [256]
0.2225472 0.1584359 0.58745855 0.1483417 0.2441339 0.29004344 0.14447072 0.23181322
0.22409041 0.5750276 0.19017212 0.18858908 0.19044729 0.17411546 0.30199048 0.24536234
0.10659812 0.13719633 0.26374537 0.1281205 0.45551687 0.17783582 0.28670877 0.45855948
0.13608642 0.19566175 0.38627443 0.32395566 0.484081 0.11847038 0.19376832 0.2714109
0.12447427 0.19587529 0.12713629 0.17713846 0.56849927 0.10671066 0.33262628 0.4729045
0.17589791 0.30456153 0.18356366 0.2500581 0.29582766 0.204033 0.10569401 0.0944281
0.16408363 0.2352973 0.20161363 0.5258763 0.18632536 0.17966008 0.119077966 0.1275613
0.17971385 0.09382289 0.12607366 0.23772596 0.47406298 0.26217082 0.38139206 0.12852266
0.65029573 0.07526468 0.23028538 0.26039487 0.8430545 0.09240879 0.31477684 0.15740609
0.37094256 0.14757259 0.20786706 0.13169055 0.14068751 0.14239356 0.2174639 0.26061848
0.16697405 0.24217089 0.3557366 0.2437557 0.32680115 0.53014517 0.1615448 0.08601499
0.5003864 0.15637681 0.23214942 0.522424 0.14149758 0.23923752 0.15301716 0.23922706
0.31437665 0.109274186 0.21150057 0.11915415 0.615959 0.8935985 0.18531229 0.21055886
0.20816033 0.09418342 0.21350604 0.7275462 0.16834863 0.55573404 0.24501017 0.37935838
0.20836584 0.21506685 0.1585577 0.36881515 0.35956594 0.5133932 0.14012975 0.23226233
0.32164058 0.19859639 0.17831755 0.08266066 0.12130082 0.19788459 0.21255943 0.13452353
0.351335 0.22830524 0.601405 0.13759707 0.43956628 0.30630952 0.22067857 0.1656798
0.3493096 0.18860829 0.1860588 0.82440627 0.13785468 0.45455992 0.18834306 0.21694727
0.2763469 0.12912911 0.29458964 0.5771048 0.2340762 0.29083133 0.17198633 0.26571414
0.15790041 0.42057732 0.1964835 0.19477929 0.17057234 0.30839315 0.044690184 0.24580808
0.23755361 0.12898265 0.25226888 0.28027806 0.04951814 0.15691862 0.20093049 0.16910769
0.22940226 0.47828278 0.1985029 0.2920281 0.23136073 0.18154578 0.4941787 0.18352953
0.5789577 0.30853838 0.2392108 0.14650807 0.18730132 0.102967285 0.40313032 0.18170941
0.19024354 0.44254848 0.22410141 0.21439928 0.33803844 0.19177474 0.5792251 0.25556207
0.42763904 0.15746738 0.34322163 0.2228337 0.18522193 0.23615502 0.13156787 0.12987532
0.19306383 0.12248341 0.1908826 0.19046283 0.22109424 0.28216496 0.11098048 0.5955909
0.13023005 0.2225166 0.17402387 0.26180017 0.23955056 0.22735114 0.16989718 0.3570634
0.13086122 0.33035675 0.15640946 0.88749737 0.52023286 0.6464242 0.21507058 0.32286823
0.13755488 0.18701948 0.11333448 0.23910874 0.32311848 0.150084 0.08566107 0.13246387
0.552235 0.33236727 0.41539446 0.23340835 0.09916624 0.33904898 0.20027618 0.18229666
0.028883887 0.16257995 0.22807883 0.21762574 0.23429695 0.24118495 0.34173 0.1232721
0.10799883 0.1894859 0.22710453 0.1599024 0.18995003 0.1524678 0.11325402 0.11000918
00000000: 6ae3 633e 053d 223e af63 163f e3e6 173e
00000010: 3dfe 793e 9380 943e 22f0 133e 7260 6d3e
00000020: f577 653e 0235 133f 7bbc 423e 7f1d 413e
00000030: 9d04 433e 534b 323e 7f9e 9a3e 4440 7b3e
00000040: 1d50 da3d 327d 0c3e a209 873e 0532 033e
00000050: 8239 e93e 981a 363e 7ecb 923e 4fc8 ea3e
00000060: 3d5a 0b3e 8e5b 483e c3c5 c53e 84dd a53e
00000070: 77d9 f73e 99a0 f23d 346b 463e 5ff6 8a3e
00000080: 5eec fe3d 8893 483e 0430 023e c963 353e
00000090: 2b89 113f 1e8b da3d fe4d aa3e 8a20 f23e
000000a0: 951e 343e 7def 9b3e 1df8 3b3e 9e07 803e
000000b0: b976 973e 07ee 503e 1a76 d83d 8563 c13d
000000c0: 8a05 283e c7f1 703e ce73 4e3e d49f 063f
000000d0: 13cc 3e3e d0f8 373e 26df f33d 6e9f 023e
000000e0: e806 383e 3726 c03d 7419 013e 6f6e 733e
000000f0: 62b8 f23e 413b 863e d245 c33e 729b 033e
00000100: c879 263f 5e24 9a3d eecf 6b3e 7a52 853e
00000110: 6bd2 573f d240 bd3d 6e2a a13e 102f 213e
00000120: 2fec bd3e 451d 173e 1adb 543e e3d9 063e
00000130: 6310 103e 9ecf 113e dbae 5e3e c96f 853e
00000140: 3ffb 2a3e a5fb 773e 1c23 b63e 189b 793e
00000150: 7b52 a73e 98b7 073f 006c 253e a128 b03d
00000160: 5319 003f 3e21 203e 94b8 6d3e 94bd 053f
00000170: bee4 103e aefa 743e 88b0 1c3e f0f7 743e
00000180: faf5 a03e 25cb df3d 9b93 583e 1707 f43d
00000190: 7daf 1d3f dfc2 643f 81c2 3d3e be9c 573e
000001a0: fb27 553e 3de3 c03d 54a1 5a3e 7840 3a3f
000001b0: 9563 2c3e 9644 0e3f f2e3 7a3e 433b c23e
000001c0: db5d 553e 7c3a 5c3e f35c 223e 57d5 bc3e
000001d0: 0719 b83e bd6d 033f 2c7e 0f3e 2dd6 6d3e
000001e0: 13ae a43e da5c 4b3e e098 363e fe49 a93d
000001f0: 906c f83d 42a2 4a3e 2ea9 593e 89c0 093e
00000200: 2ee2 b33e d9c8 693e aef5 193f 3fe6 0c3e
00000210: d50e e13e 9ad4 9c3e 90f9 613e f7a7 293e
00000220: b5d8 b23e 8822 413e 3386 3e3e 4a0c 533f
00000230: c729 0d3e 14bc e83e 01dd 403e 6d27 5e3e
00000240: 577d 8d3e 6c3a 043e 74d4 963e 24bd 133f
00000250: acb1 6f3e d8e7 943e 2f1d 303e af0b 883e
00000260: a5b0 213e e955 d73e f832 493e 3974 473e
00000270: 84aa 2e3e b5e5 9d3e 0e0d 373d 1db5 7b3e
00000280: 4141 733e 0714 043e 6329 813e 9b80 8f3e
00000290: 88d3 4a3d 46af 203e b9c0 4d3e 912a 2d3e
000002a0: 6de8 6a3e 7be1 f43e 5844 4b3e b584 953e
000002b0: d4e9 6c3e 23e7 393e fe04 fd3e 2aef 3b3e
000002c0: 9236 143f bef8 9d3e adf3 743e 3606 163e
000002d0: ebcb 3f3e 83e0 d23d 1967 ce3e 0812 3a3e
000002e0: 34cf 423e b795 e23e d77a 653e 7c8b 5b3e
000002f0: 6013 ad3e 9960 443e 1948 143f 08d9 823e
00000300: 81f3 da3e 213f 213e bfba af3e 842e 643e
00000310: d1aa 3d3e 9fd2 713e bab9 063e 09fe 043e
00000320: 86b2 453e 95d8 fa3d ba76 433e b008 433e
00000330: 8766 623e ed77 903e bc49 e33d a578 183f
00000340: 075b 053e 64db 633e 5033 323e ac0a 863e
00000350: be4c 753e bdce 683e 87f9 2d3e 04d1 b63e
00000360: 7c00 063e 8524 a93e cd29 203e 0733 633f
00000370: fb2d 053f 0e7c 253f 763b 5c3e fc4e a53e
00000380: 30db 0c3e 0982 3f3e e81b e83d ecd8 743e
00000390: c96f a53e 9faf 193e 126f af3d 9ca4 073e
000003a0: 465f 0d3f 0b2c aa3e 95ae d43e 9902 6f3e
000003b0: ab17 cb3d d497 ad3e 3315 4d3e faab 3a3e
000003c0: e79d ec3c 5c7b 263e 7f8d 693e 48d9 5e3e
000003d0: 8aeb 6f3e 30f9 763e 3cf7 ae3e 1576 fc3d
000003e0: 7e2e dd3d 9708 423e 178e 683e 74bd 233e
000003f0: 4382 423e 8520 1c3e b9f1 e73d 7e4c e13d

model.4.weight f4 [128, 256]
0.18507586 0.03847188 0.08790143 -0.03596195 -0.07618464 -0.11924157 0.034788713 0.029994924
-0.0061421287 0.013349464 0.02869587 -0.11869057 -0.044679414 -0.058886535 -0.09239552 -0.022326441
-0.03737113 0.0300278 -0.20234473 -0.009288154 0.037442986 0.033968836 0.058679204 0.06363899
-0.09389271 -0.008460404 -0.024460917 0.0966866 0.030427014 0.031510673 -0.011101705 -0.015408259
0.022701683 -0.036493983 0.012762422 0.008161098 0.011990355 -0.007663091 0.09591203 0.014955701
0.08811595 -0.037560042 -0.002018309 0.0020540578 -0.1855318 -0.105822064 0.07818904 0.04161778
-0.03246916 0.0068580387 0.036949437 0.13047011 0.021505909 0.0589461 0.012610422 0.031777203
0.015692426 0.13682115 0.023487518 0.03604415 -0.015273573 -0.0007428777 -0.020334387 0.015153853
0.06503548 0.09688159 -0.025857754 0.012730943 0.058715302 0.096100315 0.076682426 -0.015136754
0.09298929 -0.037740454 -0.05903057 -0.0025936863 0.03805162 0.02831174 0.04695779 -0.014029218
0.060617883 0.024566783 0.039438024 0.018376287 -0.030219676 0.0014998589 -0.107763514 0.0131074255
-0.0050350535 -0.013387466 0.01187418 0.11637768 0.006717309 -0.054109946 -0.16686048 -0.0920144
-0.11210792 0.05647503 0.043419726 -0.022989897 -0.007808489 0.059754767 -0.014337738 0.03518554
0.030322475 -0.036395118 0.010140069 0.030491412 0.083305396 0.080290444 0.023597078 0.11510035
0.016399736 0.009631891 0.02579987 0.06773749 0.061886232 -0.027744347 0.03841658 0.06946137
-0.10802408 0.03668114 0.066074826 0.0060339887 0.0186974 -0.012526146 0.048492957 -0.052262258
-0.099287994 0.038951334 0.04493938 -0.14358489 -0.019322904 -0.13915493 0.043487888 0.04995091
0.12882419 -0.01350212 0.037889894 0.12085078 0.09164064 0.043058407 0.01415586 0.040283155
-0.11522605 0.016158517 0.034499656 0.05870039 -0.13340913 -0.07771948 0.12015955 0.044014778
0.030225435 0.064133346 -0.009205987 0.010045927 0.05574273 0.043199092 0.017382327 -0.1755371
-0.09919555 0.08163345 0.03449821 -0.038139567 0.12075621 0.049052898 0.018071556 0.10430861
0.018930713 -0.015861396 -0.020663843 0.029104045 0.030019728 0.008730806 0.08352142 -0.22121345
0.11311547 -0.005081204 -0.12709303 0.010824002 -0.111805595 0.020386232 -0.014142698 0.16434109
-0.09640279 0.02403236 -0.055030987 0.072837844 0.03051231 0.060580663 0.011253338 0.03501032
0.06965551 0.040560216 0.03201534 -0.038427968 -0.060178474 0.052290272 -0.024057087 -0.04837267
0.1094534 -0.013036176 0.022947045 0.008964251 0.014109417 0.056191873 -0.10753884 0.07731401
0.120118655 -0.0058921655 -0.090653196 -0.034661606 -0.03434727 -0.073917374 0.028036218 0.016352957
-0.025882026 -0.10890153 -0.09351198 0.08031738 0.13377552 0.06243278 0.0055049728 0.02077093
0.0070418934 0.03630551 0.026638385 0.046603262 -0.06572958 -0.047184084 0.11097411 -0.029856803
0.044783365 0.000752349 0.027494026 -0.04743625 0.05544612 0.024295498 -0.042235203 0.06467129
0.05121941 0.050807662 0.014532447 0.021476721 0.047361188 0.060929894 0.051672418 0.04229227
0.01053581 0.03177542 -0.13721722 0.12423775 0.0062776315 0.018799407 -0.0015707929 0.015252822
00000000: 8784 3d3e b194 1d3d aa05 b43d d64c 13bd
00000010: b106 9cbd ed34 f4bd 9c7e 0e3d eab7 f53c
00000020: e943 c9bb b6b7 5a3c 9a13 eb3c 0b14 f3bd
00000030: c301 37bd 0233 71bd dd39 bdbd f1e5 b6bc
00000040: 7812 19bd dcfc f53c 7533 4fbe 572d 18bc
00000050: d15d 193d e822 0b3d 9b59 703d 2955 823d
00000060: d24a c0bd 829d 0abc 4362 c8bc a003 c63d
00000070: 1342 f93c 5611 013d ede3 35bc ec72 7cbc
00000080: e1f8 b93c b77a 15bd 7a19 513c 20b6 053c
00000090: 3273 443c ab1a fbbb 876d c43d c208 753c
000000a0: 2376 b43d 8fd8 19bd 9b45 04bb 5f9d 063b
000000b0: 0cfc 3dbe 3db9 d8bd 9321 a03d 6877 2a3d
000000c0: 62fe 04bd 66b9 e03b 4b58 173d f599 053e
000000d0: 292d b03c 7771 713d f29b 4e3c d028 023d
000000e0: 678d 803c d81a 0c3e e568 c03c 08a3 133d
000000f0: 023e 7abc aebd 42ba 4d94 a6bc de47 783c
00000100: 5231 853d db69 c63d a4d3 d3bc 7295 503c
00000110: 757f 703d 3ed0 c43d ad0b 9d3d 2600 78bc
00000120: 2b71 be3d bc95 1abd 0aca 71bd d6fa 29bb
00000130: 04dc 1b3d 06ee e73c d056 403d ceda 65bc
00000140: 754a 783d 4740 c93c c489 213d de89 963c
00000150: 418f f7bc ea96 c43a 1eb3 dcbd 87c0 563c
00000160: 17fd a4bb 1a57 5bbc ec8b 423c 6c57 ee3d
00000170: df1c dc3b 64a2 5dbd 79dd 2abe 0c72 bcbd
00000180: d698 e5bd 5c52 673d e2d8 313d 4f55 bcbc
00000190: 5ade ffbb 6ac1 743d d5e8 6abc b61e 103d
000001a0: d766 f83c 0c13 15bd 8822 263c 20c9 f93c
000001b0: 059c aa3d 516f a43d a94e c13c bbb9 eb3d
000001c0: bd58 863c 14cf 1d3c 405a d33c f4b9 8a3d
000001d0: 6b7c 7d3d 1d48 e3bc b45a 1d3d c341 8e3d
000001e0: bb3b ddbd f73e 163d 3d52 873d c4b8 c53b
000001f0: 4a2b 993c 773a 4dbc 8da0 463d f310 56bd
00000200: 8157 cbbd 6f8b 1f3d 5b12 383d eb07 13be
00000210: 114b 9ebc a17e 0ebe 5b20 323d 5399 4c3d
00000220: 7dea 033e ff37 5dbc 6f32 1b3d 9d80 f73d
00000230: 16ae bb3d 035e 303d fbed 673c f3ff 243d
00000240: a3fb ebbd de5e 843c 834f 0d3d d26f 703d
00000250: 679c 08be 642b 9fbd 3616 f63d d748 343d
00000260: 559b f73c 5858 833d b5d4 16bc ac97 243c
00000270: 7d52 643d 88f1 303d 6265 8e3c ffbf 33be
00000280: 0927 cbbd 702f a73d ff4d 0d3d 3c38 1cbd
00000290: 084f f73d b1eb 483d cd0a 943c c19f d53d
000002a0: 9514 9b3c c2ef 81bc 3847 a9bc 9b6b ee3c
000002b0: efeb f53c a80b 0f3c 470d ab3d c785 62be
000002c0: 15a9 e73d 3b80 a6bb ad24 02be 2857 313c
000002d0: 55fa e4bd 0701 a73c c6b6 67bc 0849 283e
000002e0: d36e c5bd 83df c43c 2c68 61bd 022c 953d
000002f0: f4f4 f93c 6e23 783d ec5f 383c fb66 0f3d
00000300: 8ca7 8e3d 7822 263d 8422 033d a566 1dbd
00000310: b47d 76bd 532e 563d 5e13 c5bc 6c22 46bd
00000320: 1b29 e03d af95 55bc 71fb bb3c cbde 123c
00000330: 2f2b 673c 7329 663d 533d dcbd cf56 9e3d
00000340: c500 f63d 1113 c1bb 62a8 b9bd 54f9 0dbd
00000350: b9af 0cbd fe61 97bd 36ac e53c a3f6 853c
00000360: 8b06 d4bc c407 dfbd 3583 bfbd 707d a43d
00000370: 73fc 083e 84b9 7f3d 0f63 b43b cc27 aa3c
00000380: afbf e63b 16b5 143d be38 da3c 10e3 3e3d
00000390: 3b9d 86bd 1944 41bd 6546 e33d 4196 f4bc
000003a0: c36e 373d 4939 453a 273b e13c 834c 42bd
000003b0: 791b 633d 5a07 c73c d2fe 2cbd 6272 843d
000003c0: 72cb 513d b21b 503d 8019 6e3c f3ef af3c
000003d0: cefd 413d a091 793d 75a6 533d a93a 2d3d
000003e0: 649e 2c3c f126 023d ac82 0cbe 5d70 fe3d
000003f0: 97b4 cd3b 3701 9a3c 10e3 cdba f9e6 793c

model.4.bias f4 [128]
1.29181e-07 -1.7288504e-06 5.802215e-07 1.868699e-06 3.5165908e-07 1.585354e-07 1.3991058e-07 -7.882294e-07
-9.824391e-07 -2.786036e-06 1.014386e-06 -5.722166e-07 -1.3659889e-06 -6.934432e-07 -7.092402e-07 6.559198e-07
-4.0440323e-08 8.435166e-07 1.7232489e-06 9.477171e-08 3.068687e-06 -1.3053906e-06 9.0705566e-07 7.7862956e-07
-8.188605e-07 6.304482e-07 6.237559e-07 -1.5332464e-08 -4.998651e-07 -1.9678563e-07 8.2942404e-07 -2.5240006e-06
7.914259e-07 -1.0681507e-08 8.5185087e-07 -6.780335e-07 4.605152e-07 -5.1888605e-08 -1.271631e-06 -9.622914e-08
-5.8597067e-07 -3.6695822e-06 1.4964471e-06 -5.77872e-06 1.7156316e-06 -2.3239387e-07 -3.4177236e-07 1.6020164e-06
-2.1067974e-06 -8.510104e-07 -1.9354247e-06 -2.430754e-06 -1.2447067e-06 -1.2722563e-06 -2.2754763e-07 3.4625822e-07
1.8877056e-06 3.135424e-08 -7.0842987e-07 2.7172464e-07 -3.846444e-06 2.8159442e-07 2.5918312e-06 2.1042438e-06
6.1515095e-07 -3.4792606e-07 3.770776e-07 7.509091e-07 1.6614653e-06 -4.9782e-07 -4.8261325e-07 -5.206806e-07
1.7924533e-07 7.869304e-07 -3.1408211e-07 -5.1937207e-07 -1.3696155e-06 -1.2109622e-07 -2.3634698e-07 7.4050337e-07
-4.5103207e-07 4.072596e-07 -9.620505e-07 -4.070479e-08 -3.022402e-07 -1.3936066e-06 1.4546752e-07 -2.9510247e-07
5.6053034e-07 1.0465745e-06 -1.2470742e-06 -2.0373174e-07 1.6395167e-06 -2.0537729e-07 -1.1907521e-06 2.4445628e-08
1.3682143e-06 -1.0158878e-06 1.8202479e-06 3.0615333e-06 -2.1532333e-06 1.5890507e-06 -3.1698107e-07 -2.6750044e-07
1.8866083e-06 -5.2643e-07 2.2412743e-07 -6.436691e-07 -1.5924043e-06 1.2218925e-06 -6.434674e-07 -1.85558e-07
1.6316262e-06 6.628952e-07 -8.3053163e-07 1.1395568e-06 -4.1652842e-07 -9.519312e-07 -3.628883e-07 -2.8794977e-07
-1.0409638e-06 -7.4672573e-07 8.654745e-07 -4.4576245e-07 -2.0344676e-06 -3.1054486e-07 -1.249345e-06 5.92271e-07
00000000: 01b5 0a34 d90a e8b5 85c0 1b35 02d0 fa35
00000010: a8cb bc34 e139 2a34 543a 1634 b696 53b5
00000020: 5adc 83b5 bcf7 3ab6 0a26 8835 6d9a 19b5
00000030: 0557 b7b5 0e25 3ab5 9e62 3eb5 7712 3035
00000040: 9bb0 2db3 056e 6235 624a e735 4c85 cb33
00000050: a4ef 4d36 e134 afb5 647c 7335 0403 5135
00000060: aacf 5bb5 123c 2935 2e70 2735 72b4 83b2
00000070: 782e 06b5 064c 53b4 96a5 5e35 0062 29b6
00000080: 6072 5435 c481 37b2 bfaa 6435 1b02 36b5
00000090: ba3c f734 20dc 5eb3 e9ac aab5 87a6 ceb3
000000a0: 994b 1db5 f142 76b6 88d9 c835 d4e6 c1b6
000000b0: a744 e635 f187 79b4 d67c b7b4 dd04 d735
000000c0: 8162 0db6 fd70 64b5 58e2 01b6 0920 23b6
000000d0: cc0f a7b5 65c2 aab5 d153 74b4 5ee5 b934
000000e0: 125d fd35 5aaa 0633 ee2a 3eb5 8de1 9134
000000f0: b410 81b6 0b2e 9734 52ef 2d36 a236 0d36
00000100: da20 2535 98ca bab4 2771 ca34 1592 4935
00000110: 83ff de35 eea1 05b5 ee8c 01b5 e6c4 0bb5
00000120: 9576 4034 723d 5335 1e9f a8b4 fa6a 0bb5
00000130: a1d3 b7b5 ad06 02b4 90c6 7db4 01c7 4635
00000140: 6025 f2b4 55a5 da34 ce1f 81b5 64d3 2eb3
00000150: 9443 a2b4 f50b bbb5 cf31 1c34 936e 9eb4
00000160: 5a77 1635 0778 8c35 2561 a7b5 5bc1 5ab4
00000170: 5d0d dc35 ae85 5cb4 eed1 9fb5 81fc d132
00000180: 7ca3 b735 a459 88b5 3e4f f435 be74 4d36
00000190: 4480 10b6 5e47 d535 8c2d aab4 fb9c 8fb4
000001a0: 5e37 fd35 fe4f 0db5 aea7 7034 9bc8 2cb5
000001b0: 98ba d5b5 e8ff a335 beba 2cb5 cb3d 47b4
000001c0: 40fe da35 d0f1 3135 b3f1 5eb5 e0f2 9835
000001d0: 3b9f dfb4 3788 7fb5 fdd2 c2b4 8497 9ab4
000001e0: 3eb7 8bb5 9a72 48b5 f452 6835 2051 efb4
000001f0: e387 08b6 f6b8 a6b4 2baf a7b5 8efc 1e35
