back_end/model/fraud_model.pth (torch, 191186 bytes, 19 tensors)

model.0.weight f4 [256, 10]
0	0x3caaf1ac	0.020867191
1	0x3ca5eb26	0.02025373
2	0x3c25e58c	0.010125529
3	0xbdbc92fe	-0.09207724
4	0xbd30be6c	-0.04315035
5	0x3d8e617c	0.069521874
6	0xbd3a1df9	-0.04543874
7	0x3ddbaaad	0.10725913
8	0x3eaed671	0.3414798
9	0x3e1619e3	0.14658312
10	0x3b6be39c	0.003599382
11	0x3e20916a	0.15680471
12	0x3d797dac	0.060910866
13	0x3eb762db	0.35817608
14	0x3cfa5350	0.030557305
15	0x393e31fc	0.00018138433
16	0x3d7dbfda	0.061950542
17	0xbe4e7eee	-0.20165607
18	0xbe3827e0	-0.17983961
19	0x3ca6afbc	0.020347469
20	0xbf0e2b9d	-0.555353
21	0x3c995776	0.018718462
22	0xbb2c926c	-0.0026332391
23	0x3c1c0451	0.0095225135
24	0xbb27aaec	-0.0025584055
25	0xbc597e9e	-0.013274817
26	0xbea18e8d	-0.3155407
27	0x3cc1d53c	0.023661248
28	0x3caa8a50	0.020817906
29	0x3bc343a2	0.00595899
30	0xbe079488	-0.13240254
31	0x3d86a0ff	0.06573676
32	0x3d148661	0.036260966
33	0x3d11f8b7	0.035637584
34	0xbd5a7ce2	-0.053341754
35	0xbc04a75b	-0.008096541
36	0xbe625845	-0.22103985
37	0xbec1ef35	-0.37877813
38	0x3e05430e	0.1301386
39	0xbd344b97	-0.0440174
40	0xbd757996	-0.059930407
41	0x3cc2b3b0	0.023767322
42	0xbbcacac8	-0.006188724
43	0xbc18ac14	-0.00931837
44	0x3c90b942	0.017666463
45	0xbd6eb8bb	-0.05828164
46	0x3e71be74	0.23607808
47	0xbd55b554	-0.05217488
48	0xbbea442a	-0.007149239
49	0xbea98d0d	-0.33115426
50	0xbe271129	-0.1631514
51	0xbc8bde8e	-0.017073896
52	0xbc2869bd	-0.010279116
53	0xbc7bc280	-0.015366197
54	0x3e3b4cdb	0.18291037
55	0xbe4b9446	-0.1988078
56	0x3c2931de	0.010326831
57	0x3e4a3a25	0.19748743
58	0x3a844cbd	0.001009367
59	0xbdff8b95	-0.12477795
60	0xbdba3950	-0.09092963
61	0xbeac2250	-0.33619928
62	0xbd68bf83	-0.056823265
63	0x3d1d9d6b	0.038480204
64	0xbd106022	-0.03524793
65	0x3a1fa069	0.00060892716
66	0x3e283a27	0.16428433
67	0x3dddcec5	0.10830454
68	0x3db4f1ad	0.088351585
69	0xbcd25c1c	-0.025678687
70	0xbd1270f9	-0.03575227
71	0x3e5c47e9	0.21511807
72	0xbdbbd772	-0.09171952
73	0xbe529a09	-0.20566572
74	0xbda100b9	-0.07861466
75	0x3d20fd81	0.03930426
76	0x3d6bc85a	0.057564117
77	0xbddf6305	-0.10907558
78	0xbce2d020	-0.027687132
79	0xbe551caa	-0.20811716
80	0x3e4abfda	0.19799748
81	0x3c9cc139	0.019135104
82	0xbbec4c24	-0.007211225
83	0x3c4c2676	0.012460342
84	0x3b9ef4bf	0.0048509534
85	0x3b753d50	0.0037420578
86	0x3d8a8461	0.067635305
87	0xbece0d0e	-0.40244335
88	0x3c15fe8c	0.009154927
89	0x3c1a79b4	0.00942843
90	0x3dbe0830	0.092789054
91	0x3e5d155c	0.21590179
92	0x3d59a54c	0.053136155
93	0x3c6375ac	0.013883036
94	0xbd395cb9	-0.045254443
95	0xbdf86793	-0.1212913
96	0x3da634c5	0.08115534
97	0xbe845a74	-0.2585026
98	0x3dc4a635	0.09602014
99	0x3d27e5cf	0.040990647
100	0xbdcdb7fa	-0.10044856
101	0x3efc311b	0.49256214
102	0x3cdb198c	0.02674558
103	0x3c6d863a	0.014497334
104	0xbc8901f8	-0.016724572
105	0x3c68cec8	0.014209457
106	0x3ea5f704	0.3241502
107	0x3c996486	0.018724691
108	0xbd120a1b	-0.03565417
109	0xbd68026c	-0.056642935
110	0xbf38382c	-0.7196071
111	0x3b818788	0.003952924
112	0x3a5fe2e0	0.0008540582
113	0xbb28fa0c	-0.0025783805
114	0x3b5738b0	0.0032840185
115	0x3b5e43bb	0.0033914882
116	0x3e416ae8	0.18888438
117	0xbc519e00	-0.012794018
118	0xbbca493a	-0.00617328
119	0x3c1ee1d7	0.009697399
120	0xbeb1254b	-0.34598765
121	0xbd8a4621	-0.06751657
122	0xbba8a89c	-0.005147053
123	0xbd2c2c3a	-0.042034365
124	0x3aa2a265	0.0012408016
125	0xbb064cee	-0.002049263
126	0x3df4c4cf	0.11951601
127	0xbe0e600d	-0.13903828
128	0xbdd31074	-0.103058726
129	0x3c11e1c3	0.008903923
130	0xbde9b8c1	-0.11412192
131	0x3d2572da	0.040392734
132	0xbd27b426	-0.040943287
133	0x3d41cf8f	0.047317084
134	0x3ca3d7c8	0.020000353
135	0xbc25b375	-0.010113587
136	0xbe32870c	-0.17434329
137	0xbe9ecb6d	-0.31014577
138	0x3cb9e2c3	0.022691136
139	0x3cee8b16	0.029119056
140	0x3dd8c0ad	0.10583625
141	0x3d960038	0.073242605
142	0xbdf4a332	-0.119451895
143	0x3ca6b765	0.020351121
144	0xbd96eb7b	-0.07369133
145	0xbdcfd865	-0.10148696
146	0x3dc38209	0.095462866
147	0x3e82d3a0	0.25552082
148	0xbd122919	-0.035683725
149	0xbd2b5510	-0.04182917
150	0xbed40ad8	-0.41414523
151	0x3cd912c9	0.026498215
152	0xbb4f795a	-0.0031658025
153	0xbc996e27	-0.018729283
154	0x3c5dcbb8	0.01353734
155	0xbb927630	-0.0044696555
156	0xbc21e862	-0.009882065
157	0xbeadc1bf	-0.3393688
158	0xbc937408	-0.017999664
159	0x3a6cea31	0.0009037583
160	0xbd5df764	-0.05419101
161	0x3d9c0e27	0.07619887
162	0x3e21d05b	0.15802138
163	0xbd96d489	-0.073647566
164	0x3e2bdd99	0.16783752
165	0x3de8ec8e	0.11373244
166	0xbe7a7eaa	-0.24462381
167	0x3cb4c19b	0.022064975
168	0xbd887cac	-0.06664404
169	0xbe2f4437	-0.17115866
170	0xbe8cc6c5	-0.274954
171	0xbc2a5090	-0.010395184
172	0x3bc5e662	0.0060394267
173	0xbc789c9d	-0.015174058
174	0x3c2a9cbf	0.010413348
175	0xbb93ae83	-0.0045068874
176	0xbdfbb8bf	-0.12291097
177	0xbe8ed0f4	-0.27893794
178	0xbbf13c87	-0.0073619517
179	0xbd241a27	-0.040064003
180	0xbed7a68f	-0.42119262
181	0xbd4a7bf8	-0.049434632
182	0x3cdbed6e	0.026846614
183	0xbd339e40	-0.04385209
184	0xbc3a0e2b	-0.011355917
185	0x3d2d0eb2	0.042250343
186	0xbe5669a5	-0.20938738
187	0xbdd9ffb2	-0.10644473
188	0x3d295242	0.041338213
189	0xbd088e20	-0.033338666
190	0x3e5dada1	0.21648265
191	0x3d2ecac6	0.04267385
192	0x3cd1e913	0.025623834
193	0xbe16745b	-0.14692824
194	0x3bdf9300	0.0068229437
195	0xbdfd268a	-0.12360866
196	0xbe4c31d4	-0.19940883
197	0x3e640c9d	0.22270437
198	0xbd85db96	-0.06536023
199	0xbd54f787	-0.051993873
200	0xbd68f190	-0.056870997
201	0x3ea6e209	0.32594326
202	0x3bff6f49	0.0077952486
203	0x3d232a89	0.039835487
204	0xbca404ca	-0.020021815
205	0xbd9e8527	-0.077402405
206	0x3db842a1	0.089970835
207	0x3c890cbe	0.016729709
208	0x3dfb6dde	0.12276815
209	0x3c6e60da	0.014549458
210	0xbe367d01	-0.17821123
211	0xbc475b8e	-0.012167824
212	0x3d1711fa	0.03688238
213	0xbb0ed8e5	-0.002179676
214	0xbca72ec4	-0.020408042
215	0x3dacc728	0.084364235
216	0xbe672cef	-0.22575735
217	0xbe70694f	-0.23477672
218	0x3e1e6b90	0.1547072
219	0xbcd39f4b	-0.025832793
220	0xbd0d2c38	-0.034466
221	0x3f0c8a20	0.5489826
222	0x3bc175ba	0.0059039267
223	0xbc0f7eb4	-0.008758236
224	0x3c09c5ed	0.008409006
225	0x3c84606c	0.016159259
226	0x3d1deaf7	0.038554158
227	0xbc7ad038	-0.015308432
228	0x3c289be5	0.010291074
229	0xbc4c6f77	-0.012477747
230	0xbacb737e	-0.001552209
231	0x3eebcd6e	0.46055168
232	0x3c72a142	0.014808955
233	0x3c497349	0.0122955525
234	0x3bb74684	0.005593123
235	0x3c951371	0.018197747
236	0x3e4ede2d	0.20201941
237	0x3cdb6b4a	0.026784558
238	0x3ba286f0	0.0049599335
239	0xbd07a422	-0.033115514
240	0xbf1e4a51	-0.6183215
241	0x3cbd41f2	0.023102734
242	0x3bd92f7c	0.006627975
243	0x3b81b62d	0.0039584846
244	0x3be10af1	0.0068677594
245	0x3b22b82a	0.0024829009
246	0x3d4048c1	0.046944384
247	0xbd3551b6	-0.04426738
248	0xbbcc96ae	-0.0062435484
249	0xbbc39e45	-0.005969795
250	0xbf0e380a	-0.5555426
251	0x3a905f87	0.0011014797
252	0xbb779c09	-0.0037782213
253	0x3d0ef2f9	0.034899686
254	0x3c56ad91	0.013102905
255	0x3c533b3d	0.0128925415

model.0.bias f4 [256]
0	0x3307c0cb	3.160748e-08
1	0x339da89f	7.341554e-08
2	0xb50b7d58	-5.1963934e-07
3	0xb35e9aff	-5.182937e-08
4	0x32a9a185	1.974764e-08
5	0xb31d48fc	-3.662079e-08
6	0x338b0305	6.473241e-08
7	0xb23d0cb8	-1.100414e-08
8	0xb4cdbeee	-3.8323145e-07
9	0x32ea6da6	2.7291048e-08
10	0xb3b4de0b	-8.4222926e-08
11	0xb59c8240	-1.1660813e-06
12	0x3338a964	4.29949e-08
13	0x31a8a021	4.907648e-09
14	0x33c29b4e	9.062079e-08
15	0xb4c28666	-3.6233104e-07
16	0xb241bef2	-1.12774945e-08
17	0xb4894281	-2.5566627e-07
18	0x331aba15	3.602516e-08
19	0x31f8d995	7.242486e-09
20	0x33b0dc46	8.235706e-08
21	0xb3fd5d6a	-1.17982225e-07
22	0xb457cdac	-2.0098258e-07
23	0xb39cc610	-7.3003434e-08
24	0xb399a513	-7.1546445e-08
25	0x35158c28	5.571078e-07
26	0x332a5031	3.9654143e-08
27	0x3381be63	6.041662e-08
28	0xb2e4bf42	-2.6629667e-08
29	0xb30c5db2	-3.2681506e-08
30	0x3260de33	1.3089038e-08
31	0xb32de1e8	-4.0485162e-08
32	0xb40cbca0	-1.3107137e-07
33	0x349f993a	2.9727545e-07
34	0x34d011bd	3.8755925e-07
35	0x340f16e2	1.3326238e-07
36	0x329bce3f	1.8138165e-08
37	0x35260840	6.1851824e-07
38	0x332b3775	3.9864478e-08
39	0x334448b7	4.570094e-08
40	0x3396f14f	7.028813e-08
41	0x3429e6c9	1.582331e-07
42	0x3497641a	2.8198775e-07
43	0x342411df	1.5280192e-07
44	0x3507e80e	5.0629103e-07
45	0xb33e96c9	-4.437496e-08
46	0xb31e9aee	-3.692815e-08
47	0xb3fe0fd3	-1.1830675e-07
48	0xb451f926	-1.9555281e-07
49	0xb29ebb86	-1.8478897e-08
50	0xb3f0fdb9	-1.1222023e-07
51	0xb3958e4d	-6.9642375e-08
52	0x3285a31a	1.5557408e-08
53	0xb323d34b	-3.8143565e-08
54	0xb3b6fc81	-8.5209656e-08
55	0xb39cef2c	-7.307821e-08
56	0xb392f3bd	-6.8429905e-08
57	0x31f445fe	7.109292e-09
58	0x3437a0cd	1.7101702e-07
59	0x334d8891	4.785449e-08
60	0xb34cfcaf	-4.7727266e-08
61	0xb215846b	-8.70305e-09
62	0x32f4fc6e	2.852013e-08
63	0xb28a24f4	-1.6082119e-08
64	0x340bac5a	1.3008085e-07
65	0x350b69ae	5.193532e-07
66	0x32cbc873	2.3723464e-08
67	0xb39990bb	-7.150944e-08
68	0x347cd4cc	2.3546744e-07
69	0xb4653c00	-2.1349115e-07
70	0xb2a5b586	-1.9291075e-08
71	0x32af330c	2.0395895e-08
72	0x34abdc83	3.2011675e-07
73	0x34b746c7	3.4137904e-07
74	0xb2e85814	-2.7048408e-08
75	0x32a46d8a	1.9141925e-08
76	0x3169e75d	3.4037477e-09
77	0xb1c0de5d	-5.6132152e-09
78	0xb4087f79	-1.2712361e-07
79	0xb385efbb	-6.236902e-08
80	0xb29ee6ff	-1.8498666e-08
81	0xb4cef816	-3.8550996e-07
82	0xb311f9f9	-3.3987792e-08
83	0xb282797d	-1.5189238e-08
84	0x338678d8	6.2618426e-08
85	0xb511794b	-5.4193214e-07
86	0x3298dde9	1.7796042e-08
87	0xb3561796	-4.984721e-08
88	0xb432ef3f	-1.6664579e-07
89	0xb4d90e0c	-4.042962e-07
90	0x3401961c	1.206867e-07
91	0x339bb673	7.250937e-08
92	0xb3e973a1	-1.0870941e-07
93	0xb3c7fbd1	-9.312465e-08
94	0xb33ab47a	-4.3470642e-08
95	0xb375e6ec	-5.725353e-08
96	0xb2f74c2b	-2.8789222e-08
97	0xb38af976	-6.4715024e-08
98	0xb452b714	-1.9624378e-07
99	0x3474eeb9	2.2811118e-07
100	0x32f00edb	2.7946433e-08
101	0xb200cdfc	-7.497416e-09
102	0x320aa8f6	8.0710745e-09
103	0xb4d774c4	-4.013183e-07
104	0xb33acef1	-4.3494712e-08
105	0xb41af698	-1.4432078e-07
106	0xb2e1a705	-2.6269399e-08
107	0xb3f691a3	-1.1481759e-07
108	0x33ea676f	1.09152886e-07
109	0xb1e82f6d	-6.7574804e-09
110	0xb57381e0	-9.071355e-07
111	0x3508bfda	5.094313e-07
112	0x34d5693d	3.9750913e-07
113	0x33de3c59	1.0348658e-07
114	0xb22b655f	-9.976559e-09
115	0xb2012640	-7.517485e-09
116	0xb38f874e	-6.683568e-08
117	0xb297e547	-1.7682977e-08
118	0xb38274ed	-6.0748654e-08
119	0x34379a4e	1.7099339e-07
120	0xb365552b	-5.3395677e-08
121	0xb4265820	-1.5492014e-07
122	0xb4b6cb8b	-3.404824e-07
123	0xb3af9246	-8.1756795e-08
124	0xb3dfbb60	-1.041833e-07
125	0x3333d82c	4.1873292e-08
126	0x3269769b	1.3589353e-08
127	0xb3174303	-3.5218374e-08
128	0xb3769225	-5.7409256e-08
129	0xb2d30cb1	-2.4569404e-08
130	0xb266e92c	-1.3440779e-08
131	0xb4a921fb	-3.1503427e-07
132	0xb2012e9b	-7.519385e-09
133	0x3483b4c0	2.4532164e-07
134	0x33a47e6a	7.65984e-08
135	0xb4d85395	-4.029395e-07
136	0x327a03fb	1.455282e-08
137	0xb3309854	-4.1116735e-08
138	0xb3ca7798	-9.428112e-08
139	0xb3b7714f	-8.542212e-08
140	0x330dfdb3	3.305986e-08
141	0xb3c04d79	-8.954789e-08
142	0xb309b489	-3.2061994e-08
143	0xafc8f471	-3.6553474e-10
144	0x33a9e3a1	7.911081e-08
145	0xb40e970f	-1.3279735e-07
146	0xb36a8cc9	-5.4610414e-08
147	0xb27126ea	-1.4036894e-08
148	0x3310d669	3.3722618e-08
149	0x33761e74	5.7304035e-08
150	0xb2b7dc37	-2.1404146e-08
151	0x311610f9	2.183752e-09
152	0x33df25d2	1.0391126e-07
153	0xb180e482	-3.7512686e-09
154	0xb3982737	-7.085185e-08
155	0x33ef120b	1.1132587e-07
156	0x341c758c	1.4571395e-07
157	0xb42b4fa7	-1.5954593e-07
158	0xb48a4bd2	-2.575967e-07
159	0xb2e2bb8f	-2.6395155e-08
160	0xb4159746	-1.393174e-07
161	0x3307ad73	3.1589888e-08
162	0xb3227ed8	-3.7833928e-08
163	0x320de5fd	8.2595735e-09
164	0x32ada58a	2.021513e-08
165	0x33c036fa	8.950697e-08
166	0x3343c9fb	4.5585676e-08
167	0x332ea77d	4.066486e-08
168	0x31451988	2.8681786e-09
169	0x3389ecbf	6.4226235e-08
170	0x33bf02df	8.894653e-08
171	0x31b1212e	5.15515e-09
172	0x32f8d718	2.8968813e-08
173	0xb078bdc9	-9.0491575e-10
174	0x344c7ddd	1.904477e-07
175	0x3255604d	1.2420128e-08
176	0x34f6b37f	4.595167e-07
177	0x33dd4485	1.0303578e-07
178	0x3331daa4	4.1409876e-08
179	0xb31a4a98	-3.592376e-08
180	0xb396a4e0	-7.01491e-08
181	0x34a87321	3.1376206e-07
182	0xb3997b3c	-7.147034e-08
183	0x335348b2	4.9193382e-08
184	0xb495d64c	-2.7909334e-07
185	0xb3be3ae4	-8.8582766e-08
186	0xb32f8afe	-4.0871775e-08
187	0x33e3a206	1.0599983e-07
188	0xb370b0d2	-5.604017e-08
189	0x331f02ff	3.7022797e-08
190	0x33df3fc6	1.0395847e-07
191	0x336d42e5	5.5241703e-08
192	0x322f8d2f	1.0218442e-08
193	0x328ec56d	1.6620755e-08
194	0x33bb1475	8.711587e-08
195	0xb077d9a4	-9.016736e-10
196	0x32531711	1.2287061e-08
197	0x325dbd3d	1.2906921e-08
198	0x33b6c655	8.511112e-08
199	0x335decba	5.1670874e-08
200	0xb23a4c65	-1.0843995e-08
201	0xb29f8356	-1.856976e-08
202	0x3370eef4	5.609668e-08
203	0x3345598f	4.594909e-08
204	0xb3c982e9	-9.383604e-08
205	0xb5018c89	-4.826075e-07
206	0x33c907e7	9.361229e-08
207	0xb355ae72	-4.9751584e-08
208	0xb43e9ee7	-1.7752937e-07
209	0xb396ad29	-7.016417e-08
210	0xb30b577d	-3.244303e-08
211	0x3243d75f	1.1399464e-08
212	0xb23c44d3	-1.0958689e-08
213	0xb2a34905	-1.9008903e-08
214	0x33f4af07	1.1393973e-07
215	0x34123f51	1.3620344e-07
216	0xb0259150	-6.023315e-10
217	0xb3fd7ae2	-1.1803583e-07
218	0x33342bec	4.1949463e-08
219	0x32693275	1.3573858e-08
220	0x32f393ad	2.8356078e-08
221	0x32b6a1f0	2.126123e-08
222	0xb322c0f5	-3.7894058e-08
223	0x31f2c1f8	7.0651787e-09
224	0xb28652d6	-1.5637323e-08
225	0xb208997d	-7.951141e-09
226	0x351607dd	5.5890797e-07
227	0x324f0340	1.2049725e-08
228	0xb33fb4f8	-4.4635243e-08
229	0xb268236e	-1.3512233e-08
230	0xb41c0665	-1.4530958e-07
231	0x3460a757	2.0922504e-07
232	0xb344f6c0	-4.5859224e-08
233	0xb3a909e9	-7.8714784e-08
234	0xb3ca27e6	-9.4136155e-08
235	0xb2eb8f11	-2.742266e-08
236	0xb40007a4	-1.1923709e-07
237	0x337d8a9c	5.9032217e-08
238	0xb4209569	-1.4955516e-07
239	0xb265bb31	-1.3372117e-08
240	0xb2e449e1	-2.657629e-08
241	0x3307b209	3.159406e-08
242	0x33121a87	3.40174e-08
243	0x33c2b716	9.067132e-08
244	0x33a2b4a6	7.5765726e-08
245	0x31437be2	2.8446654e-09
246	0x334cd134	4.768772e-08
247	0x334cc431	4.7675886e-08
248	0x3458e3cb	2.0199438e-07
249	0x3333b31e	4.183959e-08
250	0xb48edbc8	-2.6609473e-07
251	0x30842dca	9.617278e-10
252	0x33b8bcb9	8.602496e-08
253	0x33aa5443	7.931569e-08
254	0x3381d30c	6.04542e-08
255	0xb25e214c	-1.29296716e-08

model.1.weight f4 [256]
0	0x3e9d0db7	0.30674526
1	0x3ec47d6a	0.38376933
2	0x3f52a546	0.8228344
3	0x3f0225e6	0.5083908
4	0x3ec039dd	0.37544146
5	0x3e91f214	0.28505003
6	0x3ee8cf47	0.4547064
7	0x3eed765b	0.4637936
8	0x3f1e0c4a	0.617375
9	0x3ea17c43	0.31540117
10	0x3f2459eb	0.64199704
11	0x3f590cf7	0.8478541
12	0x3f128976	0.57241
13	0x3ef74a85	0.4829904
14	0x3ec27e57	0.37987015
15	0x3f1ecdb3	0.6203262
16	0x3ea414ac	0.3204702
17	0x3effaac6	0.49934977
18	0x3f102b44	0.5631602
19	0x3ec663e6	0.3874809
20	0x3e9d7d0d	0.3075947
21	0x3ecef044	0.40417683
22	0x3f077474	0.5291207
23	0x3f036c46	0.5133709
24	0x3f4297d8	0.76012945
25	0x3f091427	0.53546375
26	0x3eb5e7d9	0.35528448
27	0x3ec4e483	0.3845559
28	0x3f19c28e	0.6006249
29	0x3e801dca	0.25022727
30	0x3ec330f1	0.38123277
31	0x3ea18e49	0.31553867
32	0x3eaf3c81	0.34225848
33	0x3f4d6815	0.8023694
34	0x3f0b8682	0.5450212
35	0x3edcae3e	0.43101686
36	0x3f0abab3	0.5419113
37	0x3f49452b	0.78621167
38	0x3f015646	0.5052227
39	0x3ede482b	0.43414435
40	0x3f30c728	0.6905389
41	0x3f47f98b	0.7811515
42	0x3f168343	0.5879404
43	0x3f49ca5d	0.78824407
44	0x3f42e8b0	0.761363
45	0x3ec06019	0.37573317
46	0x3ec3845b	0.38186917
47	0x3ebf80e6	0.3740303
48	0x3f308174	0.6894753
49	0x3eb08b25	0.3448116
50	0x3f050b91	0.51970774
51	0x3f110f70	0.5666418
52	0x3eac8e4d	0.33702317
53	0x3ec55d71	0.38547853
54	0x3ee1aeb5	0.44078603
55	0x3f4e8281	0.80667883
56	0x3ee77241	0.45204356
57	0x3f009fa5	0.502436
58	0x3ee75c40	0.4518757
59	0x3ef41bb1	0.47677377
60	0x3eb422d3	0.3518282
61	0x3ea9ef19	0.3319023
62	0x3ed9420b	0.424332
63	0x3f1b3373	0.6062538
64	0x3efb7f09	0.49120358
65	0x3f2583d7	0.64654297
66	0x3ebd8e45	0.37022606
67	0x3e9faeba	0.31187993
68	0x3f5fca34	0.8741791
69	0x3ecfc0a7	0.4057667
70	0x3ea392b8	0.31947875
71	0x3ea3f7d8	0.32025027
72	0x3f0cd1e1	0.5500775
73	0x3f0c4f7b	0.5480878
74	0x3eb32efc	0.34996784
75	0x3f20c651	0.62802607
76	0x3ebc6845	0.367983
77	0x3ee3dae0	0.44502926
78	0x3ee6637f	0.44997784
79	0x3f11dcf7	0.5697779
80	0x3ec130b3	0.37732467
81	0x3f4fc044	0.8115275
82	0x3ecf4364	0.40481102
83	0x3eabb120	0.33533573
84	0x3ebab4e3	0.3646613
85	0x3f4d835c	0.80278563
86	0x3eff4777	0.4985921
87	0x3ea2a55c	0.31766784
88	0x3f0d502d	0.55200464
89	0x3f338c20	0.7013569
90	0x3eb44d42	0.35215193
91	0x3e948f92	0.29015785
92	0x3f017f2d	0.5058468
93	0x3ebe9690	0.37224245
94	0x3f05f8bb	0.5233266
95	0x3ecd3d6d	0.40085927
96	0x3eb4227e	0.35182565
97	0x3ed78efb	0.42101273
98	0x3ebd3ef4	0.36962092
99	0x3f036619	0.51327664
100	0x3eebae2d	0.46031323
101	0x3ed899cf	0.42304847
102	0x3edef709	0.43547848
103	0x3f52500a	0.8215338
104	0x3eba0155	0.3632914
105	0x3f4b8d84	0.7951281
106	0x3f0fec26	0.5621971
107	0x3f1ef986	0.6209949
108	0x3eb85059	0.359988
109	0x3e8d4cdf	0.2759771
110	0x3f627fdd	0.88476354
111	0x3f552530	0.8325987
112	0x3f5d154e	0.86360633
113	0x3ecfd657	0.40593216
114	0x3eb56abe	0.35433
115	0x3ea499c3	0.3214856
116	0x3ea15e63	0.31517324
117	0x3f0bde71	0.54636294
118	0x3eb3c943	0.35114488
119	0x3ecb1721	0.39666083
120	0x3ec3aee4	0.38219368
121	0x3f0a60f8	0.5405421
122	0x3f30cfd2	0.6906711
123	0x3e86f249	0.26356724
124	0x3eedba44	0.46431172
125	0x3ecea8a9	0.40363052
126	0x3ed8ec60	0.4236784
127	0x3eaa5f8b	0.33276019
128	0x3ed6fd84	0.41990292
129	0x3e95fe57	0.29295608
130	0x3eecc1d9	0.46241644
131	0x3f1cb5f0	0.61215115
132	0x3e5bd49a	0.2146782
133	0x3f05494d	0.52064973
134	0x3ec95410	0.39321947
135	0x3f470973	0.77748793
136	0x3e950bad	0.2911047
137	0x3ebe0b3c	0.37117946
138	0x3f3679c4	0.7127955
139	0x3ed066ec	0.40703523
140	0x3f1600c6	0.5859493
141	0x3eeba5c0	0.46024895
142	0x3ec39f74	0.3820759
143	0x3ed52a90	0.41634035
144	0x3ead6b80	0.33871078
145	0x3eeacc3a	0.45858938
146	0x3f059417	0.5217909
147	0x3f0dc8c8	0.5538449
148	0x3eb0ce05	0.3453218
149	0x3eed94c8	0.46402574
150	0x3eb5db1f	0.3551874
151	0x3eee19a3	0.46503934
152	0x3f0e75a5	0.5564826
153	0x3f0e21b3	0.5552017
154	0x3ebc660c	0.36796606
155	0x3f072d44	0.52803445
156	0x3f120de3	0.5705244
157	0x3f29446f	0.66120046
158	0x3f29a219	0.66262966
159	0x3eaacc0a	0.33358794
160	0x3f227588	0.6346059
161	0x3f0b40ca	0.54395735
162	0x3eecf05b	0.46277127
163	0x3f21d212	0.63211167
164	0x3ebb63b2	0.365995
165	0x3ed7b19d	0.42127696
166	0x3ed147ca	0.40875083
167	0x3f08a788	0.5338063
168	0x3ecd5779	0.401058
169	0x3ebd9e54	0.37034857
170	0x3ec2c4b9	0.38040712
171	0x3e8e49f6	0.27790803
172	0x3f117b7f	0.56829065
173	0x3e981b3f	0.29708287
174	0x3f3238e4	0.6961806
175	0x3ea82fc3	0.3284894
176	0x3f1ffb77	0.6249308
177	0x3f094634	0.53622746
178	0x3f0ca77e	0.5494307
179	0x3ea2186e	0.31659263
180	0x3ee2202a	0.44165164
181	0x3f0811cf	0.53152174
182	0x3e935e03	0.28782663
183	0x3ef60294	0.48048842
184	0x3f1649d7	0.5870642
185	0x3ebd9be6	0.37033004
186	0x3ea3a34c	0.31960523
187	0x3efb532d	0.49086896
188	0x3ec02995	0.37531725
189	0x3ed7004f	0.41992423
190	0x3f345004	0.70434594
191	0x3ef6ce40	0.4820423
192	0x3ede4d87	0.43418524
193	0x3eb7780d	0.3583378
194	0x3ee1ad42	0.44077498
195	0x3ee64b6f	0.44979426
196	0x3ec1ad7b	0.37827668
197	0x3eacef5e	0.33776373
198	0x3edc67e3	0.4304801
199	0x3ec88d53	0.39170322
200	0x3e9e01c9	0.30860737
201	0x3ebbc334	0.36672366
202	0x3f0c9ec1	0.5492974
203	0x3ec671bc	0.38758647
204	0x3ed269e2	0.41096407
205	0x3f118242	0.5683938
206	0x3ef3e87e	0.47638315
207	0x3eb7c6ac	0.35893762
208	0x3f2d2d7e	0.6764754
209	0x3ee799e3	0.45234594
210	0x3eead6d1	0.45867017
211	0x3f0ae9ae	0.54262817
212	0x3eb4e462	0.35330492
213	0x3eba81bc	0.36427104
214	0x3f1a154f	0.60188764
215	0x3eda03ff	0.42581174
216	0x3f02cfbf	0.51098245
217	0x3f236a1a	0.63833773
218	0x3ece656f	0.40311763
219	0x3f1e834f	0.6191911
220	0x3ebd2463	0.36941823
221	0x3ee42317	0.4455802
222	0x3ec906d8	0.39263034
223	0x3f02445e	0.5088557
224	0x3e9d5780	0.3073082
225	0x3ec8d7ba	0.39227086
226	0x3f6aec4e	0.9176682
227	0x3ecc617d	0.39918128
228	0x3ef72f76	0.48278397
229	0x3ed84b0c	0.42244756
230	0x3ed32fd9	0.41247442
231	0x3f1cdddb	0.61276025
232	0x3ea10620	0.31449986
233	0x3ee20897	0.4414718
234	0x3ee6050f	0.44925734
235	0x3ea81298	0.32826686
236	0x3ebe0032	0.37109524
237	0x3eeab321	0.4583979
238	0x3f2821f6	0.6567682
239	0x3f1fbb6a	0.62395346
240	0x3f24cf49	0.6437879
241	0x3ed8b394	0.42324507
242	0x3ebc329b	0.3675736
243	0x3edd1414	0.4317938
244	0x3f126ddf	0.571989
245	0x3eeaf06c	0.45886552
246	0x3ee6a4e6	0.45047683
247	0x3ea29e18	0.3176124
248	0x3ed46af3	0.41487846
249	0x3ea66b5f	0.32503793
250	0x3f075e13	0.5287792
251	0x3eb07f99	0.3447235
252	0x3e90a43d	0.28250304
253	0x3ec04308	0.3755114
254	0x3f0280f5	0.5097802
255	0x3f0bf938	0.5467715

model.1.bias f4 [256]
0	0xbe351d0b	-0.1768686
1	0xbde8f3b4	-0.11374608
2	0xbeb5d4f0	-0.3551402
3	0xbe31d238	-0.17365348
4	0xbdb52d02	-0.08846475
5	0xbbfd1024	-0.0077228714
6	0xbe846390	-0.2585721
7	0xbe9f81ed	-0.31153813
8	0xbee14018	-0.43994212
9	0xbdd18b44	-0.10231641
10	0xbeef5aa1	-0.46748832
11	0xbeb71f38	-0.35766006
12	0xbe5f77bc	-0.21823019
13	0xbe8bb390	-0.27285433
14	0xbe65d445	-0.22444256
15	0x3cda0cff	0.026617525
16	0xbe023150	-0.12714124
17	0x3c30c68b	0.010789524
18	0xbdfeb20e	-0.12436305
19	0xbe293a51	-0.16526152
20	0xbe19b33b	-0.15009777
21	0xbe0ee665	-0.13955076
22	0xbf07cd7d	-0.53047925
23	0xbebc6955	-0.36799112
24	0xbe909f72	-0.28246647
25	0xbe24ff36	-0.1611298
26	0xbe8407a8	-0.2578709
27	0xbe35fbe4	-0.1777187
28	0xbee07bd5	-0.43844476
29	0xbe1a0b54	-0.15043384
30	0xbe6bec7c	-0.2303943
31	0xbd2d8ffe	-0.04237365
32	0xbe938979	-0.2881582
33	0xbea64a91	-0.32478765
34	0xbf0e50f0	-0.5559225
35	0xbeb6235e	-0.35573858
36	0xbe7c71f8	-0.2465285
37	0xbea0b689	-0.31389263
38	0xbebe2013	-0.37133846
39	0xbe83e2b9	-0.25758913
40	0xbe69d303	-0.22834401
41	0xbe763d2a	-0.2404677
42	0xbea5ebdc	-0.3240651
43	0xbe920006	-0.28515643
44	0xbe85f365	-0.26162258
45	0xbea918dc	-0.3302678
46	0xbe23a011	-0.15979029
47	0xbe17faed	-0.14841814
48	0xbf0a78df	-0.54090685
49	0xbe2d068a	-0.16897026
50	0xbefe54e5	-0.49674144
51	0xbf148f94	-0.5803158
52	0xbe3b6d43	-0.18303399
53	0xbe997290	-0.29970217
54	0xbe26bab4	-0.16282159
55	0xbe9cc2a4	-0.3061725
56	0xbe715d56	-0.23570761
57	0xbf005a0d	-0.50137407
58	0xbe4046ab	-0.18776958
59	0xbdf5688e	-0.11982833
60	0xbe5e8832	-0.21731642
61	0xbe7c39da	-0.24631444
62	0xbcb130ff	-0.021629808
63	0xbe46af5d	-0.19402833
64	0xbe46f5d0	-0.19429708
65	0xbee801e9	-0.45313957
66	0xbe9c0d20	-0.30478764
67	0xbe4093df	-0.18806408
68	0xbecd0250	-0.40040827
69	0xbe30f4f0	-0.17280936
70	0xbe27fd23	-0.16405158
71	0xbe422c39	-0.18962182
72	0xbad133a7	-0.0015960828
73	0x3ce1578c	0.027507566
74	0xbe6d977c	-0.23202318
75	0x3b6428a4	0.0034814263
76	0xbe27b376	-0.16377053
77	0xbebdbea0	-0.37059498
78	0xbeb8ec54	-0.36117804
79	0xbe9bf367	-0.3045914
80	0xbda705e6	-0.08155422
81	0xbe9b1908	-0.30292535
82	0xbe095fae	-0.13415405
83	0xbe3141d1	-0.17310263
84	0xbdb69db3	-0.089167975
85	0xbea8d0e7	-0.3297188
86	0xbee22a64	-0.44172966
87	0xbe375e7d	-0.17907138
88	0xbe1bd5f1	-0.15218331
89	0xbe83f7ec	-0.25775087
90	0xbe5e0471	-0.21681382
91	0xbe21c5a9	-0.15798058
92	0xbef383db	-0.47561535
93	0xbe743161	-0.23846962
94	0xbe099702	-0.13436511
95	0xbe3b4e3b	-0.18291561
96	0xbe23cad7	-0.15995346
97	0xbe3bc748	-0.18337739
98	0xbe8a8512	-0.2705465
99	0xbe0ad37b	-0.13557236
100	0xbeca85e4	-0.39555275
101	0xbe8d6045	-0.2761251
102	0xbe8ec76e	-0.27886528
103	0xbe9b3abd	-0.3031825
104	0xbe7cd170	-0.24689269
105	0xbebd9aca	-0.37032157
106	0xbe06e01d	-0.1317143
107	0xbe2499cc	-0.16074294
108	0xbe8a2ef4	-0.26988947
109	0xbe81f4a1	-0.2538195
110	0xbed19537	-0.40934154
111	0xbedbbd5d	-0.4291791
112	0xbec0e1d8	-0.37672305
113	0xbe817174	-0.2528187
114	0xbdf00574	-0.1171979
115	0xbdb98fd7	-0.090606384
116	0xbde45efa	-0.11150928
117	0xbe19cb13	-0.15018873
118	0xbe522e92	-0.20525578
119	0xbdb1acc5	-0.08675531
120	0xbe6b62dc	-0.2298693
121	0xbef7ea3c	-0.48420894
122	0xbe805cfb	-0.25070938
123	0xbda2117d	-0.07913492
124	0xbe107c98	-0.14110029
125	0xbe73d483	-0.23811536
126	0xbd830b45	-0.06398634
127	0xbe773e01	-0.24144746
128	0xbeb00231	-0.34376672
129	0xbe57fe19	-0.21093024
130	0xbe2c019d	-0.1679749
131	0xbea318ca	-0.3185485
132	0xbde0f28d	-0.10983763
133	0xbf03320b	-0.51248235
134	0xbe75df82	-0.24011043
135	0xbea21529	-0.3165677
136	0xbe5ab9da	-0.21359959
137	0xbe208dcc	-0.15679091
138	0xbeac14db	-0.3360966
139	0xbe9bed46	-0.30454463
140	0xbe3ce24b	-0.18445699
141	0xbddc267c	-0.10749528
142	0xbeaaacc5	-0.33334938
143	0xbe5d3c48	-0.21605027
144	0xbe094823	-0.13406424
145	0xbe8cadbd	-0.27476302
146	0xbe268bdc	-0.1626429
147	0xbe7c533e	-0.2464113
148	0xbdc0a242	-0.09405948
149	0xbea9dbef	-0.3317561
150	0xbe3883df	-0.18019055
151	0xbe814878	-0.25250602
152	0xbc6b2d24	-0.014354024
153	0xbed0241e	-0.40652555
154	0xbe74333c	-0.2384767
155	0xbef8b028	-0.48571897
156	0xbe2c3221	-0.16815998
157	0xbee79aae	-0.452352
158	0x3cbafcc2	0.022825602
159	0xbe257f26	-0.16161785
160	0xbed1472d	-0.40874615
161	0xbe234403	-0.15943913
162	0xbe9c4dae	-0.30528015
163	0xbe8223a4	-0.25417817
164	0xbe8dd753	-0.27703342
165	0xbeb9931b	-0.36245045
166	0xbe821ede	-0.25414175
167	0xbecc1c75	-0.3986546
168	0xbe0537e3	-0.130096
169	0xbe22632f	-0.15858148
170	0xbe091e57	-0.1339048
171	0xbd8a348f	-0.06748306
172	0xbe47e3c4	-0.1952048
173	0xbe5ac192	-0.21362904
174	0xbe8d34b2	-0.27579266
175	0xbd38f661	-0.04515684
176	0x3ce2b953	0.02767626
177	0xbe8368a9	-0.25665787
178	0xbec7594f	-0.38935325
179	0xbd879519	-0.06620235
180	0xbe852bb2	-0.260099
181	0xbe0a92dc	-0.13532585
182	0xbdd826d9	-0.105542846
183	0xbd6d0a67	-0.05787125
184	0xbe525fb7	-0.20544325
185	0xbe56a50c	-0.20961398
186	0xbe9c3a55	-0.30513254
187	0xbedf61eb	-0.43629393
188	0xbd1c8224	-0.03821005
189	0xbea74a9b	-0.32674107
190	0xbe81b533	-0.25333557
191	0xbe0a1c43	-0.13487343
192	0xbde97a7a	-0.11400314
193	0xbe5b04d5	-0.21388562
194	0xbeb54a05	-0.35408035
195	0xbe97682e	-0.2957167
196	0xbdd9fd14	-0.10643974
197	0xbe31786e	-0.17331097
198	0xbe0a92d1	-0.13532569
199	0xbe4742df	-0.19459103
200	0xbe233c49	-0.15940966
201	0xbe6ce370	-0.23133636
202	0xbed25440	-0.41079903
203	0xbe065da6	-0.13121662
204	0xbe99b305	-0.30019394
205	0xbe44b1b3	-0.19208412
206	0xbe899eb7	-0.26878902
207	0xbe446974	-0.19180852
208	0xbe5fc01c	-0.21850628
209	0xbe89f199	-0.26942137
210	0xbe16fc66	-0.1474472
211	0xbdf14594	-0.11780849
212	0xbe424e1b	-0.18975107
213	0xbe3695bd	-0.17830558
214	0xbe21acd2	-0.15788582
215	0xbe6d6b20	-0.23185396
216	0xbea63613	-0.3246313
217	0xbe7b23a5	-0.24525316
218	0xbe9dc9b6	-0.30817956
219	0xbef591e9	-0.47962883
220	0xbe84bdc9	-0.25926045
221	0xbda24988	-0.07924181
222	0xbe52a722	-0.20571569
223	0xbed3b7d4	-0.41351187
224	0xbe11b62f	-0.14229654
225	0xbe4cb522	-0.19990972
226	0xbed80253	-0.42189273
227	0xbee17925	-0.44037738
228	0xbe85d5bf	-0.26139638
229	0xbe43ebd6	-0.19132933
230	0xbe88635b	-0.26638302
231	0xbef05d7c	-0.46946323
232	0xbdfedfb3	-0.12445011
233	0xbe03e10c	-0.12878817
234	0xbe16145f	-0.14656208
235	0xbe617b02	-0.2201958
236	0xbe13444a	-0.14381519
237	0xbdbcd1f4	-0.09219733
238	0x3cf4c32a	0.029878218
239	0xbf05e5b6	-0.52303636
240	0xbe837a12	-0.2567907
241	0xbe835e38	-0.2565782
242	0xbea218e5	-0.31659618
243	0xbdcb6155	-0.09930674
244	0xbf13e8b3	-0.57776946
245	0xbeb65eba	-0.35619146
246	0xbdde7965	-0.10862998
247	0xbe1da81f	-0.15396164
248	0xbeacd8ae	-0.33759063
249	0xbe50db39	-0.20396127
250	0xbf011f57	-0.50438446
251	0xbea1d495	-0.316075
252	0xbe25e528	-0.16200697
253	0x3c707bc5	0.014677946
254	0xbe5512b0	-0.2080791
255	0xbe3f18a6	-0.18661746

model.1.running_mean f4 [256]
0	0x3ab82db4	0.0014051707
1	0x3a93cafd	0.0011275705
2	0x3bccb347	0.0062469575
3	0x3b916b43	0.0044378354
4	0xbb3ff43e	-0.0029289867
5	0x3a82d7e8	0.0009982558
6	0xbad41e1d	-0.0016183291
7	0xbb754b2c	-0.003742884
8	0xba922409	-0.0011149655
9	0x3af67501	0.001880318
10	0xbb0c00f9	-0.0021362884
11	0x3b597371	0.003318038
12	0x3aa4ca3c	0.0012572478
13	0x3b133d8a	0.00224671
14	0xbb75ffb5	-0.0037536446
15	0x3b5c07a2	0.0033573885
16	0x3b39c4c0	0.0028346032
17	0x3b52df06	0.003217639
18	0x3b9b5c2b	0.004741212
19	0x39f60c4a	0.00046929932
20	0x3a558ad8	0.00081459945
21	0x3b7a74aa	0.003821651
22	0xb9e76321	-0.0004413361
23	0xbaf901cf	-0.0018997731
24	0x3b7c5821	0.0038504677
25	0x3b5e55f2	0.003392574
26	0xba02d986	-0.000499152
27	0xbb20f7d7	-0.0024561787
28	0xbaf1fc56	-0.0018462043
29	0x3b2b4c2a	0.0026137927
30	0xbaee5c45	-0.0018185457
31	0x3b946417	0.004528533
32	0x399b461a	0.00029616134
33	0x3b9a2b03	0.0047048344
34	0xba26b941	-0.00063600024
35	0x3980303d	0.00024450003
36	0x3b221d27	0.0024736614
37	0x3b86df0d	0.004115945
38	0xbac8763d	-0.0015294027
39	0xbaef7116	-0.0018267955
40	0x3b83a390	0.004017301
41	0x3bca7773	0.0061787902
42	0x38d0d27e	9.95742e-05
43	0x3b35117e	0.0027628834
44	0x3b87df91	0.0041465242
45	0x3a870703	0.0010301772
46	0xbb1a5e49	-0.0023554733
47	0x3b496a59	0.0030733554
48	0xba55d844	-0.0008157531
49	0xbb006337	-0.0019590387
50	0xba091da8	-0.00052305544
51	0xb94d3ded	-0.00019573393
52	0xbb4dc952	-0.0031400514
53	0xbb72109d	-0.0036936172
54	0x3aad21e6	0.0013208955
55	0x3b8f8ff3	0.0043811738
56	0xba1c0e2d	-0.000595304
57	0xb91ceaf7	-0.0001496485
58	0x3b5bac7c	0.0033519557
59	0x3b7e9aaf	0.0038849523
60	0x3acfa821	0.0015842953
61	0xbb548175	-0.0032425795
62	0x3b260db1	0.002533775
63	0x3ba0c4d6	0.004906277
64	0xbb3eeea0	-0.002913393
65	0xba22639c	-0.00061946525
66	0xb9aa6f1a	-0.00032507704
67	0x3b0cc994	0.0021482455
68	0x3bb77339	0.0055984524
69	0xb9dc527c	-0.00042023126
70	0x3b334ad8	0.0027357843
71	0x39851a73	0.00025387443
72	0x3b11bde9	0.002223844
73	0x3ba2b22c	0.0049650874
74	0xbb1064ce	-0.002203274
75	0x3ba72727	0.005101103
76	0xbb5f53d1	-0.0034077058
77	0x3a09c7ee	0.0005255927
78	0xba3293cf	-0.00068121863
79	0xba6b07f8	-0.0008965726
80	0x3ae91d60	0.0017785244
81	0x3b978e3c	0.00462511
82	0x3b0cf8c2	0.0021510576
83	0xbb176ffd	-0.0023107522
84	0xbab85085	-0.0014062083
85	0x3b9a5c45	0.0047107064
86	0xba8a6c03	-0.0010560754
87	0xbbc71ca1	-0.006076411
88	0x3b2e5c8b	0.0026605453
89	0x3b7703cd	0.0037691474
90	0x3ab2b753	0.0013634957
91	0xbada042d	-0.0016633325
92	0xba3163d1	-0.0006766888
93	0xbb1fea3a	-0.0024401085
94	0x3bb7bc03	0.0056071295
95	0xba2cdd03	-0.00065942126
96	0x3a269b16	0.0006355507
97	0xbb21fff2	-0.0024719206
98	0xba4e5825	-0.0007871411
99	0xbb3a9687	-0.002847107
100	0xb93ac35a	-0.00017811116
101	0xba599670	-0.000830031
102	0xbb1d509d	-0.0024004348
103	0x3ba4de4a	0.0050313817
104	0xba570123	-0.00082017685
105	0x3bc27ef6	0.005935545
106	0xbb2751af	-0.0025530865
107	0x3b5d7a77	0.0033794919
108	0x3ac5629a	0.0015059293
109	0x3b6ebd33	0.003642869
110	0x3b993f7f	0.004676759
111	0x3b886dab	0.004163464
112	0x3b931253	0.0044882684
113	0xbae30e39	-0.0017322964
114	0x3b9a0139	0.004699853
115	0x3a06a353	0.00051360315
116	0x3a9aad41	0.0011800901
117	0xbacda4fb	-0.0015689427
118	0x3b0ab7a4	0.0021166587
119	0xbaa3ace8	-0.0012487443
120	0x37c10649	2.301032e-05
121	0xba6000f2	-0.0008545063
122	0x3b93ad0a	0.004506712
123	0x3b437cfd	0.0029829137
124	0x3b9c8cde	0.004777535
125	0xba472a42	-0.00075975445
126	0x3ab0692f	0.0013459082
127	0xbb875828	-0.004130382
128	0xb89bbb0a	-7.425815e-05
129	0xb9dfb319	-0.00042667313
130	0x39a017f3	0.00030535422
131	0xba614e8c	-0.0008594773
132	0xbb10b900	-0.0022082925
133	0xb9201362	-0.0001526601
134	0xbab34b4a	-0.0013679054
135	0x3b861dfc	0.00409293
136	0x3b78ecc6	0.0037982925
137	0xbafe976c	-0.0019423789
138	0xba899abd	-0.0010498386
139	0xba87d529	-0.0010363209
140	0x3b454969	0.003010357
141	0x3b516022	0.0031948169
142	0x39f6fa26	0.00047107151
143	0x3af5b7c2	0.0018746781
144	0xb92b6dad	-0.00016348688
145	0xbae48050	-0.001743326
146	0x3b525fc1	0.003210053
147	0x3a868df2	0.0010265692
148	0xbb1c775c	-0.0023874855
149	0xbb2d139a	-0.0026409389
150	0x3b480ce9	0.0030525273
151	0x3994f45f	0.0002841083
152	0x3b854f1a	0.0040682675
153	0xb8746e15	-5.8276655e-05
154	0xbac04c9c	-0.0014671269
155	0xb94d540b	-0.00019581632
156	0x3baa2b6d	0.005193165
157	0xb595b390	-1.1153625e-06
158	0x3b24dca4	0.0025155926
159	0x3b1c7121	0.002387114
160	0x3a4ea642	0.0007883051
161	0x3b797c4c	0.0038068471
162	0xbb060f5f	-0.002045594
163	0xbad284c2	-0.0016061293
164	0x3abaeba1	0.0014260897
165	0xba5dc863	-0.0008460341
166	0xbac60827	-0.0015108631
167	0x39a7bef8	0.00031995005
168	0xbab242f8	-0.001360028
169	0x3a01f959	0.0004958115
170	0xbb229610	-0.0024808683
171	0x39997001	0.00029265883
172	0x3b1f9e3c	0.002435579
173	0x3a1c6bde	0.0005967001
174	0x3bc48a07	0.0059978995
175	0x3a1b0831	0.00059140014
176	0x3b2c3ffc	0.0026283255
177	0x3aebb4fc	0.0017983015
178	0xba959839	-0.0011413164
179	0x3a75d388	0.0009377529
180	0x3aacc21c	0.0013180408
181	0x3b64a273	0.0034886866
182	0xbb214fa3	-0.0024614118
183	0x3b8b53b5	0.004251922
184	0x3bb8c6d8	0.0056389384
185	0xbaa2b053	-0.0012412168
186	0xbb8af6d2	-0.004240849
187	0x3b36e4f0	0.0027907453
188	0xba9ba6e7	-0.0011875302
189	0x3ac7a8a4	0.0015232754
190	0x3bb6537a	0.0055641504
191	0x3b04d7d4	0.0020270245
192	0x3b6c6160	0.0036068782
193	0xb8f21ced	-0.00011544847
194	0xba78af2f	-0.00094865536
195	0xb9b64b39	-0.0003476979
196	0xb971bfc0	-0.00023054983
197	0xb9a3b632	-0.0003122553
198	0xba4f2234	-0.000790152
199	0x388f0d76	6.821279e-05
200	0xb81d9a58	-3.757546e-05
201	0x3b21582d	0.0024619207
202	0x3a3673a5	0.00069599814
203	0x3b8321a3	0.0040018125
204	0x3a0e58cb	0.00054301013
205	0x3ba8b06f	0.0051479856
206	0x398b1ed6	0.0002653512
207	0xbad16de3	-0.0015978183
208	0x3b8d4c03	0.00431204
209	0xba430f9d	-0.0007440986
210	0x3ab58e21	0.0013851562
211	0x3b7a3b69	0.0038182384
212	0xbacf2d3b	-0.0015806326
213	0x3b29dbba	0.002591832
214	0xbaa8b399	-0.0012870907
215	0x3a563cc2	0.0008172506
216	0xbaeb2580	-0.0017940253
217	0x3b922ced	0.004460922
218	0x3a110082	0.00055313867
219	0xba7c2ba0	-0.0009619538
220	0x3a326c64	0.00068063126
221	0x3b9830fa	0.0046445103
222	0xba259632	-0.00063166313
223	0x385d08bc	5.269864e-05
224	0x3b40a533	0.0029395341
225	0x3b64b068	0.0034895185
226	0x3b93f58f	0.004515357
227	0xbb422305	-0.0029622924
228	0x38fac93b	0.00011958411
229	0x3a7695e0	0.00094064884
230	0xbb548941	-0.0032430443
231	0xb9c1218b	-0.0003683682
232	0xb8168ce8	-3.5894016e-05
233	0x3b25dd83	0.0025309033
234	0x3b45e20a	0.0030194544
235	0xb9eabc02	-0.00044772035
236	0xbaea00ce	-0.0017853023
237	0x3b4bfdea	0.0031126686
238	0x3b617664	0.0034402842
239	0x3a5bef0f	0.00083898095
240	0x3baa6094	0.0051995013
241	0xbadac4e0	-0.0016690753
242	0x3a20372f	0.00061117386
243	0xbabf1023	-0.0014576953
244	0xb9b4665c	-0.0003440854
245	0xba67684e	-0.00088274933
246	0xba746762	-0.00093232666
247	0x39bdacb7	0.00036177572
248	0x3a32e537	0.0006824317
249	0xb9fa3bdd	-0.00047728317
250	0xba2ea3e7	-0.00066619966
251	0xbae9ebc8	-0.0017846758
252	0x3b404fbe	0.0029344405
253	0x3b31312f	0.0027037372
254	0x3b93c54b	0.004509603
255	0x3bb2b35e	0.005453511

model.1.running_var f4 [256]
0	0x3e253995	0.16135247
1	0x3e5437c1	0.20724393
2	0x3f31622d	0.6929043
3	0x3ea83497	0.32852623
4	0x3e0f2b3a	0.13981333
5	0x3e0e1396	0.13874659
6	0x3e04833e	0.1294069
7	0x3e1e0d25	0.15434702
8	0x3e371b2f	0.17881463
9	0x3e04f69b	0.12984698
10	0x3eaf4cac	0.34238183
11	0x3e90a62e	0.28251785
12	0x3dea5995	0.11442868
13	0x3e58f756	0.21188101
14	0x3e2b8d28	0.16753066
15	0x3eb31792	0.3497892
16	0x3e34f559	0.17671718
17	0x3e9109a2	0.28327662
18	0x3ed93409	0.42422512
19	0x3dd6b3df	0.104835264
20	0x3e04a249	0.12952532
21	0x3e8a221b	0.26979145
22	0x3e9c0bec	0.30477846
23	0x3e9606ad	0.29301968
24	0x3ea56f98	0.32311702
25	0x3e9a1582	0.30094534
26	0x3e1a7faf	0.1508777
27	0x3e0415ff	0.12899016
28	0x3ea715a8	0.3263371
29	0x3db825eb	0.08991607
30	0x3e7d1a7c	0.24717134
31	0x3e44c274	0.19214803
32	0x3df49465	0.119423665
33	0x3eeb866d	0.46000996
34	0x3e9d8322	0.3076411
35	0x3e0f4e6e	0.13994762
36	0x3e39a3a8	0.18128836
37	0x3ebc89fb	0.3682402
38	0x3e43ba50	0.19114041
39	0x3e0d5ddc	0.13805336
40	0x3ea90f73	0.330196
41	0x3f4c9aac	0.7992351
42	0x3e277502	0.16353229
43	0x3e492e21	0.19646503
44	0x3ecc2ae5	0.39876476
45	0x3e14daa2	0.14536527
46	0x3dec3928	0.11534339
47	0x3e3bd239	0.18341912
48	0x3e553b6e	0.20823452
49	0x3e0face0	0.1403079
50	0x3e863152	0.26209503
51	0x3e8e2ee0	0.27770138
52	0x3e36d84d	0.1785595
53	0x3e6b38a8	0.22970831
54	0x3e26ee43	0.16301827
55	0x3ed2f60b	0.4120334
56	0x3e2562fc	0.16151041
57	0x3e3150d4	0.1731599
58	0x3eb1b378	0.34707236
59	0x3e968356	0.29397076
60	0x3e13c1b6	0.14429364
61	0x3e1e8b29	0.15482773
62	0x3ee32475	0.44363752
63	0x3edb5036	0.42834634
64	0x3e4a2dec	0.1974408
65	0x3e7fd2f7	0.2498282
66	0x3e0feadf	0.1405444
67	0x3e1fade9	0.15593685
68	0x3f1e25c4	0.61776376
69	0x3d21182e	0.0393297
70	0x3e127749	0.14303316
71	0x3e0a5908	0.13510525
72	0x3e2025c8	0.15639412
73	0x3f217fe7	0.6308579
74	0x3de56e36	0.11202662
75	0x3f184755	0.59483844
76	0x3e0b9081	0.13629343
77	0x3e676831	0.2259834
78	0x3e74f841	0.23922826
79	0x3e51ca44	0.20487314
80	0x3e89c3b8	0.26907134
81	0x3f04558f	0.5169305
82	0x3eb83e4e	0.35985035
83	0x3d938742	0.07203533
84	0x3e534102	0.20630267
85	0x3eec3061	0.4613066
86	0x3e73dccc	0.23814696
87	0x3e2832dc	0.16425651
88	0x3e40c2fa	0.18824378
89	0x3eaf5647	0.34245512
90	0x3e2c18fd	0.16806407
91	0x3e07e2fc	0.13270181
92	0x3e598437	0.21241842
93	0x3e19234f	0.14954875
94	0x3f05cade	0.52262676
95	0x3e10aee3	0.14129214
96	0x3e170c3a	0.14750758
97	0x3e1af413	0.1513217
98	0x3dbf8caf	0.09353005
99	0x3e4e1204	0.2012406
100	0x3e66b52b	0.22530048
101	0x3e013415	0.12617524
102	0x3e7cbea8	0.24682105
103	0x3f043864	0.51648545
104	0x3e2a01cc	0.16602248
105	0x3f27d18c	0.6555412
106	0x3e9f98e0	0.31171322
107	0x3e5e675e	0.21719119
108	0x3e78f27b	0.24311249
109	0x3e1f2b40	0.15543842
110	0x3efaa7a3	0.48956022
111	0x3ee16778	0.44024253
112	0x3eebfcd7	0.4609134
113	0x3dfcae5a	0.123379424
114	0x3e105ea2	0.140986
115	0x3e2d3891	0.1691611
116	0x3e085389	0.13313116
117	0x3e399a9b	0.18125384
118	0x3dbc2234	0.09186211
119	0x3e25c014	0.16186553
120	0x3e194211	0.14966609
121	0x3e419d4e	0.18907663
122	0x3eed45bf	0.46342275
123	0x3dcbedb2	0.09957446
124	0x3ec1b7c2	0.3783551
125	0x3d933bf2	0.07189168
126	0x3e242972	0.16031435
127	0x3e2649b9	0.1623906
128	0x3e1ffbac	0.15623349
129	0x3e2745d0	0.16335225
130	0x3d0887d6	0.03333267
131	0x3e18dced	0.14928026
132	0x3e136ee0	0.14397764
133	0x3e6a0a33	0.22855453
134	0x3e255f07	0.16149531
135	0x3ec9d144	0.3941747
136	0x3de1d5a9	0.110270806
137	0x3e280a78	0.16410244
138	0x3e39b318	0.18134725
139	0x3e8cdcc4	0.2751218
140	0x3e6f502a	0.23370424
141	0x3e37cc16	0.17948946
142	0x3e59afa4	0.21258408
143	0x3e1ba751	0.15200545
144	0x3df4a80b	0.11946114
145	0x3e1e6e50	0.15471768
146	0x3e9a2762	0.30108172
147	0x3e10fafc	0.14158243
148	0x3e123173	0.14276676
149	0x3e815b76	0.25265092
150	0x3e2f8eb5	0.17144282
151	0x3d96320d	0.07333765
152	0x3eb4bd14	0.35300505
153	0x3e84f07e	0.2596473
154	0x3dfe6707	0.12421995
155	0x3e347ce5	0.17625768
156	0x3f0988a3	0.53724116
157	0x3d7ecf8e	0.06220966
158	0x3e6c38bd	0.23068519
159	0x3e678ac6	0.22611532
160	0x3e97792b	0.2958463
161	0x3ea81cc3	0.32834443
162	0x3e825d94	0.2546202
163	0x3e8a52e9	0.2701638
164	0x3d4b7ac7	0.049677636
165	0x3e08c639	0.13356866
166	0x3e992ca5	0.29916874
167	0x3e50966c	0.20369881
168	0x3e424150	0.18970227
169	0x3e25b5bf	0.16182612
170	0x3e2d03bc	0.16895956
171	0x3de4283b	0.11140486
172	0x3dc0f7d2	0.09422268
173	0x3e268f25	0.16265543
174	0x3f38cd08	0.7218785
175	0x3e1e9c61	0.15489341
176	0x3e671255	0.22565587
177	0x3e162026	0.14660701
178	0x3e962b26	0.29329795
179	0x3e01d6cc	0.12679595
180	0x3e570ade	0.21000239
181	0x3e8ba718	0.2727592
182	0x3e1c4078	0.15258968
183	0x3ebc50d5	0.3678042
184	0x3f077d98	0.52926016
185	0x3e2243b6	0.15846142
186	0x3e47cdfd	0.19512172
187	0x3eb7d183	0.35902032
188	0x3e62d905	0.22153099
189	0x3e274d89	0.16338171
190	0x3f25bf67	0.6474518
191	0x3e8bee08	0.2733004
192	0x3e93fd64	0.2890426
193	0x3da407b9	0.080092855
194	0x3e87a6ac	0.26494348
195	0x3de109a2	0.109881654
196	0x3e1b3a00	0.15158844
197	0x3e1e5716	0.15462908
198	0x3db10785	0.08644012
199	0x3e192ab4	0.14957696
200	0x3e21179c	0.15731663
201	0x3de181e5	0.110111035
202	0x3e8ef954	0.27924597
203	0x3e7eccf6	0.24882874
204	0x3e16f169	0.14740528
205	0x3ed1a7a8	0.40948224
206	0x3e51b4a9	0.20479073
207	0x3ddf8541	0.10914088
208	0x3ebc037f	0.36721417
209	0x3e1a942f	0.1509559
210	0x3e96745a	0.29385644
211	0x3eb1ef1b	0.34752735
212	0x3e5f88d4	0.2182954
213	0x3e24230f	0.16028999
214	0x3e06cd91	0.13164355
215	0x3e0cc6b4	0.13747674
216	0x3e5721ab	0.21008937
217	0x3e865084	0.26233304
218	0x3dd47a1c	0.10374853
219	0x3e93e84d	0.2888817
220	0x3e7211ee	0.23639652
221	0x3e8f1d0b	0.27951846
222	0x3db840a8	0.08996707
223	0x3e7fc113	0.24975996
224	0x3db3397e	0.087512
225	0x3e425dc9	0.18981089
226	0x3ee98f0f	0.45616958
227	0x3e07bbdc	0.13255256
228	0x3e3abb26	0.18235454
229	0x3e004c18	0.12529027
230	0x3dde514a	0.108553484
231	0x3e270f5b	0.16314451
232	0x3e024a59	0.12723674
233	0x3e3fd6e6	0.18734321
234	0x3ea7c8cd	0.32770386
235	0x3de69c74	0.1126031
236	0x3e4c097b	0.19925492
237	0x3e88144c	0.26577985
238	0x3ec3e258	0.38258624
239	0x3e8a8e07	0.27061483
240	0x3f0a67a9	0.5406442
241	0x3e3c38e1	0.18381073
242	0x3e4abccd	0.19798584
243	0x3e2133f9	0.15742482
244	0x3ea2ce7c	0.3179816
245	0x3e80f670	0.25188017
246	0x3e3cfc04	0.18455511
247	0x3e0e2028	0.13879454
248	0x3e212315	0.15736039
249	0x3dfbf0b3	0.12301769
250	0x3e94e124	0.2907802
251	0x3dd8aefb	0.1058025
252	0x3dd1e7a0	0.10249257
253	0x3e27b70c	0.1637842
254	0x3eab8b1d	0.33504573
255	0x3ee35642	0.44401747

model.4.weight f4 [128, 256]
0	0xbd56897a	-0.0523772
1	0x3d4fb94c	0.050713822
2	0x3ce90e07	0.028449072
3	0x3d35c657	0.044378605
4	0x3b8a8145	0.004226836
5	0xbcfb3a26	-0.030667376
6	0x3d2a0a4f	0.041513737
7	0xbc8d941a	-0.017282534
8	0x3cf7c1de	0.03024381
9	0xbd391da4	-0.045194283
10	0x3d82e7d9	0.06391878
11	0xbbe80956	-0.007081191
12	0x3cef6e8e	0.029227521
13	0x3d2fcc98	0.042919725
14	0xbcc41e36	-0.023940187
15	0xbcce0b00	-0.02515173
16	0x3ce1f2e9	0.027581649
17	0x38bed8df	9.1003014e-05
18	0x3c8cda99	0.01719408
19	0x3cde7472	0.027155135
20	0x3c4857e3	0.012227985
21	0x3bce1654	0.006289283
22	0x3d85af95	0.0652763
23	0x3d516d29	0.051129494
24	0x3d79c110	0.060975134
25	0xbb31e990	-0.002714727
26	0xbcfe264b	-0.031024119
27	0xbd66e7b9	-0.05637333
28	0x3dae14a5	0.085000314
29	0xbcd6fcf4	-0.026243664
30	0x3d30d178	0.043168515
31	0x3ca0ffbc	0.019653194
32	0xbd18b31c	-0.037280187
33	0x3d7bfd05	0.061520595
34	0x3d852ee1	0.06503082
35	0x3cc02a69	0.023457723
36	0x3d81a05c	0.06329414
37	0x3ad293cd	0.0016065777
38	0x3bc52bbf	0.006017178
39	0xbcfe4d34	-0.031042673
40	0x39d189d7	0.00039966285
41	0x3c9a683d	0.018848533
42	0x3aea0e33	0.0017857015
43	0x3c911aa7	0.017712904
44	0x3d713e9f	0.05889761
45	0xbcfdf7c5	-0.031001935
46	0xbc5ee526	-0.013604438
47	0x3c0c4dfb	0.008563514
48	0x3cad2f3e	0.02114069
49	0x3c4f402f	0.01264958
50	0x3d61c573	0.055119943
51	0x3d84b9c9	0.06480748
52	0x3c8145d0	0.01578036
53	0xbd5274dd	-0.05138098
54	0xbcf99f67	-0.030471517
55	0xbcf1863f	-0.029482959
56	0xbb94b193	-0.00453777
57	0xbcf7e2ac	-0.030259453
58	0x3c42ea72	0.011896716
59	0x3b6d818b	0.0036240544
60	0x3d53efd3	0.051742386
61	0xbc50d178	-0.012745254
62	0x3c94f68f	0.018183975
63	0x3c82e7c7	0.01597966
64	0xbdacd8c5	-0.08439783
65	0x3c9eb810	0.019374877
66	0xbbbc09eb	-0.005738487
67	0xbddf6b9f	-0.10909199
68	0x3cb021c6	0.02150048
69	0xbd0f33d2	-0.03496153
70	0x3d34eaa9	0.044169102
71	0xbd09e0e3	-0.033661734
72	0x3cf18041	0.029480102
73	0x3bc56600	0.0060241222
74	0xbd35e069	-0.044403467
75	0x3d1f8225	0.038942475
76	0xbc6ccf45	-0.014453714
77	0x3b18d8d4	0.00233226
78	0x3d8f9a55	0.070118584
79	0x3c71ae13	0.014750975
80	0xbdb8bb41	-0.09020091
81	0xbcd57a9f	-0.026059447
82	0x3c7864ea	0.015160779
83	0xbd9a6f2f	-0.07540738
84	0xbc9a4a5e	-0.01883429
85	0x3c6df762	0.014524313
86	0x3d5f1581	0.054463867
87	0x3cfeb97e	0.031094309
88	0xbd201324	-0.039080754
89	0x3d05c520	0.032658696
90	0xbccf62bb	-0.025315633
91	0xbc0db679	-0.008649462
92	0xba32c7ea	-0.00068199506
93	0xbcc810d4	-0.024422087
94	0xbc16608c	-0.009178292
95	0x3c275dea	0.010215262
96	0x3c518a0f	0.012789263
97	0xbb850cfb	-0.0040603853
98	0xbb1970f2	-0.0023413268
99	0xbda6a57f	-0.081370346
100	0x3d4859f6	0.04891392
101	0x3c0a038d	0.008423698
102	0x3d15a362	0.036532767
103	0xbd010bf5	-0.031505544
104	0xbcd6a18a	-0.026200075
105	0x3cae0a64	0.021245189
106	0xbd401bc5	-0.046901483
107	0x3d0fb3c3	0.035083544
108	0x3d34ce3a	0.044141985
109	0xbdb39174	-0.08767977
110	0x3ccc23b2	0.024919365
111	0x3dada577	0.084788255
112	0x3ca09dcd	0.019606495
113	0xbd10ab9e	-0.035319917
114	0xbd0a942a	-0.033832707
115	0xbc117c18	-0.008879684
116	0xbcbcc90a	-0.023045082
117	0xbd14e865	-0.03635444
118	0x3cf125f7	0.029437048
119	0xbb9f3403	-0.004858495
120	0x3d61f5a1	0.05516589
121	0x3ce4c03b	0.027923694
122	0x3c1a18e2	0.009405347
123	0x3d806c03	0.062706016
124	0x3d195ddd	0.03744303
125	0xbcc82b61	-0.024434747
126	0x3b4558fd	0.0030112856
127	0xbc6f4279	-0.014603251
128	0x3cd73bc3	0.026273614
129	0xbca30952	-0.019901905
130	0x3d5cd4a0	0.053913713
131	0xbe03fff7	-0.12890612
132	0x3cea6a4e	0.028615143
133	0x3da11cb1	0.078668006
134	0x3d2eb0cf	0.042649087
135	0x3d621d6f	0.05520385
136	0x3d0ecdf4	0.03486438
137	0x3c65c225	0.014023338
138	0x39a89118	0.0003215156
139	0x3d070fb6	0.032973967
140	0x3c1fc456	0.0097514
141	0x3cadf39d	0.021234328
142	0x3d257a22	0.040399678
143	0x3c1fdd7f	0.009757399
144	0x3cf02380	0.029313803
145	0xbcaa256c	-0.020769797
146	0x3d0de7fa	0.03464506
147	0xbe1b271b	-0.15151636
148	0xbd225760	-0.03963411
149	0x3d4f7d89	0.05065683
150	0x3c0cc78e	0.008592499
151	0x3c3eddd1	0.011649565
152	0x3cf30480	0.029665232
153	0xbd22c78f	-0.039741095
154	0xbc6306ce	-0.013856603
155	0xbcc5d0a0	-0.024147332
156	0xbb5d4b0c	-0.0033766655
157	0x3c76e72d	0.015069765
158	0x3a8890d9	0.0010419145
159	0xbc2dc0b7	-0.010605029
160	0xbbef4b3d	-0.0073026703
161	0x3cde1842	0.027111176
162	0xbc87bda0	-0.016569912
163	0xbce53fc7	-0.027984513
164	0x3d20feb2	0.039305396
165	0x3b4ca65c	0.0031227088
166	0x3d269abc	0.04067491
167	0x3c80d3ad	0.015725935
168	0xbc8059c8	-0.015667811
169	0x3c6fb5a3	0.014630708
170	0xbd348654	-0.044073418
171	0xbca39236	-0.01996718
172	0xbd0ba864	-0.034096137
173	0x3d395337	0.045245375
174	0xbc5f80aa	-0.013641516
175	0x3cd8403f	0.026397822
176	0x3dbfdff4	0.093688875
177	0x3d1dd7b8	0.038535804
178	0xbae9ff2d	-0.0017852538
179	0xbc6fe90d	-0.014642966
180	0xbe103a97	-0.1408485
181	0x3cb0130d	0.02149346
182	0xbc9324a3	-0.017961806
183	0x3ca60c66	0.020269584
184	0x3cdb6225	0.026780197
185	0xbd80f3dd	-0.06296513
186	0xbd186569	-0.037206087
187	0x3da6d2be	0.08145665
188	0xbcdf4851	-0.027256163
189	0xbda9c6e3	-0.08289888
190	0x3d3ee6c0	0.04660678
191	0xbc51e37a	-0.012810582
192	0x3d4a1210	0.049333632
193	0x3d83e8d5	0.064408936
194	0xbdce807b	-0.100830995
195	0xbcab7ddc	-0.020934038
196	0x3aacfde6	0.0013198226
197	0xbce30b7d	-0.027715439
198	0x3cdfc54d	0.02731576
199	0x3ca7d0cb	0.020485302
200	0x3d3ac6a7	0.045599606
201	0x3d7cb728	0.06169811
202	0x3cb1927c	0.021676295
203	0x3d121f31	0.035674278
204	0xbca80c1c	-0.020513587
205	0x3d08684b	0.033302587
206	0xbdf3786e	-0.118882045
207	0xbd241b41	-0.040065054
208	0x3ca0d71d	0.019633824
209	0x3d943bec	0.07237992
210	0x3d4c2b0a	0.049845733
211	0x3d35d33b	0.0443909
212	0x3d6a4daa	0.057202972
213	0x3d4e8a2a	0.050424732
214	0xbcad294f	-0.021137862
215	0x3986b32d	0.00025691968
216	0xbcecc3c2	-0.028901938
217	0x3d448032	0.04797382
218	0xbc186bb6	-0.009303024
219	0x3c1b3a51	0.009474353
220	0x3cc7fd86	0.024412882
221	0x3c24a000	0.010047913
222	0xbdb1f07a	-0.086884454
223	0x3c8b94f0	0.017038792
224	0x3dc34af4	0.095357805
225	0xbb0cc6a2	-0.00214807
226	0xbbde15fb	-0.0067775226
227	0xbcad49da	-0.02115338
228	0xbcce27eb	-0.025165519
229	0xbd599230	-0.05311793
230	0xbd3bbecf	-0.045836266
231	0x3cf0f172	0.029412005
232	0xbd34bf85	-0.04412796
233	0xbd51e645	-0.051244993
234	0xbc26e777	-0.010187021
235	0xbd9447d1	-0.072402604
236	0x3bbdcbbc	0.0057921093
237	0x3983c08a	0.0002512972
238	0x3be828d2	0.0070849443
239	0x3bb389fa	0.0054790946
240	0xbcadab8b	-0.021199962
241	0xbd140cf7	-0.036145177
242	0xbd254496	-0.04034861
243	0x3c1a2e4f	0.009410455
244	0x3cae4186	0.021271478
245	0xbd226807	-0.03964999
246	0xbca3a930	-0.019978136
247	0x3d98f4d5	0.07468573
248	0x3c0f7eba	0.008758241
249	0xbd36fa38	-0.04467222
250	0x3d873f8b	0.06603917
251	0xbcb8cfc7	-0.022560013
252	0xbd850319	-0.064947315
253	0x3cf79716	0.03022341
254	0x3cbd8817	0.023136182
255	0x3a836892	0.0010025671
