back_end/model/fraud_model.pth (torch, 191186 bytes, 19 tensors)

model.0.weight f4 [256, 10]
00000000: 8696 aa3e 88aa 5abb be82 2abc 78d7 7abc
00000010: 3839 973b 0f30 4b3c 6200 223e 7fc8 d0be
00000020: b19f 22bd 569a d9b9 a6cc c33d 7337 6bbe
00000030: 120d 12bc 4622 adbd 0271 453c 8aab 49be
00000040: 800b 8c3d 9365 6c3e 95d2 39be 7156 fcbd
00000050: 1526 3ebe c32d 463b d9e3 f0bd 6619 aa39
00000060: cd31 29be 6bb0 6c3c 51e5 bcbd 2ea7 4a3e
00000070: 08cc ad3c 73cf 84be f56a 383d b89e 61be
00000080: e3c4 b23d 5aa7 df3d 7a75 0b3d 2cda 8e3d
00000090: 8abd 2b3c c77f a1be 84da 173e 7175 e43c
000000a0: 3223 843e bda0 8cbd 4291 24bd 5980 023d
000000b0: 7837 2e3c 4114 f13c 3e30 5f3e 472e e0bc
000000c0: d4f0 4b3d 5303 0f3d ea7e 85be 8741 0fbe
000000d0: b8a7 943d b215 f23d 99d8 a2bd ab30 a73c
000000e0: e975 97ba e212 783e f19f 303d e092 a0be
000000f0: 9a5c b83e e225 a73d ace4 a63b c5c3 81bc
00000100: 5354 a4bc f466 62bb 5c23 cb3d bbee e1be
00000110: ecbe 41bc 9335 2e3c dd7d 09be 6333 52bb
00000120: e351 c43a 6ebd a1bb 58e7 f6bc 0b5d c83b
00000130: 0a57 05be 5ff0 673e f82c 923e 3d98 9fba
00000140: d36d 95be 3d38 7dbc f061 f9bc aff0 babc
00000150: 38ff 28bd f141 a6bd 6a08 3abe 50c4 593e
00000160: 580c 46be d3db a53b 20ad 783e 55d4 fc3d
00000170: 8d0e 8cbc 5f08 88bb 3d49 f53c 2c68 b339
00000180: e36f 433e 6c3c fabe 031a c03c 4e77 d73c
00000190: 32a7 073e 1795 abbe 5e2d 6fbd 6f34 3fbd
000001a0: 4184 23bc bf84 303d 40e1 ff3d cd17 27be
000001b0: c59f 04bd d7e5 a13c 5180 933e b741 0dbe
000001c0: 519e acbc 378c 8c3d 5350 fabc 7096 75ba
000001d0: 7ab6 0fbe e4db d0be 0389 ce3b be1d 9cbb
000001e0: 190b f03d 8c0e 0f3e 1a51 9b3d cee2 8cbd
000001f0: 70f5 8f3c 2e69 ed3d 1652 1abd 6b7a 1fbd
00000200: 8ae5 863e 6dac 0d3e cb02 7c3e be88 fdbd
00000210: ca2d 96bc 49d9 993d 6705 21bd 77db 27bc
00000220: a086 06be 153d b6be 3bc6 ff3c 0b5a 06bb
00000230: 9a15 9abe df12 9e3c 0046 c03b f9f7 3dbc
00000240: 6abc 203b a039 143b 348e 83bc 2dc5 7fbe
00000250: a8df bebb 431f c5ba 5dfb 70bc cf8f 7e3e
00000260: 8178 d8bd 5f15 f1bc fa72 6c3d 4b7b 4d3d
00000270: 701f e53c 58b3 92be 563b 46bd c455 f1bd
00000280: e7a3 88be 4ce9 9b3d e0a1 0abc 7146 833d
00000290: 6ee1 4cbd 184a cbbc 7bef b2bd 6939 cbbe
000002a0: c75f 853d dced 8dbc c848 923e 6e72 603d
000002b0: 8b45 993b c334 a0bc a1ef f6bb 5a02 10bd
000002c0: e677 d9bd b024 c3be 9b92 55bd 6ac6 9b3c
000002d0: 7737 acbd 1964 ed3b 0856 423e 4324 3f3d
000002e0: 5990 bdbd 13e0 02bd 826e edbb 1f69 593e
000002f0: 4f6d babd abbe 2cbe 32af 9fbd 1518 cf3e
00000300: 5648 193c a4fc c4bd 9130 fc3c db83 783d
00000310: 5bff ef3d 33a5 8ebe b813 4d3c f20c 5a3d
00000320: ed69 b8be 0a08 06be 0f21 c43d 491d a1bc
00000330: de98 fdbc 0d01 40be bd77 a63d d480 bf3d
00000340: 2eb2 343d 5b10 853d 8084 f73d 85b7 84be
00000350: 02ae 3f3e 0a2d 33be a7da 6fbd 72e5 1a3d
00000360: 0b55 4b3d 54a0 a63e 0598 13be e8a8 cd3c
00000370: 95a4 103e 7694 60be 0b44 0e3d ec70 23bd
00000380: 6179 263c 9b54 193c 122d 12be 6ab9 a83e
00000390: 33c4 53bc 1359 48bc ffa7 903e 3d88 373e
000003a0: 1993 953c 918b 573d a932 2fbb 4b53 233d
000003b0: de82 a1bd 5383 9bbe 35f2 d73d 1d81 213c
000003c0: cc89 8ebe 983c ecbd 7e28 82bd b678 483c
000003d0: 1bf5 7fbd c334 a13d af1a 1cbe fa4a 67be
000003e0: 4519 fcbd dbaf a93d fe98 90be 3f66 323e
000003f0: 5b77 8fbc 692e 243d 21f4 173d 701b cb3b
0.33317965 -0.0033365805 -0.010407148 -0.015310161 0.0046149753 0.012401595 0.15820459 -0.40777966
-0.039703075 -0.00041504455 0.09560518 -0.22970371 -0.008914249 -0.08453803 0.012050869 -0.19694343
0.06838131 0.23085622 -0.18146737 -0.12321175 -0.18569215 0.0030239678 -0.117622085 0.0003244385
-0.16522904 0.014446358 -0.09223426 0.19790336 0.021215454 -0.2593952 0.045023877 -0.22033203
0.087289594 0.10920592 0.03404758 0.06975207 0.010482201 -0.315428 0.14829451 0.027888032
0.25808102 -0.06866596 -0.04017759 0.031860683 0.010633342 0.029428603 0.21795747 -0.027365817
0.04979022 0.03491528 -0.2607339 -0.1398984 0.07258552 0.11820544 -0.07951469 0.020408949
-0.0011555526 0.24225953 0.043121282 -0.31362057 0.3600815 0.081615224 0.005093178 -0.01584042
-0.02005974 -0.0034546228 0.09918854 -0.4412745 -0.0118253045 0.01063289 -0.1342692 -0.0032074086
0.0014978017 -0.004935912 -0.03013961 0.006114607 -0.13021484 0.22650288 0.28549933 -0.0012176108
-0.29185352 -0.015455303 -0.030442208 -0.022819845 -0.04125902 -0.08118046 -0.18167272 0.21266294
-0.19340646 0.0050616055 0.24284792 0.123451866 -0.017096782 -0.0041513885 0.02994215 0.00034219155
0.1908565 -0.48874223 0.023449903 0.026302006 0.13247374 -0.33512184 -0.058392875 -0.046680864
-0.009980262 0.043095347 0.12494135 -0.16317673 -0.03237893 0.019762916 0.28808835 -0.137946
-0.021071585 0.06862681 -0.03055588 -0.0009368425 -0.14034453 -0.40792763 0.006302954 -0.0047642877
0.11720867 0.13970393 0.07583828 -0.06879197 0.017573088 0.11592327 -0.03767594 -0.038935106
0.26347 0.13835306 0.2461044 -0.12379597 -0.01833238 0.07512147 -0.039311793 -0.010245196
-0.13137293 -0.35593477 0.031222453 -0.0020500447 -0.30094606 0.019296108 0.0058677197 -0.011594766
0.0024526366 0.0022617355 -0.016059019 -0.2497756 -0.0058250017 -0.0015039224 -0.014708367 0.24859546
-0.10569859 -0.029429136 0.057726838 0.05016641 0.027969092 -0.28652453 -0.04839643 -0.117839366
-0.26687548 0.07612857 -0.008461446 0.0640992 -0.050019674 -0.024815604 -0.087370835 -0.39692238
0.06512409 -0.017325334 0.28571153 0.05479663 0.0046774796 -0.019556409 -0.00753589 -0.035158493
-0.10618572 -0.38113928 -0.052141767 0.01901551 -0.084090166 0.0072445986 0.18978131 0.04666544
-0.09256048 -0.031951975 -0.0072458396 0.21231507 -0.0910288 -0.16869609 -0.07797088 0.4044806
0.009355625 -0.096185 0.030784877 0.060672622 0.11718627 -0.27860412 0.012516908 0.053235
-0.36018315 -0.13089004 0.09576618 -0.019667285 -0.030956682 -0.18750401 0.08128307 0.09350744
0.044115238 0.0649726 0.12085819 -0.25921264 0.18718722 -0.1749765 -0.058558132 0.037816472
0.04964165 0.32544196 -0.1441346 0.025104955 0.14125283 -0.21931633 0.03473286 -0.039902613
0.010160775 0.00935855 -0.14275005 0.3295396 -0.0129251955 -0.012228268 0.2825317 0.17923065
0.018258618 0.052623335 -0.0026733077 0.039874356 -0.07886289 -0.3037363 0.10544244 0.009857443
-0.27839506 -0.11534995 -0.063553795 0.012235811 -0.06248961 0.078713916 -0.15244554 -0.22587195
-0.12309507 0.08285495 -0.28241724 0.17421816 -0.017512968 0.040083323 0.037098054 0.006198339

model.0.bias f4 [256]
00000000: 82ab e035 571e bab4 5471 2db5 8548 ddb3
00000010: c24a 04b5 bc7c 6234 ce90 6736 ae33 19b5
00000020: a74d 9535 5035 c335 9714 dfb3 f372 f3b5
00000030: 7a9f 3f36 8215 0733 c9ce 4336 01c3 a335
00000040: 640b c7b5 5adf 8136 aa09 bcb4 509c f534
00000050: c5c2 1cb5 1480 6234 524b a7b6 6142 58b4
00000060: 569b 0034 64ce e5b5 a281 cd34 b812 a8b5
00000070: ce67 04b5 17a8 8035 78d5 1435 b48f 85b5
00000080: a343 a134 449f 4233 b488 fbb4 ea2c 04b5
00000090: 4e71 8035 da6a f235 29bf 3634 99f0 4736
000000a0: f05b d634 7ee3 33b6 71fb a4b5 745a 1334
000000b0: 3464 a5b5 7e00 6836 7723 c234 1605 87b5
000000c0: d166 2435 ab41 00b4 adc8 6635 83e5 3a35
000000d0: 24d0 de35 e1c2 99b4 64d5 4c35 d2ee 7535
000000e0: 6c43 93b5 5278 c4b5 3a0b a534 5787 6235
000000f0: 422e 1d35 2b09 4335 ee93 7c35 46a6 c3b4
00000100: 3425 7bb5 e03b 1735 bed9 d3b5 1207 bd34
00000110: b920 ff34 4a8b 7c34 d5e7 d134 0533 9fb5
00000120: 4aa0 8535 a05f fcb3 acdc 02b4 c3ff 6a34
00000130: 5522 b3b4 63d0 0f36 7937 3eb4 e19e 69b5
00000140: a9ff 9db6 08dc af35 b40a 6334 2d13 4cb5
00000150: f24d b134 3ce0 8434 888a b833 aa8a 6435
00000160: dcf6 ccb5 4564 4a35 3caa 1b36 38e6 d234
00000170: 8cc5 75b4 7929 99b6 4858 12b4 e9a9 8435
00000180: de96 0235 ea21 1eb4 f4a0 c935 c82a ba33
00000190: ee29 25b4 55a1 bd33 d0a9 8435 23db 2db4
000001a0: 9a56 a5b5 0ac3 94b4 0471 1635 dd44 4935
000001b0: 75dc 08b5 92d8 89b5 8a84 44b3 44bb c3b4
000001c0: 2b10 64b5 2aef c332 d0a1 4934 0a3b c1b4
000001d0: bc80 fe33 f6c2 c335 70d1 9db5 7083 f334
000001e0: 21f7 a7b6 149a 8035 865b a135 7631 aab4
000001f0: dcaa 0937 fb2b 8f35 1e59 5db4 c0c4 8634
00000200: 3668 f735 0867 c234 1c1b beb3 8890 14b4
00000210: eeed 59b4 e7a2 1335 403b 9935 8bf1 b8b6
00000220: 2577 7734 9762 0534 d397 ceb5 12bd c034
00000230: f2e7 9c35 f26a e433 667c 5f33 1312 1c36
00000240: d04f cab6 f1f2 7235 dd6f a134 f0c7 2232
00000250: 3cdc 54b6 b829 ad33 bd06 4536 1eaa 7735
00000260: 141b 2fb6 a963 cc34 0bb0 3335 4e7c 26b5
00000270: 2b48 58b4 9d81 a4b3 4aaf c7b5 8263 d4b5
00000280: 4668 ac36 b104 5936 485c 9135 4d9a d1b3
00000290: 266e 1db5 8dcb ccb3 6fc2 c434 4064 d2b4
000002a0: 3c81 86b5 9ad5 1fb6 ac27 15b5 f2cf df34
000002b0: 180b a0b4 a6f9 b234 b074 6c32 7894 1534
000002c0: a0e7 0537 88b8 39b5 5673 9435 f8bf 9f34
000002d0: 1035 a434 3131 bdb5 85f4 7435 37a1 aab4
000002e0: 4321 fc33 3233 55b4 ccc3 a735 8784 9fb4
000002f0: de62 8f34 a634 9a35 0971 8736 36b5 0ab5
00000300: c8f0 37b6 4cc3 ee34 e07c 3d35 94f4 27b5
00000310: 12c2 41b6 547c 7cb3 945c 15b5 036c 7b33
00000320: 67ff 1c35 1e91 1b35 6f44 8db5 98a4 f032
00000330: 657b 0b35 43c2 b6b4 30f7 0e31 b1b3 b434
00000340: e0a4 5033 289f 1cb5 6f70 31b4 d922 2835
00000350: fb97 bab5 2e5d 3334 6aea 85b4 8371 1335
00000360: 7379 e934 d593 6cb3 f704 e4b2 e70f 59b4
00000370: 9cc6 06b3 d5ab 4933 5277 6d34 f7a9 9b33
00000380: 4afe d836 4092 9a32 7880 9432 1277 a934
00000390: 35b2 f9b5 2070 cf33 ac13 cbb3 7478 7d35
000003a0: 60c7 d835 f2a7 14b6 105d 1834 7349 68b6
000003b0: 0262 5e34 4ac8 42b4 8c97 7bb4 4d2c 7e35
000003c0: 4f99 f734 ddba 8c34 6bea 68b6 946c fd34
000003d0: 5a73 9234 e750 9037 7a96 0c37 30d9 9d33
000003e0: 544d 6135 90f1 ceb4 00d2 57b4 fb5d f3b5
000003f0: 516e 17b4 a340 9a35 7f26 e9b5 a5e7 04b5
1.6739216e-06 -3.4667275e-07 -6.4612436e-07 -1.0304306e-07 -4.928262e-07 2.1093268e-07 3.450597e-06 -5.7072145e-07
1.1123965e-06 1.4544148e-06 -1.0387992e-07 -1.8138365e-06 2.8554045e-06 3.1451698e-08 2.917763e-06 1.22012e-06
-1.482997e-06 3.870501e-06 -3.502476e-07 4.5748538e-07 -5.8397956e-07 2.1094485e-07 -4.9857563e-06 -2.0140716e-07
1.197744e-07 -1.7121897e-06 3.8278546e-07 -1.2522423e-06 -4.932489e-07 9.585664e-07 5.5444934e-07 -9.951095e-07
3.00378e-07 4.5313996e-08 -4.6851858e-07 -4.923919e-07 9.569719e-07 1.8061503e-06 1.7019615e-07 2.9793357e-06
3.99275e-07 -2.6805496e-06 -1.2292131e-06 1.3723349e-07 -1.2322621e-06 3.457098e-06 3.616112e-07 -1.0059764e-06
6.124438e-07 -1.1944819e-07 8.59737e-07 6.9624383e-07 1.6600866e-06 -2.8640264e-07 7.6306446e-07 9.161714e-07
-1.0971976e-06 -1.4638156e-06 3.0741813e-07 8.4388506e-07 5.855437e-07 7.26565e-07 9.409258e-07 -3.644256e-07
-9.3558924e-07 5.6339013e-07 -1.5784096e-06 3.5209138e-07 4.752126e-07 2.3520002e-07 3.9097964e-07 -1.1861272e-06
9.955922e-07 -1.17520585e-07 -1.2187473e-07 2.1885994e-07 -3.3366328e-07 2.1429958e-06 -1.771531e-07 -8.7030463e-07
-4.7087274e-06 1.3102554e-06 2.1144916e-07 -7.6023827e-07 3.3025532e-07 2.4750068e-07 8.5933664e-08 8.51384e-07
-1.527103e-06 7.5396775e-07 2.319589e-06 3.9283054e-07 -2.288927e-07 -4.5645834e-06 -1.3629426e-07 9.884217e-07
4.8648315e-07 -1.4727235e-07 1.502251e-06 8.669082e-08 -1.5382076e-07 8.8303445e-08 9.884188e-07 -1.6191602e-07
-1.2318662e-06 -2.7709058e-07 5.6043814e-07 7.4978544e-07 -5.0984755e-07 -1.0270326e-06 -4.575535e-08 -3.6457834e-07
-8.4960146e-07 2.2809747e-08 1.8778451e-07 -3.5992008e-07 1.1851213e-07 1.4585373e-06 -1.1758366e-06 4.535791e-07
-5.0057574e-06 9.581586e-07 1.2022072e-06 -3.1700955e-07 8.205618e-06 1.066713e-06 -2.061465e-07 2.51026e-07
1.8433263e-06 3.621028e-07 -8.8524956e-08 -1.3836154e-07 -2.0296258e-07 5.499882e-07 1.1416632e-06 -5.5117466e-06
2.3047012e-07 1.2422457e-07 -1.5392383e-06 3.5900354e-07 1.1690411e-06 1.06365306e-07 5.2034373e-08 2.3256332e-06
-6.0293605e-06 9.050555e-07 3.0069978e-07 9.475102e-09 -3.1718655e-06 8.063529e-08 2.935921e-06 9.2262223e-07
-2.6092794e-06 3.8070473e-07 6.693887e-07 -6.2020706e-07 -2.0142822e-07 -7.6604216e-08 -1.4877671e-06 -1.5824191e-06
5.1381385e-06 3.233825e-06 1.0830199e-06 -9.760388e-08 -5.8647345e-07 -9.536516e-08 3.6649314e-07 -3.918849e-07
-1.002139e-06 -2.3817179e-06 -5.5564556e-07 4.1688287e-07 -2.9810394e-07 3.3336727e-07 1.376354e-08 1.3930719e-07
7.981347e-06 -6.91864e-07 1.1060426e-06 2.9755734e-07 3.0585988e-07 -1.4095914e-06 9.1252906e-07 -3.1782267e-07
1.1740715e-07 -1.9855796e-07 1.2499454e-06 -2.9712484e-07 2.670776e-07 1.1489217e-06 4.0364725e-06 -5.16727e-07
-2.7409278e-06 4.4473052e-07 7.0589704e-07 -6.2568256e-07 -2.8872205e-06 -5.8786398e-08 -5.5641544e-07 5.8538728e-08
5.848619e-07 5.7953173e-07 -1.0525235e-06 2.8014526e-08 5.19611e-07 -3.4041486e-07 2.080423e-09 3.3658355e-07
4.8578727e-08 -5.834613e-07 -1.6525313e-07 6.2635587e-07 -1.3902312e-06 1.6704573e-07 -2.494374e-07 5.492695e-07
4.3487998e-07 -5.5082484e-08 -2.6544951e-08 -2.0215485e-07 -3.137994e-08 4.695524e-08 2.2115753e-07 7.2486664e-08
6.466905e-06 1.7994466e-08 1.7287888e-08 3.1565338e-07 -1.8603811e-06 9.659584e-08 -9.4565024e-08 9.4425127e-07
1.615128e-06 -2.2151476e-06 1.4189959e-07 -3.4613447e-06 2.0711016e-07 -1.8140523e-07 -2.3431329e-07 9.468684e-07
4.6118882e-07 2.6212993e-07 -3.4707143e-06 4.7203923e-07 2.7278548e-07 1.720381e-05 8.379686e-06 7.3503884e-08
8.393156e-07 -3.854625e-07 -2.0099833e-07 -1.8132263e-06 -1.4103104e-07 1.1492706e-06 -1.7371057e-06 -4.951092e-07

model.1.weight f4 [256]
00000000: 5f47 2a3f 3d41 e13e 6bfa db3e 93e9 c63e
00000010: bb0a 243f 886f dc3e 3091 463f 655c 1d3f
00000020: d7d7 103f e791 223f a01a 043f 2f61 2c3f
00000030: 89c1 b43e 29bd 123f c119 533f a7c7 ce3e
00000040: ab69 1e3f 5a59 2f3f 6de2 e83e 0a18 273f
00000050: 5eea dc3e 36c7 023f 1a32 353f 12d7 0a3f
00000060: 2375 0f3f cfbb 163f e232 f03e c5bc 363f
00000070: 77cd 923e bf31 a93e 60ac 093f 2fd3 103f
00000080: 0a12 d73e 5fe6 213f cd96 f53e 00a6 4e3f
00000090: 2b96 3a3f 81a2 243f a7de db3e 16df 233f
000000a0: 10ac 533f 63e9 313f 176f f23e f3cd 273f
000000b0: dfb9 f33e 2ba6 0f3f 7a22 193f ca57 5e3f
000000c0: 04ea 133f d67e f63e 2a1e f63e bad8 113f
000000d0: 7716 f83e a089 123f cc70 f73e 7acd ed3e
000000e0: 9a0a 053f 581a 163f 339d d63e 0814 2f3f
000000f0: 7d62 023f c0cb 1e3f 76e4 ce3e e954 3d3f
00000100: c82e 1f3f e0a5 123f 66fa 2d3f e9ae ee3e
00000110: 7294 243f 86e3 323f e053 113f 55cf 053f
00000120: b120 1c3f 7e58 3b3f f1eb 213f 0459 d73e
00000130: 049b 0d3f 3900 f83e 5ff7 f13e f7e6 f93e
00000140: 1893 473f e5ff 063f 2eb4 083f 0d1c 363f
00000150: acc9 d53e 202f ef3e e3fc 0d3f 9e0e 1e3f
00000160: c632 333f 7708 253f 2b64 223f a6d6 b63e
00000170: 193a da3e bf61 1d3f 92e3 f93e 3871 2d3f
00000180: 38cf 183f 988a fa3e f0b0 1b3f 86e0 fc3e
00000190: 059b d73e 022c f03e f3dd 4a3f b59d e33e
000001a0: 278b 123f f10d 2b3f 4103 183f 88c0 de3e
000001b0: c9d3 363f 0ab8 263f 7627 043f 5c8b cb3e
000001c0: 8ac5 473f 98e4 f23e 8fa9 053f 3433 183f
000001d0: 1ba7 c63e 2495 f83e c41e f73e 9e82 2a3f
000001e0: e004 843f e968 213f 9316 113f c0d7 1f3f
000001f0: 5417 243f 016d 223f 0529 e33e ba70 093f
00000200: 99fa 4e3f c356 173f ce72 333f 674e 093f
00000210: 0875 c23e c241 113f edb5 2a3f 31ea 003f
00000220: f628 163f dfb8 003f 05e7 1e3f 136e 083f
00000230: e67e 413f f764 e63e 9414 583f 5fc9 123f
00000240: e0c1 893f 1a09 153f 3a5f e93e b7e1 e23e
00000250: cf21 163f ddc0 053f a746 493f 108f 183f
00000260: 8982 463f a92b ef3e 48fc f43e 7885 173f
00000270: 8454 143f f4c6 cc3e 6f50 193f f56c f83e
00000280: 04a0 823f d8e2 333f aa84 373f 71d8 ed3e
00000290: ab32 133f 399f 543f 5a74 253f 3ff5 153f
000002a0: 6b33 1f3f cadf c93e a923 0a3f b012 073f
000002b0: 7e3a ee3e bb54 2f3f 374b 0a3f 219e 113f
000002c0: 5d31 f53e aac8 0d3f d5f4 fe3e 5829 0a3f
000002d0: 82fa c53e 46fb 293f 5fd8 0c3f cff5 013f
000002e0: af56 ed3e 6042 ff3e bba3 de3e 917e 023f
000002f0: 7edb 103f 7b60 113f abb4 363f 7033 e43e
00000300: 1b0a fb3e 74e4 0d3f 9611 363f e9e8 123f
00000310: 483d 183f 434e fb3e 54f2 673f f51c 043f
00000320: e88a f03e 6fcb 0f3f e861 133f 4424 d83e
00000330: 8bd3 0c3f 6da5 e23e 63b2 f63e ab76 fe3e
00000340: 8a9f e73e e6ef 203f 1232 be3e fa71 2d3f
00000350: 413a 0b3f eedf d13e fe42 cb3e cbb1 e23e
00000360: 1794 cf3e a6ad bb3e d784 1d3f be31 aa3e
00000370: 5d28 ee3e 1a81 f73e b7a2 313f 44da 0d3f
00000380: e3b6 133f bdb0 313f 56d5 343f 7abd 1d3f
00000390: 1a85 173f eced d13e e17e 163f fe1e e93e
000003a0: 565c 0b3f a095 4b3f 4cfc dc3e 3c6d f33e
000003b0: 1bab 1d3f bbc6 073f 5acd 003f cfde 023f
000003c0: 71a5 0b3f 5924 0a3f 76cd 233f 4c67 fa3e
000003d0: fa61 fc3e 213c 893f 0e35 4c3f e168 f73e
000003e0: 4e3a 003f b2c2 df3e 9d81 af3e 710f 0c3f
000003f0: 2cb0 e33e 8fbc 1e3f d837 263f a45d 2c3f
0.66515154 0.43995085 0.4296449 0.38850078 0.64078873 0.43053842 0.7756529 0.6146911
0.56579345 0.6350388 0.51603127 0.6733579 0.35303906 0.57319885 0.8246117 0.40386698
0.61879987 0.68495715 0.4548525 0.65271056 0.43147558 0.5108522 0.70779574 0.5423442
0.5603811 0.58880323 0.4691382 0.7138179 0.28672382 0.33045766 0.5377865 0.5657224
0.4200595 0.63242143 0.47966614 0.80722046 0.7288539 0.6431046 0.42943308 0.6401228
0.8268442 0.69496745 0.4735038 0.6554863 0.47602746 0.5611293 0.5981823 0.86852705
0.57778955 0.48143643 0.48069888 0.56971323 0.4845464 0.5724125 0.48328245 0.4644583
0.519693 0.5863395 0.41916808 0.6838994 0.5093153 0.6202965 0.40408677 0.7395769
0.6218076 0.57284355 0.679602 0.4661782 0.6428901 0.69878423 0.5676861 0.5226949
0.60987383 0.73181903 0.63250643 0.420601 0.5531466 0.4843767 0.47259042 0.48809025
0.7795882 0.52734214 0.5339993 0.7113655 0.41755426 0.4671564 0.55464 0.61741054
0.6999935 0.6446604 0.63434094 0.3571064 0.4262245 0.61477274 0.48806435 0.67750883
0.5969119 0.48933864 0.6081686 0.49390048 0.42110458 0.46908575 0.7924492 0.44456258
0.5724358 0.6681815 0.59379965 0.43506265 0.7141691 0.6512457 0.5162271 0.3975476
0.78035796 0.47440028 0.5221185 0.5945313 0.38799366 0.48551285 0.4826566 0.66605556
1.0313988 0.63050705 0.5667507 0.62438583 0.64098096 0.63447577 0.44367233 0.5368763
0.8085113 0.5911676 0.70097053 0.5363526 0.37979913 0.56740963 0.66683847 0.5035735
0.5865625 0.5028209 0.6207126 0.5329296 0.75584257 0.44998905 0.844064 0.5733852
1.0762291 0.5821701 0.45580465 0.44312832 0.5864534 0.5224741 0.7862343 0.59593296
0.7754293 0.46712998 0.47848725 0.5918803 0.5794146 0.3999554 0.59888357 0.48520628
1.0205083 0.7026801 0.71686804 0.46454194 0.5749919 0.83055454 0.64630663 0.5857734
0.6218783 0.3942855 0.53960663 0.5276289 0.46529 0.68488663 0.5402102 0.5688191
0.47889224 0.55384314 0.49796167 0.53969336 0.38667685 0.6639904 0.55017656 0.507657
0.46355197 0.49855328 0.4348429 0.50974375 0.5658492 0.5678784 0.7136943 0.44570494
0.49031147 0.55426717 0.71120584 0.5738664 0.5946851 0.49083146 0.9060414 0.51606685
0.46980977 0.5616979 0.5757127 0.42215168 0.5501029 0.44266835 0.48182973 0.4969991
0.45238906 0.62866056 0.37147576 0.6775204 0.54385763 0.40991157 0.39699548 0.4427627
0.4054267 0.3665592 0.6153082 0.33241075 0.4651517 0.48340684 0.6938891 0.5541117
0.5770094 0.69410306 0.70638025 0.61617243 0.5918747 0.41001832 0.5878735 0.45531458
0.5443777 0.79525185 0.43161237 0.47544277 0.6158921 0.53037614 0.5031334 0.5112123
0.5454932 0.5396171 0.63985384 0.48906934 0.492935 1.0721475 0.79768455 0.48322204
0.50088966 0.43703228 0.34278575 0.5471106 0.44470346 0.6200647 0.6492896 0.67330384

model.1.bias f4 [256]
00000000: 6472 4cbe f7d3 3fbd e851 3bbb 6521 71be
00000010: 9588 66be d080 f6b9 5cb8 47be cea3 85bd
00000020: bcee 373d fd54 32be 139b efbe bab2 e0be
00000030: f234 c9bd ea5b bbbe cdd5 8d3d d54c 29be
00000040: 50ff 17be f1a5 8cbe 22b1 fbbd 71af 54be
00000050: c340 37be 5f19 0abe 23b8 84bd 979b 0fbe
00000060: ae1d 21be b5a4 6bbe 68f5 5abe d503 c0be
00000070: f646 663c b5ce 0abe 0a6f adbc 3235 63be
00000080: d3ee e4bd 4ad5 40be 6dc1 8dbe 0447 503d
00000090: 39ee 4a3d 8fb8 16bf 174e 28be 5bfb 89bc
000000a0: 8d51 8bbe 4cc1 dfbe 52fd 37be a47d e4bd
000000b0: e2f4 82be e28e dcbe c638 8abe 0262 88be
000000c0: 5921 00be 78c7 493b a09b 08be 0de4 d7bd
000000d0: b1ca 91bd 1812 cbbd 3095 8cbe 2041 d0bd
000000e0: c6c6 bbbe a715 c8be 7f8d 41be eb60 5dbe
000000f0: c219 42be 7143 84be 3f25 debd e794 63be
00000100: 37d1 cbbe b59f f1be 4ac5 f8be 1398 75be
00000110: 1bf1 bcbe af19 eabe fd98 43be dd9a cd3b
00000120: cf21 a1be e269 91be 5db4 e53c 44d2 36bd
00000130: 1254 48be 9e5c 0bbe 5191 97bd 43fe 10be
00000140: a516 77be 5464 b6be 3d65 71be 7836 55be
00000150: e71f 5abd 2fc9 73be e83a 91be b010 ae3c
00000160: 39d0 dabd b1ff 6abe ba7d 283d fca0 25be
00000170: 2fd7 33bd 483a 1bbe 007e 883d 75fb e0be
00000180: b568 63bc b6d7 3dbe 61bb f2be 4bbc 00be
00000190: 1dbe 97be d502 dfbd 7a37 95be 6c55 57be
000001a0: 9090 fabd 39c6 40be 45fa 18be e9f7 1ebe
000001b0: b1a0 82be 291c dcbe c3ca 73be 751f 0abe
000001c0: d4d4 78be 7b50 32be 4eed 57be 5e07 e6be
000001d0: 1dc0 15be 1ec9 e7bd e260 2cbe daf3 39be
000001e0: ed4c bcbe 64d9 f8bd 2d26 77be e92d 24be
000001f0: dc34 fabe 6600 ffbe 14f6 d8bd a2d0 87be
00000200: 595f 7cbe 6efd aabe d3a5 4ebd c20b 56be
00000210: 508f 43be 475b 89be b18d 46be 81de 2b3c
00000220: fee5 b0bd 15af 19be 3636 8dbe 57eb 1cbe
00000230: b183 05be a392 74be 8c59 adbe c473 50be
00000240: 27f8 c6be 2b43 05be f769 05be 5ab0 ffbd
00000250: 4a8d 16be 67f6 04be 7373 67be 1d89 68be
00000260: 9763 6bbe bfaa 4abe 262d b93b 006a 2cbe
00000270: cada a7be a792 77be 8515 60be 6423 ae3d
00000280: 5683 b9be 410b 1cbe d778 743d 9ec4 4bbe
00000290: 68e3 bebd 97e3 a9be 4a4c e6be 64d1 59be
000002a0: 3ac8 92be 76c9 43be 1029 9abd 0add 34be
000002b0: 3aea f73c de00 d8be b173 0abe 6bda 15be
000002c0: 520e 38be df75 b3be f371 77be c0c1 0cbe
000002d0: 45a4 9abd f45f 11be 4f19 c7bd 578e 8fbe
000002e0: 12ce f0bd 9f29 aebe 499a febd b0ee 96be
000002f0: ca72 14be 621f a8be 8410 b7be e906 4bbe
00000300: 5a3f 7cbe 8516 51be 6566 fbbd 63d5 7dbe
00000310: 2ce2 90be 0a02 85be acb8 a4be 9592 a8be
00000320: 623b c7bd 407e 31be 9d29 b1be 9e30 7ebd
00000330: 63af 17be 9e0c 53be da2b a2be 8dec f3bd
00000340: d81b 74be 9481 90be 768f e7bd 056e 72be
00000350: d32a 0dbe 38da c5bd d58d a3be 1d7c 20be
00000360: 5f47 28bd eef1 f5bd 2489 18be 4468 33be
00000370: 5859 d2bd c048 0bbe ff70 b1be 5960 5bbe
00000380: f6c4 00be 8431 69be c0e9 64be f33a 9cbe
00000390: 17e1 d6bd b40e 47be bc4a debd 7528 4abe
000003a0: 1dfc b53d f357 84be 4e22 4abe 3911 5abe
000003b0: ad37 85bd 767c 44bd 8e80 53be 405e 03be
000003c0: 2739 b7be 1d78 1abd a36d 16be 0547 28be
000003d0: 2d18 a8be f84f e1be 4adf 98be c6bd 94bd
000003e0: 2ca1 efbc b175 bbbd 0bb6 3ebe 32bc 29be
000003f0: d043 f2bd d62a 97be b48a 48be eb59 50be
-0.19965512 -0.046833005 -0.0028582755 -0.23547895 -0.2251304 -0.0004701675 -0.19503921 -0.06525384
0.04490541 -0.17415233 -0.46798 -0.43886358 -0.09824552 -0.36593562 0.06925545 -0.16533215
-0.14843488 -0.27470353 -0.12289645 -0.2077005 -0.17895798 -0.13486241 -0.06480434 -0.14024197
-0.15733978 -0.2301205 -0.21382678 -0.37502924 0.014055004 -0.13555415 -0.021171112 -0.22188261
-0.111783646 -0.18831363 -0.27686635 0.050848976 0.049543593 -0.58875364 -0.16436039 -0.016843488
-0.27210656 -0.4370216 -0.17967728 -0.111567765 -0.25577456 -0.4307776 -0.2699644 -0.26637274
-0.12512721 0.0030789059 -0.13340616 -0.10541544 -0.071187384 -0.099155605 -0.2745757 -0.101686716
-0.3667509 -0.3907902 -0.18901633 -0.21619003 -0.18955138 -0.25832704 -0.10846948 -0.2222477
-0.39808056 -0.4719216 -0.4858802 -0.23983793 -0.369027 -0.4572272 -0.19101329 0.0062745647
-0.31471106 -0.28401095 0.028040105 -0.04463412 -0.1956332 -0.1360955 -0.07400764 -0.14159493
-0.24129732 -0.3562342 -0.23573776 -0.2082156 -0.05325308 -0.23807214 -0.28365254 0.021248192
-0.106842466 -0.22949101 0.041135527 -0.16174692 -0.043906387 -0.15158951 0.066646576 -0.43941846
-0.013879945 -0.18539318 -0.47408584 -0.12571828 -0.29637232 -0.10889212 -0.29143888 -0.2102868
-0.12234604 -0.18825616 -0.1493922 -0.15524258 -0.25513223 -0.42990234 -0.23807816 -0.13488562
-0.24299937 -0.17413513 -0.21086618 -0.44927496 -0.14624067 -0.11317657 -0.16833833 -0.18159428
-0.3677744 -0.12150839 -0.24135657 -0.16033138 -0.48868454 -0.4980499 -0.10593811 -0.26526362
-0.24645747 -0.33396477 -0.05045111 -0.20902923 -0.19097638 -0.26827452 -0.19389988 0.010490061
-0.086376175 -0.15008195 -0.27580422 -0.1532415 -0.13038518 -0.23884062 -0.3385738 -0.20356661
-0.388612 -0.13013904 -0.13028704 -0.12484808 -0.14702335 -0.1298462 -0.22602634 -0.22708555
-0.2298721 -0.19791697 0.005651134 -0.16837311 -0.3278411 -0.24177037 -0.21883209 0.08502844
-0.36233014 -0.15238668 0.059685554 -0.19899222 -0.09320718 -0.3318145 -0.4498008 -0.21271282
-0.28668386 -0.1911982 -0.07527363 -0.17662445 0.030263055 -0.42188162 -0.13520695 -0.14634101
-0.17974213 -0.35050866 -0.24164562 -0.13745785 -0.07550863 -0.1419676 -0.09721624 -0.28038284
-0.11758055 -0.3401613 -0.12431771 -0.2947898 -0.14496914 -0.32836443 -0.35754788 -0.19826855
-0.24633542 -0.20418747 -0.122753896 -0.24788432 -0.28297555 -0.25978118 -0.32172143 -0.32924333
-0.09728123 -0.17333317 -0.3460206 -0.062058084 -0.14812998 -0.20610282 -0.3167408 -0.11910353
-0.23838747 -0.2822386 -0.1130666 -0.23674782 -0.13785867 -0.096607625 -0.31944147 -0.15672345
-0.04108369 -0.12009035 -0.14896065 -0.17520243 -0.10270947 -0.1360197 -0.34656522 -0.21423472
-0.12575135 -0.22772795 -0.22354794 -0.30513725 -0.10492151 -0.19439203 -0.10854098 -0.19741996
0.088859774 -0.2584835 -0.19739649 -0.21295632 -0.0650476 -0.047970258 -0.20654508 -0.12828922
-0.3578579 -0.037712205 -0.1469026 -0.16433342 -0.32830945 -0.44006324 -0.29857856 -0.07262759
-0.029251657 -0.09153307 -0.18624131 -0.16575697 -0.118293405 -0.2952487 -0.19584161 -0.20346801

model.1.running_mean f4 [256]
00000000: 1d93 c63b 2af5 8f3a 71d2 0fbc 3636 833b
00000010: d147 b73b 38a1 1abc 6e28 bf3b 1ceb 5cbb
00000020: 4dbb 74bb 4bdf b13b 3806 c43b 3099 aa3b
00000030: 9758 933a f50a 9a3b 5e0a 0abb 6963 90bb
00000040: 1d80 c6ba 95a2 813b 5434 b2bb 6eb0 0fbb
00000050: d51e b83a 78a4 c93a 3522 abb8 a7b0 f83a
00000060: 5774 aa38 b685 9bbb 34f5 1fbb 3456 6a3b
00000070: 7e3a 7dbb b139 7d39 1d2d 56bb ab56 8d3b
00000080: 3740 543a 079f 8dbb d6c2 283b 5a9b 33bb
00000090: 210f 17bb 69c9 8fbb 090e 253b 527d 71bb
000000a0: 0cf6 c7bb fdaf 59bb 0a98 2a3b eccf 1abc
000000b0: cadb 08bb 59d3 683b c818 953b ad03 893b
000000c0: 49f2 d9ba f2e9 21bc 54cc ddb9 ee72 89bb
000000d0: a0cb 56bb 4aeb 853b 2013 883b 1c63 01bc
000000e0: 3ff9 8c3a b3a5 8f3b b577 ae38 e99f aabb
000000f0: 6b77 96bb cd5d 173b 3953 233a ad0c f6bb
00000100: 989c 6f3b 37cf 5cbb 6dcb 31bb 4cd2 3ebb
00000110: 5bfe 5ebb a974 28bb e67e a43b 5887 97bb
00000120: d598 c2bb 6f1a ffbb 7535 7bbb 99c6 cdba
00000130: dcc8 e4bb 1d97 6c3a ce45 cbbb b836 1d3a
00000140: 5321 7a3b 856c 633b 70f0 393b 1ac9 8e3b
00000150: d599 98b9 a2c7 ad3a 0050 35bb 08c0 ffba
00000160: 370e 3fbb dfd7 abbb 6f39 43bb 3dcf ce38
00000170: 2d0c 8cbb fa2c f3bb 9ac7 c0ba c84f 7a3b
00000180: 25b1 323b ac63 c53a d7d9 aebb 42cf ad3b
00000190: 5739 15bb 9130 28bb ce25 d4bb 1c9e 4eb9
000001a0: d25a 4cba df23 c5bb e405 133b bd65 7fbb
000001b0: cecb edbb 0c93 b53b 7793 d2ba 0530 f139
000001c0: 735a f0bb 1230 18bc 73d2 9cbb 793b c53b
000001d0: 8dbe 5c3b 5483 0bba ad29 db3b f375 d9bb
000001e0: 230d 82bb c8bd 093b aa18 243b dcbc 08bc
000001f0: 364b 8f3b 7e01 40bb 2146 fdba 106f 5c3b
00000200: 6c72 c3bb 13ad c7ba e5a9 71bb 291f bf3b
00000210: 13e4 e43a 0544 d0ba 0536 00bc 765c d7ba
00000220: 4017 13bc 0df4 853b f152 3ebb 1924 123a
00000230: 5a65 1dbb 2338 0f3c 5c19 e1bb dd32 21bb
00000240: 376e 8dbb d71c 13bc 0926 d83b bc04 05bb
00000250: 64d1 c7bb 7a13 bebb 634e c9bb 5c50 623b
00000260: 7aaf 613b 0115 283b 651c 27ba 938a f4bb
00000270: 2af7 4eb9 b0b5 a739 e0e8 27bb 1ccc 0fbc
00000280: 9a2a dbbb b937 9c3b b20a 2ebb 2b19 a83a
00000290: 080e 01bc cfda 0cbc e343 bc3b 355b 82bb
000002a0: 6f3f e23a 03a8 b13b 98b5 33bb a778 2cbb
000002b0: ae1c babb 38b9 24bb 367a 01bc e559 623b
000002c0: d6e6 0f3a 9c5e d43a 4603 f8bb a0fa d1ba
000002d0: d2cb d03b de0b 9dbb d5d7 2aba 6a73 15bb
000002e0: 7800 723b 1283 653b a1f1 c2ba 4a63 833b
000002f0: 8aaa 59bc 9859 0a3c a10c 863b e4c0 a33b
00000300: 9e0c 3dbb 233d f63a 0699 b0bb ef08 9f3b
00000310: 5cf4 bebb 4967 073b 12ac 10bc c3c1 01bb
00000320: ff19 f13a def7 04ba d1ca 963b fb0e 95ba
00000330: 22ea 2c3b c3f2 9abb 8662 dd3b 5d8a f93b
00000340: 7de9 773b b976 9639 a440 be3b abe2 9fbb
00000350: c140 0e3a 065d 783a b8c8 293a 3d2d 283a
00000360: 952b b0bb 429f 563b 38f8 68bb 2edf d939
00000370: 57d7 2cbb e11a 143b 6ab1 a5bb 1a59 05ba
00000380: 690c d7bb 1677 f0bb a2a8 bdbb 56b7 c43b
00000390: 28fc 5cbb be9b 21bb 6424 0dba 7b14 9d3b
000003a0: c134 adbb 3000 f1bb 887c 713a 9ed9 463b
000003b0: d736 b2bb ad94 0fbb 0c1f 953b d37b 78bb
000003c0: 946a 8e3a 34a7 15bc 963d 9b39 a33c d0bb
000003d0: 2148 44ba 50b1 90bb d661 e6bb 02e9 96bb
000003e0: 2773 41bb 33a6 b0bb 4528 f3b7 65ad d5bb
000003f0: c3fc 893a 4215 703b 5e79 a6bb 2d9d 30b9
0.0060600177 0.0010983099 -0.0087782005 0.004004265 0.005593278 -0.009437852 0.005833677 -0.0033709472
-0.0037343085 0.00542823 0.0059821866 0.0052062497 0.0011241612 0.004701013 -0.0021063308 -0.004406382
-0.0015144382 0.003956149 -0.005438367 -0.0021925229 0.0014047275 0.0015384099 -8.160287e-05 0.0018973545
8.127902e-05 -0.004746164 -0.0024407627 0.0035756947 -0.00386396 0.00024149452 -0.0032680698 0.00431331
0.0008096727 -0.004321936 0.0025750897 -0.002740583 -0.002304979 -0.0043880236 0.0025185368 -0.0036848378
-0.006102329 -0.003321647 0.0026030564 -0.0094489865 -0.0020882958 0.0035526364 0.0045500733 0.0041813464
-0.0016627993 -0.009882437 -0.0004230464 -0.004194609 -0.0032775179 0.0040868865 0.0041526705 -0.007897165
0.0010755433 0.0043837666 8.319264e-05 -0.005207051 -0.0045918724 0.002309668 0.00062303577 -0.0075088353
0.0036561843 -0.0033692846 -0.0027129308 -0.0029117046 -0.003402612 -0.00257043 0.0050200103 -0.0046242885
-0.005938629 -0.0077851336 -0.0038331423 -0.0015699446 -0.006981952 0.0009025203 -0.0062033897 0.00059972284
0.0038166835 0.0034702134 0.0028372072 0.0043574693 -0.00029106313 0.0013258348 -0.0027666092 -0.0019512186
-0.002915276 -0.0052442397 -0.0029788872 9.8614466e-05 -0.0042739124 -0.007421133 -0.0014707923 0.0038194526
0.002726623 0.0015059612 -0.005336027 0.005304248 -0.0022769773 -0.0025663713 -0.006474233 -0.00019704591
-0.00077955157 -0.006016239 0.002243393 -0.0038970553 -0.0072569614 0.005541211 -0.0016065676 0.0004600288
-0.007335001 -0.009288805 -0.0047858297 0.0060190526 0.0033682913 -0.00053219986 0.0066883177 -0.006636375
-0.003968851 0.002101766 0.0025039115 -0.008345809 0.0043729795 -0.0029297764 -0.0019323268 0.0033635534
-0.005964568 -0.0015234075 -0.0036874947 0.005832572 0.0017462991 -0.0015889412 -0.007825379 -0.0016430754
-0.008977711 0.004087931 -0.0029041136 0.0005574837 -0.002401671 0.008741411 -0.006869478 -0.0024596967
-0.004316117 -0.008979044 0.006596331 -0.0020297011 -0.0060979594 -0.0058006616 -0.0061433776 0.0034532761
0.0034436868 0.0025647285 -0.00063747755 -0.0074628084 -0.00019737767 0.0003198809 -0.0025620982 -0.008776691
-0.006688428 0.004767385 -0.0026556668 0.0012824883 -0.0078768805 -0.00859709 0.0057453974 -0.003978158
0.0017261336 0.00542164 -0.002742147 -0.0026317032 -0.0056796884 -0.0025134813 -0.0079026725 0.0034538445
0.00054894143 0.0016202512 -0.0075687496 -0.0016020127 0.0063719535 -0.0047926744 -0.0006517147 -0.0022804388
0.003692655 0.003502075 -0.0014873036 0.004009639 -0.013285289 0.008444212 0.004090861 0.0049973596
-0.0028846632 0.0018786531 -0.0053893356 0.00485336 -0.0058274698 0.0020660928 -0.008830087 -0.001979933
0.0018394588 -0.00050723355 0.0046018143 -0.0011372262 0.0026384671 -0.0047286465 0.0067561297 0.007615371
0.003782838 0.00028698685 0.0058060456 -0.004879316 0.0005426519 0.0009474311 0.0006476748 0.00064154324
-0.005376289 0.0032748734 -0.003554834 0.00041555747 -0.002637347 0.002259903 -0.00505655 -0.00050868245
-0.0065627587 -0.007338415 -0.005787925 0.0060033007 -0.0033719633 -0.002465948 -0.0005384146 0.004793701
-0.00528583 -0.0073547587 0.0009211977 0.0030342112 -0.0054386663 -0.0021908686 0.00455082 -0.0037915602
0.0010865503 -0.009134103 0.0002960979 -0.0063548847 -0.00074875547 -0.0044156685 -0.007030706 -0.0046054134
-0.00295181 -0.0053909062 -2.898661e-05 -0.0065209144 0.0010527599 0.0036633764 -0.005080386 -0.0001684322

model.1.running_var f4 [256]
00000000: f046 9d3e fe07 463e 150f 503e aee8 693e
00000010: f6cf 6c3e e2b0 7b3e 68a8 9c3e 2a76 283e
00000020: f6ce 913e 1baa a43e 7a0a 473e fc6a 563e
00000030: 6a63 173e 03ec 283e 7f53 4e3e 1ef7 153e
00000040: 73d7 b03e 6804 123e 98e0 073e a7e8 5e3e
00000050: efd8 233e 534c 833e f2a8 fe3d f0de 0d3e
00000060: e0bb b63e 3fe8 a53e 7847 e63d 0c16 883d
00000070: 027e 673e a63c aa3d 2224 aa3e 07e8 563e
00000080: 2091 283e b2bb d53e 14b9 2e3e 35b1 e23e
00000090: 1ef6 e23e a845 873e 88c2 6b3e d617 b83e
000000a0: 11e9 c83e e196 843e 865a a23d 75bd 763e
000000b0: bc93 343e 2518 3d3e 23df 993e f4dc 0e3e
000000c0: 5856 2e3e 177d 923e d211 1b3e 5a9e c63e
000000d0: f0aa a33e d8b0 3e3e b41e 153e 197a 4b3e
000000e0: 6118 123e 2a40 283e 68ba 563e 79ef bc3e
000000f0: b70c 8d3e 384d 3a3e 557d 023e 6f11 4c3f
00000100: 3561 e83d 8314 8c3e 1b07 773e add3 7d3e
00000110: 4a4e 9b3e f2e6 c23e 90ab 843e e186 073f
00000120: e5a3 a33e a382 0c3f b0f0 813e 19c7 2f3e
00000130: 188f 1d3f fc20 463e 494c 8f3e b73d 4d3e
00000140: 7a6c f73d 4cfe 103e 6dfd 3f3e 2eac 643e
00000150: f398 123e bbda ba3d 2b79 523e c542 e33e
00000160: 622b 843e 0671 3e3f 4e9d b63e b50f 023e
00000170: b063 293e 760e 083f 2569 413e e9e6 403e
00000180: c5fe 8e3e c762 553e 76b2 873e ab60 a63e
00000190: 3f9c 263e e1ee 883e 2291 1c3f 85ae 3b3e
000001a0: 84be 3e3d 2e3e 2e3f ad18 373e 543e 9b3d
000001b0: 0f70 583f 18d0 9a3e 4380 173e e827 053e
000001c0: 2fe2 2b3f 36be 4e3e 1620 263d 018e 7f3e
000001d0: ec84 563e 2766 223e 7404 693e 812e 123f
000001e0: ac19 2c3e 8eab 063e 7c50 943e 4f73 1a3f
000001f0: cf67 183e 6ce8 3b3e 0f67 5d3e d5b3 483e
00000200: c86c b53e 911f be3e ea9b 2c3f 2051 443e
00000210: 3877 193e fee3 5c3e df30 283f c721 1e3e
00000220: 2a94 0e3f 029f d73e cf08 933e eb08 2b3e
00000230: e3e4 843e 230e 663e cf10 403f 9b4f 6c3e
00000240: d6d3 3a3e 6403 0c3f 044a 263e 3f84 2d3e
00000250: 44c3 b03e 1db3 143e b41f e03e 8026 183e
00000260: 7c4d e13d c48f 253e 54c4 843e 3536 343f
00000270: 9d72 2c3e a517 413e c5a3 903e d221 c33e
00000280: d9ee eb3e d530 553e b966 fc3e d3c0 0a3e
00000290: 17b8 4d3e ed3e 633f f97b 983e cc55 893e
000002a0: 361e 883e 0002 1d3e 4f06 f23d bb46 383e
000002b0: 8002 253e e94a c03e 1d4d ad3e 6f32 563e
000002c0: 787e b93d e4d7 4f3e 9ee1 503e fce5 e43e
000002d0: 3a94 2f3e 7f0a 083f 2aca ae3e 719e 3c3e
000002e0: c9d9 543e 8c6d 423e a853 533e ab4f 943e
000002f0: 2074 de3e a0e7 b73e 6543 423e 4746 903d
00000300: fde3 5e3e 0595 b23e 2645 ec3e bb90 743e
00000310: d3e0 c03e e206 4a3e 678f 5d3f 14a1 7e3e
00000320: 2655 493e d897 553e 7b94 913e 61b1 623e
00000330: 293f 343e ad08 703e c030 813e 96a0 b33e
00000340: 103b 1f3e 48ae ed3d 0d94 3d3e 3e70 253f
00000350: c48d 5e3e 2228 013e f755 fd3d 5d46 333e
00000360: 198e 453e 39b7 a63e da06 c73e f98c cc3d
00000370: e422 0f3e da9d 883e cf77 283f 5c6f 6a3e
00000380: 5b34 333f 1c17 143f 0411 093f fe25 ad3e
00000390: ac6d 5f3e f7c3 263e d8ca 1c3e 360b 443e
000003a0: 663b f43e cbfa 343f 048c 733e bbec fb3d
000003b0: 09f7 033f e621 a43e 3441 103e dca0 893e
000003c0: 21a8 353e f304 a53e 2b1b 163e 9654 573e
000003d0: ab86 4a3e b2ca 4e3e 995c 2c3f 3628 f33e
000003e0: f17c f83d cad0 533e b96a de3d c76b 5c3e
000003f0: 006b 113e 432e 593e 2af1 f33e 54ad a23e
0.30718184 0.19338986 0.20318253 0.22842667 0.23126206 0.24579194 0.30597234 0.16451326
0.2847821 0.3216103 0.1943759 0.20939249 0.14784017 0.16496281 0.20149039 0.14645049
0.34539375 0.14259493 0.1326927 0.21768437 0.16000722 0.25644168 0.124345675 0.13854575
0.35690212 0.32403752 0.112441 0.0664483 0.22606662 0.08312349 0.33230692 0.20986949
0.16461611 0.41744763 0.17062789 0.44275823 0.44328398 0.2642033 0.23023427 0.35955685
0.39240316 0.2589636 0.07927422 0.2409571 0.17634481 0.18466242 0.30053052 0.13951474
0.17025125 0.2861106 0.15143517 0.38792688 0.31966352 0.18622148 0.14562494 0.19870795
0.14267112 0.16430727 0.20969546 0.36901453 0.27548763 0.18193519 0.12743123 0.797141
0.11346666 0.273594 0.24123804 0.24787779 0.30333167 0.38066822 0.25912142 0.52940184
0.3196098 0.54886836 0.25378942 0.17165793 0.6154647 0.1934852 0.27987888 0.20043074
0.12081237 0.14159507 0.18749018 0.22331306 0.14316158 0.09123751 0.20554034 0.4438688
0.25814348 0.7439121 0.3566689 0.12701304 0.16541934 0.53147066 0.18887766 0.18838085
0.2792875 0.20838462 0.26503342 0.32495627 0.1627054 0.2674475 0.61158955 0.18328293
0.04656841 0.6806363 0.17880507 0.075802475 0.8454599 0.30236888 0.14795022 0.13003504
0.67142004 0.20189747 0.040557943 0.24956514 0.20949143 0.1585928 0.22755605 0.5710221
0.16806668 0.1315138 0.28967655 0.60332197 0.1488335 0.1835038 0.21621345 0.1959985
0.35434556 0.37133458 0.67425406 0.19171572 0.14986885 0.21571347 0.6569957 0.15442573
0.5569483 0.421135 0.28717658 0.1670262 0.25955877 0.2246633 0.7502565 0.23077242
0.18244871 0.54692674 0.16239172 0.16944979 0.34523976 0.14521451 0.43774188 0.14858437
0.11001107 0.16168123 0.25931036 0.70395213 0.16840596 0.18856676 0.28249946 0.3811174
0.46080664 0.20819409 0.4929712 0.13550119 0.20089756 0.8876789 0.29782084 0.2682327
0.2658555 0.15332794 0.118176095 0.17995732 0.16114235 0.37557152 0.33847895 0.20917676
0.09057325 0.202972 0.20398566 0.44706714 0.17146388 0.53141016 0.34138614 0.18419816
0.20786203 0.18987101 0.20637381 0.28967032 0.4344797 0.35918903 0.18971021 0.07044654
0.21766658 0.34879318 0.46146506 0.23883335 0.37671527 0.19729188 0.8654694 0.24866134
0.19661388 0.20858705 0.28433594 0.22137977 0.17602219 0.2344081 0.25232506 0.35083455
0.15549874 0.11605507 0.18513508 0.64624393 0.21733767 0.12612966 0.12369912 0.1750731
0.19292487 0.32561663 0.38872415 0.09987826 0.13978153 0.2668293 0.65807813 0.22894043
0.70001763 0.5784776 0.5354159 0.33818048 0.2181918 0.16285692 0.15311754 0.19144902
0.47701567 0.7069518 0.2378388 0.12301012 0.5154882 0.32057112 0.14087373 0.26880538
0.17739917 0.32230338 0.14658801 0.2102836 0.19777934 0.2019451 0.6732879 0.47491616
0.12133206 0.20685115 0.108601995 0.21525489 0.14200974 0.21209054 0.4764493 0.31772864

model.4.weight f4 [128, 256]
00000000: f61d 90bd cf9c 103c 388a c13b 8ff1 b9bc
00000010: f612 59bb bdac 663d 50c8 3dbb c674 0b3d
00000020: 9cbc ca3c 4495 cebc 514d 9dbd 9226 b3bd
00000030: f38c a63c 38c0 afbd d8c4 083d a44b 4e3d
00000040: c1b7 bc3b 9219 15bd 3b3e 49bd 5cf3 613d
00000050: d5ab da3c 41eb f33b 07e3 e33c aad0 9b3c
00000060: 610c 76bd 06bf ebbd a6f7 b43d e2f8 2abc
00000070: 8fd4 c93c fa70 c8bc c776 38bd f424 99bb
00000080: 41d2 9bbc 7fa0 40bd fefe 4b3c 1744 833b
00000090: 6f20 b43c 00e4 c5bb cd75 9bbd 1fe7 593d
000000a0: d7e8 91bc b67f 1ebe ae70 413d f2b0 753d
000000b0: 853e ce3d a06e d6bd d33b 373c 0874 3bbc
000000c0: 0f71 f73d 93d2 ccbd 00ab 3fbc 7649 d53c
000000d0: 7938 803c 5181 5dbd 77e6 553d 6235 a1bb
000000e0: 294d fd3c f941 7abd a101 e3bc 4a02 e13a
000000f0: 4955 743c 47a1 00be fe76 eebc 42d7 4eba
00000100: 6f06 5a3c b14c 4ebd 2c0b 6ebd 93aa 523c
00000110: 1b2e f6bd 6336 a6bd c4da 8f3d 43a8 3ebd
00000120: ca28 bbbc f0a0 563c 72f8 e13c b90f 55bc
00000130: b99a e83c 5c8d 193d dfda bbbc 7c4d b93c
00000140: 6ac0 b33b 7e81 823c 020d f93d a3e4 ebbc
00000150: 0d5d 86bc 642f 1cbd 5d69 033d 35d1 1b3d
00000160: 96ec 21be 3394 db3c 4fe3 923c bbaa 803c
00000170: 5aad f8bb a388 f83a 03bc 953c 9b51 d2bc
00000180: 92dd 51ba 90c1 f53c aeb4 03bc ec79 873c
00000190: 7e4d 0dbd 08e1 de3b 18b4 edbc 06cf 21bd
000001a0: 0922 12bd c80f 74bc bc36 483b b701 c0bd
000001b0: d3cb b0bd 2751 1abd 8e1c 883d ac6c 41bd
000001c0: 5b42 cdbb 5a09 afbd 0026 34bd 943a 87bd
000001d0: bb6c 913d add3 16bd 8344 bf3b 601d 03be
000001e0: d135 58bd 67eb b03b 7fbd aabd 1ea8 8e3c
000001f0: 384f 6cbd 0bec a5bd f5bf 983c 5df7 d33d
00000200: 35cc 3bbd 5382 9fbd 327e f93b 7e50 ca3d
00000210: baf2 05bd d9c6 f73c 8c04 4fbd 8362 5c3d
00000220: e310 88bc d7c3 bc3c e03e cd3d 48e0 c73b
00000230: 1270 f6bd 2a60 f2ba db48 ab3c 75e5 b7bd
00000240: 9bed 95bd be04 883c 1509 4bbd 8cd2 6bbd
00000250: 571f 9d3d ae71 dabd 8136 bfbc c5c5 49bc
00000260: fb35 923c 8934 5cbd 995e 533b 1e68 30bc
00000270: 8d0c 923c 5752 073d e111 e2bd aa2c 4e3c
00000280: 4d7b 40bd 5957 b0bb c41e 003d 9586 863d
00000290: 44a2 ffbc 46fb 83bc 1bf8 1dbd 7642 9cbd
000002a0: 4d81 9abc 7f44 22bd 89f8 39be 079c cabc
000002b0: 1e48 05bc 2254 2dbd 9377 64bc 2e5d bc3c
000002c0: 4ecc 293d 470b 05be d856 123d f6b5 10bc
000002d0: b358 093d 4e58 af3d f2ec 4b3d 2aff 02bd
000002e0: e553 b4bd 9630 86bc afff 093d e9ff cb3b
000002f0: 9b5a bebb bb96 0fbc 6f48 c7bb dfff 2bbd
00000300: 3e55 7cbd 5c7d b3bc 2a75 a6bd 9dd9 fbbd
00000310: 25a6 babd 7dde 2b3d 6ea4 75bb 4dca 9bbd
00000320: e0f8 13bd 79fb b43d 4a6b 3b3a fe5f 413d
00000330: 9e4c 8abd a6c3 753d d887 f4bc a5ca bc3d
00000340: 7a98 94bd d7cc cb3b 724f 15ba 1619 4f3d
00000350: f84d e2bc c142 0f3c 32c3 e5bd ba1d 2c3d
00000360: 6deb 15bd 33af 253c c8e4 babd 8b15 ba3c
00000370: a8a3 21bd b3b8 59bd 0f07 55bd 265d b7bd
00000380: 6826 70bd ed7a 8bbd 3388 89bd 7124 473b
00000390: 67d3 0dbb 39e9 7a3d 47d6 16bc 4a69 debc
000003a0: 7cb3 b23c 592c 91bd 684f 5cbb d61e 633d
000003b0: ef32 e83c 82c6 0fbc 0b20 363d b09d 07bd
000003c0: 8284 6e3c 69a5 1bbd 3c38 9f3c 7832 20bd
000003d0: 07b5 fa3c 08f4 3abd c34b 27bd c31f b9bc
000003e0: 20a4 ccbc ed3e 8ebd a226 05bd e687 433d
000003f0: d5f3 543d 06e9 0e3d 00f9 fa3c 283c eb3c
-0.070369646 0.008826449 0.0059063695 -0.022698192 -0.0033122874 0.05631708 -0.0028958507 0.03404691
0.02474814 -0.02521766 -0.076807626 -0.08747591 0.020330882 -0.08581585 0.03339085 0.050365105
0.00575921 -0.03640134 -0.049131613 0.055163726 0.026693264 0.007443816 0.027818216 0.019020397
-0.0600704 -0.11511044 0.08836298 -0.010435315 0.024637489 -0.024467934 -0.04503515 -0.0046735946
-0.019021155 -0.04702806 0.012450932 0.0040059197 0.021988122 -0.0060391426 -0.07590828 0.05319893
-0.017811222 -0.15478405 0.0472266 0.0599832 0.100705184 -0.10470319 0.011183697 -0.011441238
0.12082111 -0.10001101 -0.011698484 0.026036005 0.015651928 -0.054078404 0.05222174 -0.004919694
0.030920582 -0.061098073 -0.027710738 0.001716682 0.014912912 -0.12561522 -0.029109474 -0.0007890352
0.013307198 -0.050366107 -0.058116123 0.012858051 -0.12020513 -0.08115842 0.07024148 -0.046547186
-0.022846598 0.013099894 0.027584288 -0.013004237 0.02839409 0.037488326 -0.022931514 0.022619955
0.005485584 0.015930887 0.12160684 -0.028795546 -0.016401792 -0.038131133 0.032082904 0.038041312
-0.15812907 0.026804065 0.017930655 0.01570641 -0.0075890245 0.0018961619 0.018278128 -0.025673678
-0.0008005734 0.029999524 -0.008038683 0.016537629 -0.03449773 0.006801728 -0.02901654 -0.039504074
-0.03567699 -0.014896341 0.0030550202 -0.09375327 -0.086326264 -0.03767505 0.066460714 -0.04722278
-0.0062640137 -0.085467055 -0.043981552 -0.0660297 0.07100817 -0.036822964 0.0058370247 -0.12804174
-0.0527857 0.005399156 -0.08336925 0.017414149 -0.057692736 -0.08101662 0.01864622 0.10349915
-0.045849044 -0.07788529 0.0076139206 0.09878634 -0.032702185 0.030246185 -0.050541446 0.053804886
-0.016609615 0.023042602 0.10021758 0.0060997345 -0.120330945 -0.0018491794 0.020908764 -0.08979312
-0.0732071 0.016603824 -0.04956921 -0.05757384 0.07671993 -0.10666214 -0.02334142 -0.012315218
0.017848006 -0.05376104 0.003225243 -0.010767011 0.01782825 0.03303751 -0.110385664 0.012583891
-0.04699259 -0.0053815064 0.03127934 0.06568638 -0.031205304 -0.016111027 -0.03856669 -0.07629864
-0.018860484 -0.039616104 -0.18161215 -0.024732603 -0.00813487 -0.042316563 -0.013944524 0.02299365
0.041454606 -0.12992583 0.035727352 -0.008832445 0.033531856 0.08561765 0.049786516 -0.031981625
-0.08805064 -0.01638059 0.033691105 0.006225575 -0.005809141 -0.008763964 -0.006081633 -0.041992065
-0.06160473 -0.021910362 -0.08127816 -0.12297366 -0.09113721 0.04196023 -0.003748204 -0.07606945
-0.036126018 0.08837027 0.0007149471 0.047210686 -0.06752895 0.060001038 -0.029849932 0.09218339
-0.07255645 0.006219487 -0.0005695737 0.050561033 -0.027625069 0.008743943 -0.11218871 0.042020537
-0.036601473 0.0101125715 -0.09125668 0.02271535 -0.039462715 -0.05315466 -0.052008685 -0.089533135
-0.058630377 -0.068105556 -0.06715431 0.003038671 -0.0021640898 0.061257575 -0.009206361 -0.027149815
0.0218141 -0.07088537 -0.0033616666 0.05544933 0.0283446 -0.008775355 0.044464152 -0.033109367
0.0145579595 -0.037999544 0.019435994 -0.03911063 0.030603899 -0.045642883 -0.040843736 -0.022598153
-0.024980605 -0.06945596 -0.032507546 0.047737025 0.05199035 0.034890197 0.03063631 0.028715208

model.4.bias f4 [128]
00000000: da7d f8b6 02b8 e8b5 3e2d 9bb5 3037 10b5
00000010: 7a23 b3b5 adf8 fab5 f392 9bb6 008f 05b6
00000020: a422 cfb3 208f 19b5 c6cd e9b5 e090 5ab6
00000030: 4e4c d836 4d17 28b5 765f 32b6 e06f 2532
00000040: 8063 2835 0ca7 adb4 e430 beb5 fab0 8b36
00000050: 0b78 8336 8aa0 4235 922c 56b6 bbe3 34b5
00000060: 072f 9136 2148 9c36 240a e1b6 ff0b 2db5
00000070: e61f 2f35 2028 40b6 91c2 7d36 9fe3 9236
00000080: a6ce c8b6 569c 1cb5 11dd ceb6 41c4 dc36
00000090: 6263 c1b5 a200 4cb6 de4e c636 48ac cf34
000000a0: 2952 e2b6 ee58 9734 47d5 c335 0c82 6db5
000000b0: 0d63 1436 97e3 1536 2432 f8b6 02e4 54b6
000000c0: 991c fdb4 cc02 37b4 809b fa35 fbfc 1636
000000d0: 195e 19b6 aaf0 eeb5 ebb6 3cb6 f621 1c36
000000e0: 216c 1a35 a100 46b5 fb14 d436 9ef9 bc36
000000f0: 2583 76b6 e426 b4b4 e040 48b4 f753 4d35
00000100: c449 67b6 9738 f435 2265 b2b6 69dc feb6
00000110: 249d 1236 0a6d 03b7 de9d 0fb6 d35e 6135
00000120: 9071 9d36 720f 38b6 18de dab5 8412 c235
00000130: faed 9db6 c9fb 18b5 9b59 31b7 4162 c0b5
00000140: 3c59 d136 5418 3134 302a 8b36 9c4f a734
00000150: 36cb b8b6 082e a433 0014 22b5 26b2 fc35
00000160: 01dc f0b6 36d5 16b5 f9e7 58b5 00a9 6bb6
00000170: d238 9fb6 ade6 37b5 8b66 1f36 e6af 64b6
00000180: 8b89 6f36 203e da33 70a0 8535 6b56 2b35
00000190: ca27 5236 02a5 9136 eb74 d9b5 5803 c5b5
000001a0: 6813 45b4 b307 a2b6 7271 a536 eda0 df36
000001b0: e0eb 8635 6c24 c935 6335 3936 6e57 b135
000001c0: da2a 93b5 261b f4b5 7ece 01b7 2d14 2f35
000001d0: a8d4 a6b5 4c40 77b5 c987 8fb5 ead6 9b35
000001e0: b39e 26b5 fba6 9a36 18b1 cb33 93ff df36
000001f0: 0434 68b4 e309 8fb4 bec6 20b6 e998 8436
-7.405627e-06 -1.73389e-06 -1.1561567e-06 -5.372449e-07 -1.3346864e-06 -1.8698826e-06 -4.636467e-06 -1.9901781e-06
-9.64549e-08 -5.7205216e-07 -1.7419741e-06 -3.256886e-06 6.4461847e-06 -6.2618784e-07 -2.6579633e-06 9.6297015e-09
6.272967e-07 -3.2345304e-07 -1.4170332e-06 4.1631256e-06 3.918079e-06 7.2504247e-07 -3.1914428e-06 -6.7386617e-07
4.3268114e-06 4.657559e-06 -6.706703e-06 -6.446498e-07 6.5239e-07 -2.8633585e-06 3.781319e-06 4.3776377e-06
-5.9845215e-06 -5.834203e-07 -6.165014e-06 6.579358e-06 -1.4408545e-06 -3.0398737e-06 5.910041e-06 3.8682106e-07
-6.7448896e-06 2.8190647e-07 1.4590704e-06 -8.8478623e-07 2.2111374e-06 2.2335205e-06 -7.396813e-06 -3.172318e-06
-4.714573e-07 -1.704422e-07 1.8671708e-06 2.2498996e-06 -2.2853549e-06 -1.7802424e-06 -2.8120655e-06 2.326558e-06
5.752682e-07 -7.3761663e-07 6.320535e-06 5.631896e-06 -3.6733193e-06 -3.355591e-07 -1.8650053e-07 7.6490636e-07
-3.446462e-06 1.8195886e-06 -5.316587e-06 -7.595449e-06 2.1847163e-06 -7.833596e-06 -2.1400551e-06 8.395702e-07
4.692185e-06 -2.7427127e-06 -1.6306903e-06 1.4459515e-06 -4.7066687e-06 -5.699081e-07 -1.0570885e-05 -1.433371e-06
6.2390736e-06 1.649326e-07 4.147434e-06 3.1164097e-07 -5.507284e-06 7.645218e-08 -6.0378807e-07 1.8827311e-06
-7.178169e-06 -5.618962e-07 -8.0803835e-07 -3.51161e-06 -4.745184e-06 -6.850849e-07 2.3752534e-06 -3.4077034e-06
3.5693836e-06 1.01627165e-07 9.955966e-07 6.382822e-07 3.1315599e-06 4.340546e-06 -1.6201788e-06 -1.4678617e-06
-1.8354115e-07 -4.8288725e-06 4.93059e-06 6.664652e-06 1.0052427e-06 1.4986267e-06 2.7598223e-06 1.3212973e-06
-1.0964825e-06 -1.8187318e-06 -7.737077e-06 6.522194e-07 -1.2429855e-06 -9.2108235e-07 -1.0693849e-06 1.1610948e-06
-6.2070757e-07 4.6089967e-06 9.485137e-08 6.6756706e-06 -2.1625607e-07 -2.664302e-07 -2.395754e-06 3.9517076e-06
