back_end/fraud_model.pth (torch, 190781 bytes, 19 tensors)

model.0.weight f4 [256, 10]
00000000: 8147 17be 076e 203e d1c0 af3c 553b 97bd
00000010: 4d62 bdbc e0a8 773c f05e cb3c 9555 e43c
00000020: 8408 a23d 49f5 143d 2bba 93be 4f89 69bd
00000030: 7204 adbb 674e c0bd 5e13 d13a 5af8 0cbd
00000040: d3fb 893e 1591 a93c 649a 053e 84bb 98bb
00000050: 52c9 4bbd 5335 06be 0371 e83c 6956 0a3b
00000060: 86ea 623d d88a d43c cdc2 7b3d 10c2 283e
00000070: f789 08be 04ff b13c d17c dfbd 1727 1a3e
00000080: e107 413c 8922 f03b f1f0 413d d8b6 013c
00000090: 8686 093e 92ca 3e3d 0887 5fbe d50b 99bc
000000a0: a17b 0abd f28a a43d cb16 3cbd 697d 7d3d
000000b0: f036 29bc b902 a73d 24c8 c5bd 2412 b6bc
000000c0: 8ead 8fbd 5b9a 973c 75c1 df3d b771 c03c
000000d0: a77f e5bd 8033 adbc 7c8b e73d b5c8 0d3e
000000e0: 4e49 b43d a47f 84be d7ea cf3d d841 93bb
000000f0: 22e2 b03d df94 3ebe 469c 953c 176b 9e3d
00000100: 5d27 17bd fd33 113c d4b6 f7bd ad08 05be
00000110: 4fde bbbc 6189 b83d f26d 8bbb 55f2 fdbc
00000120: 5164 86bd 7638 e0bc 8352 c3bd a63e d33c
00000130: f0b9 d6bd d65c 903c c666 08bd 2b0c 913d
00000140: c0de 143d ef61 2cbe f70e 603d 6eca b1bd
00000150: 631a 843d 23e7 a13d 900c 983d 89e1 45be
00000160: e327 0bbe 35fb ed3d 23d2 f83d c73c 623e
00000170: 6cc9 7cbd 7f7e 993d 321f 5ebc 2e35 b8bc
00000180: a8a8 e5bc eab7 8e3d f264 31be 988d 3c3d
00000190: 3ca7 4fbd be19 c73d 61ea b73c 8aa6 e03b
000001a0: 0ff0 c9bb b10a 183d 86ee d4bd 1b5c 47bd
000001b0: da9e 3c3e 7989 a0bc 6fbb 79bc 8ca9 a9bc
000001c0: f403 b0bd dca6 92bc 3667 debc 3db3 6b3c
000001d0: 3412 38bd dc3e 4a3d fc46 babd 1477 15bc
000001e0: 6e1a 1ebe 9297 82bd 65b5 d03c 90a8 a2bb
000001f0: a220 e73b 5b45 583d d280 27be 97f9 21bc
00000200: d1c9 383d 34f6 b23d c5e1 12bd 9220 f2bd
00000210: 83e3 4c3d fd58 b0bd cab7 8abd 64c0 b23d
00000220: 749b df3d 0439 e73c 944c edbd ac35 f43d
00000230: f866 b6bc d21a 363d a9cc 80bc 1d77 ddbc
00000240: 045c b1bc d673 17bc d8a3 03bd e63c ad3c
00000250: 5bc6 e0bc 8cea 74bb 3796 48be 1e42 9e3d
00000260: 8f17 87bc e1f0 fcbb 96ba e23a b344 31bd
00000270: 02c1 0a3e d357 973d a1c4 04be 0866 41bc
00000280: 5f6c 4ebd 159c 86bd 2f8a 053d cbdc 23ba
00000290: 7520 40bc fb53 6bbd d11e 17bc c3d6 013e
000002a0: f8b3 233e 38f8 13bd cb9e 513c 0e0d c7bc
000002b0: ad7f 6a3d 9f40 353d b02e 183d ff8a 15bd
000002c0: fea0 25be d554 00be 8135 53bd ccf5 2f3c
000002d0: 65c5 01be dec2 553c e55f b53c 8276 5fbc
000002e0: 7360 8e3b 735f d53c af52 edbd c12f dfbd
000002f0: c043 043e a085 c8bb c4ab b53d 8474 f43c
00000300: 1aaf 7b3d 09f7 f83c 9823 adba 0463 9a3d
00000310: 5cde 443e 90da 28be 0b1a 833e db21 0ebe
00000320: bcd9 d0bd 940b 15be 9597 e7bb 9107 9bbc
00000330: 55ba 9bbc e603 5c3a 6a3d 0dbe ce99 d0bd
00000340: b293 e8bd eed5 5c3d 107d 603c 58ec 963d
00000350: 127a b4bd 9823 763d 8cdb 453d 0336 afbc
00000360: e261 353c 00f2 b3bd cc8a f1bd b9ac b23d
00000370: bba8 0e3e 3dca 58be 74e9 1bbb c71b aebd
00000380: 0a87 7bbd 4831 a23d c199 cbbd 8d71 2bbe
00000390: 665e f8bc 54a3 503d d480 f33c c0a7 eebd
000003a0: e373 0e3d 4c37 913d a327 4ebd deb6 adbd
000003b0: 6dbe 023b f38f 43bd 7cec fa3d 1e9b c53c
000003c0: 0f7e e2bd 16c2 fdbb 2bda e53c ab89 a8bb
000003d0: 019e 683b ce32 183a 69c0 64bd af05 9ebe
000003e0: ff3a c2bc 3c78 803c 3733 9e3d e079 b4bd
000003f0: 7aff 48bd e1bc a73d 2ba6 b83c eb83 753d
-0.1477337 0.15666972 0.021454247 -0.073843636 -0.023118163 0.0151159465 0.024825543 0.02787284
0.079117805 0.036366735 -0.28852972 -0.057015713 -0.005280071 -0.09389954 0.0015951206 -0.034416534
0.2694994 0.020699063 0.13047177 -0.0046610255 -0.04975254 -0.13106279 0.0283742 0.0021108633
0.05539944 0.025945112 0.061465073 0.16480279 -0.1333388 0.021728046 -0.10912479 0.15053974
0.011781664 0.0073283357 0.04734892 0.0079171285 0.13430223 0.046579905 -0.21828854 -0.0186824
-0.033809308 0.08034314 -0.045920175 0.06188718 -0.0103280395 0.08154816 -0.096573144 -0.022225447
-0.07015525 0.01850622 0.10925571 0.023491723 -0.112059884 -0.021142721 0.113059014 0.13846095
0.08803044 -0.25878632 0.10152214 -0.004493933 0.086368814 -0.18611477 0.018262994 0.077352695
-0.036902774 0.008862493 -0.120954186 -0.12991591 -0.022933153 0.09010578 -0.00425505 -0.030999342
-0.065621026 -0.027370673 -0.09537222 0.025786709 -0.104846835 0.017622393 -0.033301137 0.07082399
0.036345243 -0.16834234 0.05470177 -0.086811885 0.06450345 0.07905414 0.07424271 -0.19324316
-0.13589434 0.116201796 0.121494554 0.22093497 -0.06171553 0.0749483 -0.013557242 -0.022486296
-0.028034523 0.069686726 -0.17323664 0.04603347 -0.050696597 0.09721707 0.022450628 0.0068557905
-0.0061626504 0.03711957 -0.10397057 -0.048671823 0.18419972 -0.019596802 -0.015242442 -0.020710729
-0.08594504 -0.01790183 -0.027148824 0.014385995 -0.044939235 0.049376354 -0.090955704 -0.009122629
-0.1543977 -0.06376566 0.02547712 -0.004963942 0.0070534507 0.052800518 -0.16357735 -0.009886167
0.045114342 0.08738366 -0.03585984 -0.118226185 0.05002166 -0.08610723 -0.06773336 0.08728102
0.10918322 0.02822543 -0.11586872 0.119242996 -0.022265896 0.04445917 -0.01572259 -0.027034337
-0.021650322 -0.009243926 -0.032138675 0.021147203 -0.027438333 -0.0037371246 -0.19588552 0.077274546
-0.016490726 -0.0077191447 0.0017298039 -0.043278407 0.13550189 0.07389798 -0.12965633 -0.011804111
-0.05039632 -0.06572739 0.032602485 -0.0006250857 -0.011726488 -0.057453137 -0.009223656 0.12679581
0.15986621 -0.03612539 0.012794207 -0.024298217 0.057250667 0.04425108 0.0371539 -0.03650951
-0.16174695 -0.12532361 -0.051564697 0.010739755 -0.12672956 0.013046948 0.022140453 -0.013639094
0.0043449937 0.02604649 -0.11588036 -0.1089778 0.1291647 -0.006119445 0.08870652 0.029840715
0.061446287 0.030391233 -0.001320946 0.07538417 0.19225448 -0.16489625 0.25605807 -0.13880102
-0.101977795 -0.14555198 -0.0070676305 -0.018924506 -0.019009748 0.0008392915 -0.13792959 -0.10185586
-0.11356296 0.053914957 0.013701692 0.07369298 -0.088123456 0.06009254 0.04830508 -0.02138806
0.0110707 -0.08786392 -0.117940515 0.087243505 0.13931553 -0.21170898 -0.0023790272 -0.08501392
-0.06140808 0.07919556 -0.099414356 -0.16742535 -0.03031845 0.05093701 0.029724516 -0.116530895
0.034778487 0.07090625 -0.05033077 -0.08482145 0.0019949928 -0.047744703 0.12252137 0.024121817
-0.110592 -0.007744084 0.028058132 -0.0051433644 0.0035494568 0.00058059103 -0.05584756 -0.3086371
-0.023709772 0.015682332 0.07724612 -0.08812308 -0.049071766 0.08190323 0.022540173 0.05994026

model.0.bias f4 [256]
00000000: e502 2d35 dcb8 b234 48df 8f30 c66f 0334
00000010: fc89 5d34 84f1 0033 e413 6cb4 0e61 2eb3
00000020: c0cf 9733 16bf 9d34 8048 5036 7af9 4532
00000030: ecd0 da33 39ea a633 b784 af33 84c5 c834
00000040: 201d ccb2 b773 ef34 424e e934 168a 9134
00000050: d397 1234 78d4 ae32 9e24 1f34 16f9 c834
00000060: 25ae e1b5 2ff1 d433 b278 4eb3 a0db 6532
00000070: c7b6 03b6 7c09 cb32 ee15 aeb3 0dfb 83b3
00000080: 52af e534 44c7 d131 c4c2 3c33 ec25 2136
00000090: 7072 3b34 1d05 60b4 d5f6 eab3 30e2 18b1
000000a0: 78c0 db32 e2a8 9eb4 db28 a6b4 3e0a 3eb3
000000b0: f413 83b3 0643 be33 7e6f 93b3 94ff 5034
000000c0: f3e2 bc33 806e 6a31 7cfb e7b2 17b1 3b33
000000d0: 71ce 19b2 f412 59b1 cfc8 0bb3 5ac1 7733
000000e0: 8685 4eb4 a084 d933 62f4 1b32 79f1 45b3
000000f0: e8ee 02b1 ba41 08b2 6f74 3d34 ef91 ce33
00000100: b116 b333 58e5 55b3 7b8a 9eb3 9006 8331
00000110: 5c59 18b2 7208 5034 77d5 95b2 d32f bfb5
00000120: 3ce2 a5b3 b454 41b3 5a4c b5b4 8723 1db4
00000130: 8307 deb2 245a 1ab4 1405 12b5 c42d 5eb3
00000140: 93fd 1834 1488 7b33 bc92 03b3 f1a6 d3b3
00000150: 01d0 38b4 5345 85b2 4e34 2b34 4a43 2b35
00000160: 58ea e631 b74c 6034 1756 d033 261e 7431
00000170: ba5b 11b4 8621 4934 bec1 13b3 229a a735
00000180: ddb8 9b35 b0cb edb3 9b2a 2f34 b911 c235
00000190: 3aa8 d133 fc2a 54b4 f19f 8eb2 a2ab a7b3
000001a0: 8e0e 64b4 580d 4eb4 1f81 dc33 f1d3 aa31
000001b0: d040 cb32 e7ee 2ab4 3419 1e34 401e c8af
000001c0: 888c 35b4 a8fb 3333 d4de 7732 53ef 35b4
000001d0: 6252 9932 d058 b3b3 216b 2bb3 406c 8931
000001e0: 632b f2b4 575c d333 301f b8b3 28f8 9430
000001f0: 42da 7bb4 1d4e 91b1 9c14 4933 54ea 83b2
00000200: 78be 8db4 986d ddb4 9983 16b3 190d b0b2
00000210: b77c 90b2 c74c 9e32 2e9e e932 e80d 42b3
00000220: 9936 49b3 6629 95b2 e8a6 a1b2 a360 99b3
00000230: 4ef7 83b4 691d 6a34 7f8d d1b4 440b 99b3
00000240: 7c37 abb4 e811 9a32 859f a534 ed51 1633
00000250: 7c39 3bb3 a8c5 4534 a30c 24b4 1295 5533
00000260: 26e1 aeb4 39fe dd32 4936 c034 04ee a3b4
00000270: fcd7 afb2 5a8a 58b3 bb11 2db3 28d8 1eb4
00000280: 58a4 6835 00f8 25ad aa58 25b3 d5ff e032
00000290: af9b 10b4 a8b4 2a32 d054 22b3 e3a7 8bb2
000002a0: 9bfd 5cb3 2873 cb33 292e 16b3 82f2 91b4
000002b0: 9b06 b4b3 3674 8734 807c 37b1 a103 2b36
000002c0: 9a3c d632 2ebf 62b4 34db f432 7f72 35b4
000002d0: a204 2a33 b21b 98b4 3656 5cb3 62de cbb4
000002e0: 3535 7eb3 bc5d 15b4 d8a4 c934 f560 9432
000002f0: 47bb 04b4 a3fb a132 1a5c b4b2 2167 0b33
00000300: a4a6 9c33 908a 0db3 96a9 7234 46de 6c32
00000310: 2202 2534 eea0 2132 56d1 a6b3 a4b1 42b3
00000320: d96d 9335 ccc3 95b3 87ea 6ab4 e6f0 47b3
00000330: 382b e9b2 8a15 0035 df31 8633 c5a7 39b2
00000340: 6c2d ebb2 53a0 bbb4 807a b5b1 1e7f 95b4
00000350: 3e80 2932 b06e 33b2 0d51 86b3 744e c734
00000360: e938 6a33 7ec0 11b3 2d44 16b4 027d 64b2
00000370: 1ac1 90b4 0a53 0334 acf3 6133 f895 2eb3
00000380: d827 a133 65b6 8934 9846 0434 e7d6 abb2
00000390: 6811 ef33 5a44 c2b3 bb05 a0b5 d19f 4db3
000003a0: 2185 3c36 f2e1 0734 ef94 0535 a445 91b3
000003b0: 8022 deb3 b333 8533 347a 03b4 9675 feb4
000003c0: 9974 aa34 5c87 d5b3 c951 4033 6ad7 c933
000003d0: 7e37 0735 3fa9 3134 422f 4134 1af3 22b4
000003e0: 15d3 4333 e8f6 d2b5 1c9f dbb3 046c 19b4
000003f0: bb74 85b4 88bd bbb3 aa21 01b4 9495 cbb4
6.4451734e-07 3.3289587e-07 1.046808e-09 1.2240989e-07 2.0632427e-07 3.002198e-08 -2.1986449e-07 -4.0600803e-08
7.069275e-08 2.9382562e-07 3.1036616e-06 1.1523634e-08 1.0189419e-07 7.772582e-08 8.173213e-08 3.7396615e-07
-2.376197e-08 4.4601413e-07 4.3456572e-07 2.7108825e-07 1.3652543e-07 2.0352886e-08 1.482135e-07 3.7434137e-07
-1.6814489e-06 9.91589e-08 -4.8072884e-08 1.3379491e-08 -1.9626912e-06 2.3636623e-08 -8.1064954e-08 -6.145829e-08
4.2782136e-07 6.1053544e-09 4.39493e-08 2.4012943e-06 1.7457364e-07 -2.0863486e-07 -1.09413726e-07 -2.2247484e-09
2.558248e-08 -2.9552672e-07 -3.0949636e-07 -4.4247138e-08 -6.103792e-08 8.859756e-08 -6.865501e-08 1.9464488e-07
8.795714e-08 3.4114294e-09 -2.7006301e-08 4.3700393e-08 -8.9527115e-09 -3.158843e-09 -3.2546094e-08 5.768502e-08
-1.923382e-07 1.0128974e-07 9.077754e-09 -4.6087255e-08 -1.9053292e-09 -7.931186e-09 1.7644355e-07 9.619168e-08
8.3394646e-08 -4.9801514e-08 -7.382638e-08 3.813348e-09 -8.867882e-09 1.9374582e-07 -1.7442956e-08 -1.4244528e-06
-7.724563e-08 -4.501335e-08 -3.376943e-07 -1.4634689e-07 -2.5847617e-08 -1.437516e-07 -5.439663e-07 -5.1730026e-08
1.4248353e-07 5.8564254e-08 -3.063427e-08 -9.8558196e-08 -1.7212007e-07 -1.5514763e-08 1.5944644e-07 6.380038e-07
6.720523e-09 2.0889534e-07 9.7014144e-08 3.552381e-09 -1.3537547e-07 1.873178e-07 -3.4402312e-08 1.2487328e-06
1.1602202e-06 -1.1073223e-07 1.6313645e-07 1.4459284e-06 9.762921e-08 -1.9759676e-07 -1.6603709e-08 -7.807763e-08
-2.123945e-07 -1.91901e-07 1.0268035e-07 4.971746e-09 2.3661784e-08 -1.5919396e-07 1.4724066e-07 -3.6401282e-10
-1.6908064e-07 4.1905565e-08 1.44279575e-08 -1.6944004e-07 1.7849008e-08 -8.351492e-08 -3.9911473e-08 3.9995314e-09
-4.510758e-07 9.84225e-08 -8.573841e-08 1.0838948e-09 -2.3455598e-07 -4.228936e-09 4.6817703e-08 -1.5356967e-08
-2.640188e-07 -4.1244198e-07 -3.5044284e-08 -2.0495053e-08 -1.682052e-08 1.8428535e-08 2.7196702e-08 -4.5181793e-08
-4.6848616e-08 -1.7364709e-08 -1.8818767e-08 -7.142196e-08 -2.458059e-07 2.1803648e-07 -3.9032236e-07 -7.126667e-08
-3.1891602e-07 1.7936102e-08 3.084971e-07 3.4999108e-08 -4.3591612e-08 1.8418962e-07 -1.5278287e-07 4.9728506e-08
-3.2573843e-07 2.5843393e-08 3.5802285e-07 -3.0534295e-07 -2.04709e-08 -5.041725e-08 -4.0295827e-08 -1.4793534e-07
8.6665887e-07 -9.434231e-12 -3.8497696e-08 2.6193371e-08 -1.3467682e-07 9.936379e-09 -3.77957e-08 -1.6258076e-08
-5.1453394e-08 9.473871e-08 -3.496658e-08 -2.7184802e-07 -8.383105e-08 2.5230264e-07 -2.6700775e-09 2.5483098e-06
2.4940437e-08 -2.1117441e-07 2.850502e-08 -1.6898592e-07 3.9585423e-08 -2.8332357e-07 -5.130115e-08 -3.79735e-07
-5.9187375e-08 -1.3910807e-07 3.7559107e-07 1.7273559e-08 -1.2361589e-07 1.8857298e-08 -2.099664e-08 3.2457255e-08
7.294628e-08 -3.2955143e-08 2.2599701e-07 1.3787547e-08 1.5367598e-07 9.408025e-09 -7.768055e-08 -4.5330708e-08
1.0984323e-06 -6.9739684e-08 -2.1878269e-07 -4.6552394e-08 -2.7144424e-08 4.771506e-07 6.248933e-08 -1.0806564e-08
-2.7378256e-08 -3.4948116e-07 -5.28172e-09 -2.7845903e-07 9.866254e-09 -1.0444339e-08 -6.254604e-08 3.712372e-07
5.453413e-08 -3.3935514e-08 -1.3994641e-07 -1.329977e-08 -2.696259e-07 1.2230535e-07 5.2608513e-08 -4.0648928e-08
7.504394e-08 2.5650948e-07 1.231914e-07 -2.0004746e-08 1.1132471e-07 -9.046262e-08 -1.1922597e-06 -4.7875634e-08
2.8091674e-06 1.2655053e-07 4.976309e-07 -6.764756e-08 -1.0343956e-07 6.202699e-08 -1.2244783e-07 -4.7396742e-07
3.1749803e-07 -9.943207e-08 4.4777867e-08 9.3989755e-08 5.037217e-07 1.6545981e-07 1.7991718e-07 -1.5175866e-07
4.5593954e-08 -1.5718078e-06 -1.0226924e-07 -1.4288531e-07 -2.4858113e-07 -8.7423416e-08 -1.2026308e-07 -3.792053e-07

model.1.weight f4 [256]
00000000: 3b83 8c3e 0802 d03e 31ec 853e 2dd8 cf3e
00000010: 040f 2a3e d10e c83e 0442 8c3e f7bf 003e
00000020: d014 b73e bdb8 a33e 4e2b b03e 8dc1 013e
00000030: b0e9 6c3e db12 653e 6ad6 b23d 7e27 b23e
00000040: 1c33 7d3e 21e7 473e 5d37 893e d2a9 cd3e
00000050: 6eaa 9d3e 80a5 253e beb4 9a3e 68fd 743e
00000060: 2fe8 f03e 6cfc 643e 9215 533e 3fea f93d
00000070: 432f c43e 875e 5e3e c672 593e 6d52 043e
00000080: 9619 553e 4c40 a33e 3f1c ba3e 7874 db3e
00000090: 52db 873e 4e96 a93e 66b9 8e3e 9801 cc3d
000000a0: 6ee0 643e 161e 8c3e d5a4 1d3e b884 173e
000000b0: 61a8 983e 00d1 0a3e f46f 383e 81b2 ca3e
000000c0: 4ab4 a33e f166 9d3e d201 423e 7da1 503e
000000d0: f47a 063e 0a00 b13e bd9b 903e ec10 423e
000000e0: 1c0f a43e a624 ab3e 40f9 483e ff03 383e
000000f0: 6c0b d53d 51fb a33e f364 d33e 2d83 d53e
00000100: dfa4 543e 9616 d73e e0ad aa3e f289 3c3e
00000110: dc7b ae3e 2f2a d23e 38ad 713e 4531 143f
00000120: 21c8 2a3e 68d2 ba3e f858 803e 44c7 9c3e
00000130: ff3d d23d 25aa ac3e ada8 983e 8a0c e73e
00000140: d9db 8c3e 1136 203e 1b12 7b3e 11d8 bd3e
00000150: bb37 ac3e c6e8 9d3e 74af e63e 5de8 6c3e
00000160: 0cac 113e cad7 483e 8442 a93e 0336 9c3e
00000170: 397d b63e 78d3 e73e 4a68 d83e 3865 953e
00000180: a875 c93e 6afd cf3e a7a0 a83e c2f1 ef3e
00000190: 85b4 563e 5f25 dc3e 26ff c83d 7c8d 983e
000001a0: 65ff ac3e 5192 b03e d4f9 bd3e 5967 2c3e
000001b0: 2a61 013e 46cb a83e 3912 303e 8ae7 703e
000001c0: bb4c 8d3e 0f62 1e3e 6af6 2c3e 7141 643e
000001d0: 5a41 623e 1162 8c3e 035a f43e 4ef7 e73e
000001e0: b1b9 a83e c8a8 8d3e 82f9 833e 406e 5a3e
000001f0: 248c be3e c69e 8b3e 452e 7e3e 27ad 323e
00000200: 9e55 aa3e f587 d73e cab1 983e 58f7 4f3e
00000210: 92ac ea3d 59a1 323e debd 543e 4708 6b3e
00000220: 60f9 1d3e e480 773e 61cf 063e 3eff d23e
00000230: b5d4 723e 1460 8a3e affc ae3e 34d7 9b3e
00000240: 175f e03e b4f6 dc3e 8b4d 923e c856 f43d
00000250: 0ba6 133e d1fc 9a3e df62 d83e 637e 633e
00000260: 9af7 583e 0002 f73e 787f a23e b8ba 9f3e
00000270: 255d 753e 0370 fa3e 124d 6e3e 3013 853e
00000280: c59f d23e 4b1d 8c3e 4a19 0f3e 8a6d d13e
00000290: 4f15 dd3e 6b56 5c3e 3253 4f3e 65e1 353e
000002a0: 5b4d d53e 33d6 8d3e fc11 c63d 71a4 963e
000002b0: b49e 833e 7b17 a53e 4482 d13e eed1 e53e
000002c0: 849f 283e df44 d33e 7d9c a33e cf9c 853e
000002d0: 99fc bd3e eae4 a03e 546d 6a3e b027 873e
000002e0: ebd2 dc3e 7dc9 8a3e 2165 523e caba 223e
000002f0: e34c 6c3e fcc6 303e b980 b33e 0563 053e
00000300: e6d4 863e f0c5 693e b949 833e 1d93 603e
00000310: 4b73 bd3e f9c3 953e 176d 7b3e 4135 7f3e
00000320: 6c32 013f 13c3 ed3e 4ecf e63e 53ab aa3e
00000330: f8d7 b53d da96 833e ba58 353e 7dcf 993e
00000340: 7288 d03e 451d c63e 6403 643e f266 933e
00000350: 8d45 323e 0826 7c3e 2212 723e adde ac3e
00000360: 4403 383e 5c24 443e 8e3f aa3e 6d6b 5f3e
00000370: 4566 d03e 2132 873e 3123 853e 743f 513e
00000380: 6afb b13e b52a 9d3e df89 8c3e b67c 693e
00000390: d41f 503e fd8b 8e3e 7f1c a93e 9a79 a83e
000003a0: 03c1 b23e 6ecd 7d3e bf3f 993e 96fd 523e
000003b0: d118 d63e d851 9a3e a3c6 c53e 1031 e43e
000003c0: 9f4f c03e e219 9b3e 2604 8b3e 622e e33e
000003d0: c81d 6e3e dd56 9d3e 0200 aa3e 80c2 b43e
000003e0: 3569 3e3e f090 a83e e9cc b43e 0071 b83e
000003f0: a6eb b13e d9a1 c63e 1eba a83e 5277 d23e
0.2744387 0.4062655 0.26156762 0.40594617 0.1660729 0.39073804 0.27394116 0.12573229
0.35758066 0.31976882 0.3440804 0.1267149 0.2313602 0.22370474 0.087323025 0.34795755
0.24726528 0.19521762 0.2680005 0.40168625 0.3079409 0.16176414 0.3021602 0.23924792
0.47052142 0.22361916 0.20613697 0.12202882 0.38317308 0.21715747 0.21235189 0.12922068
0.20810542 0.31884992 0.36349675 0.42862296 0.26534516 0.33122486 0.27875823 0.099612415
0.22351238 0.27366704 0.1539491 0.14796722 0.29815963 0.1355629 0.18011457 0.39589313
0.31973487 0.307426 0.18946007 0.20374103 0.1313284 0.34570342 0.2824382 0.18951768
0.32042778 0.33426398 0.19626331 0.17970274 0.10402569 0.32027677 0.41287956 0.41701642
0.20766018 0.4200942 0.3333578 0.18411997 0.34078872 0.4104781 0.23601234 0.5788768
0.16677906 0.36488652 0.25067878 0.30620778 0.10265731 0.3372356 0.2981619 0.45126754
0.2751148 0.15645625 0.24518625 0.37078908 0.3363627 0.30841655 0.45055735 0.23135515
0.14225787 0.19613567 0.3305856 0.30509958 0.35642412 0.45278525 0.42267066 0.29178786
0.39347577 0.40623027 0.32935068 0.46864134 0.209673 0.42997262 0.09814291 0.29795444
0.337886 0.3448663 0.37104666 0.16836299 0.12634721 0.32967585 0.17194451 0.23525825
0.27597603 0.15467094 0.16890875 0.22290589 0.22095242 0.2741857 0.47724923 0.45305866
0.3295417 0.27667832 0.25776297 0.2133112 0.37216294 0.27269572 0.24822338 0.17448865
0.33268446 0.42095914 0.29823142 0.20309198 0.114586964 0.17444362 0.20775554 0.22952376
0.1542716 0.24170262 0.13165046 0.4121036 0.23713954 0.27026427 0.34177157 0.30437624
0.43822548 0.4315697 0.28574786 0.11930615 0.14418809 0.3027101 0.42262933 0.22216181
0.21188203 0.48243713 0.31737876 0.31197143 0.23961313 0.48913583 0.23271587 0.259912
0.4113752 0.273661 0.13974491 0.40903884 0.4318032 0.21517341 0.2024658 0.17761762
0.4166058 0.27702484 0.09671399 0.29422334 0.25707018 0.32244477 0.40919697 0.44886726
0.164671 0.41263482 0.3195533 0.26096198 0.3710678 0.31424648 0.22893268 0.26397467
0.43129668 0.27106848 0.2054639 0.15891567 0.23076205 0.17263407 0.35059145 0.13026054
0.26334304 0.22829413 0.25642183 0.2193112 0.37002024 0.29251078 0.24553333 0.24922659
0.5046756 0.46437892 0.45080036 0.33333835 0.088790834 0.25701028 0.17709628 0.30041113
0.407291 0.38694206 0.22266918 0.2878948 0.17409344 0.24623883 0.2363973 0.33763638
0.17969996 0.19154495 0.33251613 0.21818323 0.40703025 0.26405433 0.2600341 0.20434362
0.34762126 0.30696645 0.27448937 0.2280148 0.20324641 0.27841178 0.33029553 0.32905275
0.3491288 0.24785396 0.29931447 0.20604548 0.41815808 0.30140567 0.3862811 0.44568682
0.37560746 0.30293185 0.27151603 0.44371325 0.23253548 0.30730334 0.3320313 0.35304642
0.18594821 0.3292308 0.35312584 0.36023712 0.34750098 0.38795355 0.32954496 0.4110666

model.1.bias f4 [256]
00000000: fea7 29bc 60e0 72bc b150 83bd 6c19 2f3c
00000010: 5965 663c 1d11 eebd 3765 8cbd 6efd 08bb
00000020: 668b 4cbe 5408 b9bd 32ec 673d 00e6 443b
00000030: 23df 47bd 5bcf bbbd 54ad 9bbc b73c 213d
00000040: 603c 10bc abb0 9cbc aea4 913d be50 01bd
00000050: c815 203d 3b9b a0bd 34ef 06be e3a4 1fbd
00000060: c23b 963d 54af fbbd dae7 723d b0eb 8fbc
00000070: 1288 a83d 6a19 4abd b064 6e3c d55b 66bd
00000080: 25a3 e5bd f240 ad3c e0a7 31be d45e 923d
00000090: 7103 5fbc 4cee 893d 692c a0bd 4617 1abc
000000a0: 9da4 43bd 2c17 673c f22d 813a 654a fe3c
000000b0: aca1 1abd 4435 743b ce49 f93c 2ed9 62be
000000c0: 82d1 1bbe 5fcc 373d cc16 1abd 146c 0abd
000000d0: 29e3 a03c ebc4 f4ba 026e 28be a6ff 77bd
000000e0: d6dc b2bd 0d96 cebd f31d 90bd a980 f43c
000000f0: 6ed9 44ba 4229 883d 7ab6 a3bc 840a f3bd
00000100: f017 983c cc6b 14bd a30d 8fbd b251 9f3b
00000110: 10cb 4bbe 686a b7bd c1ed 01bc 59b8 573c
00000120: bde6 d13c 6065 9fbd 43c9 873c 69a3 25be
00000130: e114 38bd 6fb8 07bd 34a2 66bd 5c17 34be
00000140: aa30 a53c 932b f2bd 402a 313d 2bf9 b3bd
00000150: 5f4d 29be c56d 83bc f86c cebd 479f c53c
00000160: e7cf f6bc 0a08 bcbb 2d69 a7bd 28c0 c0bd
00000170: ea51 6abc bfe5 c53c 1d6a a5bc 4d0c 41bd
00000180: 1614 70be 89e1 5dbe f8c6 17be eef4 1f3d
00000190: 34d0 243d b871 9abd 24ac 20bc 6e15 18be
000001a0: c08b 19be 906d 533d 8004 ccbd 62e0 47bc
000001b0: 97ed 54bc 4eb0 2d3d 3f9a f8bd f48d e9bd
000001c0: 7bbb 263d a8ce 68bd 8ecc 9bbd 59db 5f3d
000001d0: 630a d5bd 334d 703d 8674 053e cc38 98bd
000001e0: a8d5 21bc 03f6 4ebd 8558 e8bd ef20 9dbd
000001f0: 3888 1f3d ac3d 0a3d 0579 9b3c 9f9f 3abd
00000200: 6864 29be bb32 4fbd 2afa 9fbd 413c 6ebd
00000210: e856 d53c 9ad2 4bbb ed88 5c3c 185f e1bd
00000220: a4d9 323d 749a d03c 6f17 64bc 8d13 cebd
00000230: f6d1 2ebd 1f7d 87bd a811 dfbc b8e9 31be
00000240: 62c0 0ebe 72b4 f9bd 1bd9 0ebc 694e c23b
00000250: ec9c af3c 87c0 e93d d1ed a8bd fa2a 89bb
00000260: 6aff 2bbd a572 593d d446 4dbd 5bfe c5bc
00000270: fbdf e5bd 398a 9f3d 0e8f cabb b663 ac3d
00000280: 1ee2 d0bd ebaa 94bd 8a40 aabc 79ae d0bd
00000290: 37b8 5fbe 5f05 9abc c8fb 0d3c 082f 8cbd
000002a0: dabe 21be af6f b73d 2688 963a d53d 1d3c
000002b0: da0c 023d fde1 4dbc 6c39 0bbe 24d2 d43d
000002c0: 7d51 453d 3c16 cdbd a3b9 e53c ba14 32bd
000002d0: f3b1 b4bd 8be5 3ebc 926f 87bc f94b 82bc
000002e0: 3d85 873d 2fd3 ac3c 1d28 823d 0839 02be
000002f0: f0b5 dfbb b64b 403d 62b5 32be 05b1 ddbc
00000300: 1549 223b a6e5 d4bd db4c 8ebd 29f6 79bd
00000310: 2218 c3bc f4e2 9d3d de75 47bc d05f 7abc
00000320: e824 91be b694 973d 0515 9d3d ec07 433d
00000330: 0264 8e3b 4ec7 5dbd 141b f33b b6d5 3dbe
00000340: 6fe0 05be 1dc1 6cbd 4456 d5bd 543f 993d
00000350: c54e 36bd 1376 4fbd 801f 943c 16f4 05bc
00000360: 427a 5a3c 3f86 a6bc bb71 533d d7a0 0a3d
00000370: ca4c 06be 3d1d aebd 4b28 5a3d acf2 a4bd
00000380: b111 f23a 6a11 e3bd b295 c9bb 6da8 f8bb
00000390: d9e9 44bc 8c29 c33c 5478 25be de30 b7bd
000003a0: b1a9 373d e870 a3bd 6e18 853d 56d1 bb3c
000003b0: 8ae4 033e 1d27 d5bc 11f6 0cbe 27d6 5dbe
000003c0: fc4e c4bd b5dc ba3d 7d69 a7bc ba50 6fbd
000003d0: 783e 3abc 13e6 07be 0c2a 493c ffa7 853c
000003e0: b48e 6cbd 7979 933d 68bb dbbd 5987 81bd
000003f0: 5384 1dbe c100 66be d4ed 0fbe a68d 19be
-0.010354994 -0.014824003 -0.06411875 0.010687213 0.014062249 -0.11624358 -0.06855243 -0.002090301
-0.19975051 -0.090347916 0.056621738 0.0030044317 -0.048796784 -0.09170409 -0.019003548 0.039364543
-0.008803457 -0.01912721 0.07111488 -0.031571142 0.039083272 -0.07842108 -0.13177186 -0.038975608
0.07335617 -0.122893006 0.059303142 -0.01756844 0.08229078 -0.049340643 0.014550373 -0.05623992
-0.11212758 0.021149132 -0.17349195 0.07146993 -0.01361166 0.06734905 -0.078209706 -0.009404963
-0.04776441 0.014104646 0.0009855612 0.031041333 -0.03775184 0.0037263194 0.0304307 -0.2215316
-0.1521664 0.044872638 -0.037619397 -0.033794478 0.019639568 -0.0018674409 -0.16448215 -0.06054654
-0.08733527 -0.10087214 -0.07036962 0.029846506 -0.0007509206 0.06648494 -0.019984473 -0.1186724
0.018566102 -0.036235616 -0.06985023 0.0048620338 -0.19901681 -0.08955842 -0.00793022 0.0131665105
0.02562272 -0.077830076 0.016575461 -0.16175617 -0.044941787 -0.033134874 -0.056307033 -0.17587036
0.020164806 -0.118247174 0.043253183 -0.087877594 -0.16533421 -0.016043553 -0.10079378 0.0241238
-0.030128432 -0.005738263 -0.081743576 -0.09411651 -0.014301756 0.024157403 -0.0201922 -0.04713087
-0.23445162 -0.21668066 -0.14821994 0.039051943 0.04023762 -0.075412214 -0.0098066665 -0.14851925
-0.14994717 0.05161816 -0.09961796 -0.012199493 -0.012996099 0.042404465 -0.12138795 -0.114040285
0.04070614 -0.056837708 -0.07607375 0.054652546 -0.10402372 0.058667373 0.13032731 -0.07432708
-0.0098776 -0.050527584 -0.11345009 -0.07672297 0.038948268 0.03375022 0.018978605 -0.045562383
-0.16542208 -0.05058549 -0.07811387 -0.05816293 0.026042417 -0.003110087 0.01346038 -0.11004466
0.04366459 0.025464274 -0.013921603 -0.10062323 -0.042680703 -0.06615662 -0.027230099 -0.17374313
-0.13940576 -0.1219262 -0.008718754 0.0059297574 0.02143713 0.11413675 -0.08248485 -0.0041860314
-0.04199163 0.05308785 -0.050116375 -0.024169138 -0.112243615 0.07790036 -0.006181604 0.08417456
-0.101993784 -0.072591625 -0.020782728 -0.10189528 -0.21847616 -0.01880139 0.008665986 -0.06844908
-0.1579546 0.08956849 0.0011484667 0.009597261 0.031750537 -0.012566087 -0.13596123 0.10391644
0.048173416 -0.100140065 0.02804262 -0.043476798 -0.088230036 -0.011651407 -0.016532693 -0.015905367
0.0661721 0.021096794 0.06355307 -0.12717068 -0.0068271086 0.046947204 -0.17452005 -0.027061949
0.0024762799 -0.103953645 -0.06948253 -0.061025772 -0.023815218 0.077093035 -0.012174098 -0.015281633
-0.2834847 0.07401411 0.07670025 0.047614977 0.004345418 -0.05414515 0.0074189994 -0.18538556
-0.13073896 -0.057801355 -0.104168445 0.07482782 -0.044508714 -0.050649714 0.018081427 -0.00817587
0.013334813 -0.020327685 0.051622134 0.033844795 -0.1311523 -0.085016705 0.053261083 -0.080540985
0.0018468407 -0.11087306 -0.0061518783 -0.0075884373 -0.012018644 0.023823522 -0.16159183 -0.089448676
0.044839565 -0.079805195 0.064988 0.022926968 0.1288015 -0.026019627 -0.13765742 -0.21663724
-0.095853776 0.09124128 -0.020436043 -0.058426596 -0.011367433 -0.1327136 0.012278091 0.016315458
-0.05775328 0.072009034 -0.10729104 -0.06324644 -0.15382509 -0.22461225 -0.14055568 -0.14995441

model.1.running_mean f4 [256]
00000000: 0f18 4abb 01f5 a63a f73c 923b e5cf c7b9
00000010: a4b5 e3ba 9bd5 08bc 2f9e 053b 2726 da3a
00000020: 070a 483a 40dc 7fbb 61ff 77bb 5da5 133b
00000030: 2a28 133a 6546 683b a3d1 c339 5437 dc3a
00000040: 2530 063b bf10 e139 5fe3 baba b150 8dbb
00000050: 9e9f 8d3b ed07 82bb 8c42 583b bfdb b23a
00000060: 69b5 7cba 1909 3fbb ffb1 91ba 8e9f 273b
00000070: 3561 853b f41f 1fba f26d 57ba cc0e 7dbb
00000080: fc72 4a39 93d7 9c3b c9b6 9c3b 1200 5eba
00000090: 20cb 9a3b c32f acba fe26 a63a fb28 31b9
000000a0: 7ac2 f038 7b40 08bb 70c6 e63a 236c 3bba
000000b0: b8a2 263b d6d0 04bb da64 2f3b 2a5d 46bb
000000c0: 18a4 a73b eb06 a33b acc4 50bb b670 b13a
000000d0: c08a 1abb d2ec 003b 028f ecb9 184f 0739
000000e0: 34e6 d73b c66a c4bb 1658 793b 2849 71ba
000000f0: 2ebc a93a bd5a 2a3a 97c3 6dbb 3d12 e13b
00000100: 216c 03ba 3b8c 42bb 342d f3bb ba11 19bb
00000110: b8fa 8cb9 f52f 92bb 1dba 473a e066 0b3b
00000120: a807 a43a 3e93 8fbb 85c7 003a eecc b83b
00000130: 4b87 4abb 6e59 493a 759d b9ba cba5 e53b
00000140: 2739 953a a859 0abb 9bc9 e1ba 53f1 c8bb
00000150: abcb 31ba d962 ca3a af17 d6bb f602 a439
00000160: e913 9e3a 59bf 64bb cf52 95ba 60eb a33b
00000170: 3447 cdbb 04a9 55bb 4964 68bb 7b05 db3b
00000180: 389b d9bb 9583 18bc 64fb 4bbb ee5e ceb9
00000190: 4b4c c43b b184 5a3a 0d48 22bb 57c8 6fba
000001a0: 5b71 d93b c7d5 b3ba 65dc 2bbb 7159 25ba
000001b0: e7a1 01bb 1eef 443a 7d0c 0d3b b4ab 49bb
000001c0: 38e2 9f3b 45de 7bbb d689 efba fb8f c8ba
000001d0: 1824 773a feb4 43bb ff61 1c3b bcca 34ba
000001e0: 045d 243b dc89 9dbb 9f5b a23b 8817 88b9
000001f0: e0f6 a9bb 761f 013a 205b 49b9 4fb9 153a
00000200: 4955 923b 0aa1 783b f94c 4fbb 6a65 8abb
00000210: bb30 8fba 3e79 adbb 020a 8bbb c800 4e3b
00000220: afe5 1439 c5e4 a23a 183a 60b9 171c 8fbb
00000230: d3b0 07bc 353d b33a c0a8 b23b 4afa fabb
00000240: 580e a6bb 7959 a0bb 8af4 7f39 b05b e83a
00000250: 2212 aaba ceb2 d23a 39ea f3bb 75c5 64bb
00000260: e59b c3b9 af14 60bb ffce cfbb 5a25 22bb
00000270: fccf 473b c28e 9b3a b052 043a 0883 17bb
00000280: 8c18 b6bb fe8b 403b 7458 083b 892f a7bb
00000290: 9702 fdbb 7613 6f3b 46ec 813a aeca 2b3b
000002a0: 95d9 29bc c6df 5c3b a3eb 3cbb a933 793b
000002b0: 541c e1bb 3da5 84bb e0bf 303b 1999 373b
000002c0: ad19 b03a 5440 40bb 5d01 473b f1cb 353a
000002d0: 479c 2ebb cf8d 253b 54d5 5c3b ae13 97bb
000002e0: 5b24 8fbb f6f5 ab3b 77e2 763b 9a80 6c3b
000002f0: 26d4 8aba 5101 edba 3a93 04bb 2225 80bb
00000300: 1405 883b d951 a03b f0eb 3b3b 75de 543b
00000310: 1ad2 af3b 4175 ed3a a3f9 6f3a 877a 5e3b
00000320: ecda febb e0be 33bb 3d81 95ba e907 ab3b
00000330: ea1f 9d39 89b8 2c3b 4d90 103b 467b b83b
00000340: e7fc 82ba 1490 373b 3a8d 0e3a c808 953b
00000350: 32c5 acbb 4569 7e3b d940 613a 8f8b c23a
00000360: 9d61 4336 0e43 343b e1ab 2cbb af72 903b
00000370: 929b 9bbb ef7e e6b9 c185 3ebb 723b c23b
00000380: e4e4 993b 6422 3ebb 4d12 883a 587e 91bb
00000390: 4bdb aabb edb1 033a b2ab acbb 0371 643b
000003a0: ebbb 483b f682 c8bb 2a7c cd3b 78aa 663a
000003b0: fced 88ba 63c5 953b 1718 033c a786 b6bb
000003c0: 77b4 063a ec50 babb 4fc2 c3bb df00 00bc
000003d0: d625 d039 f180 6a3b 7356 363b d099 f3ba
000003e0: ba03 553a d41f e73a 9f9e a2bb 7eee 14bc
000003f0: a815 adbb b5cd 033b e4e4 883b b9d3 9cbb
-0.0030837094 0.0012737812 0.004462834 -0.0003811113 -0.0017372859 -0.008351709 0.0020388474 0.001664345
0.0007630889 -0.0039041191 -0.0037841427 0.0022528984 0.000561359 0.003544235 0.0003734949 0.0016801157
0.0020475474 0.0004292782 -0.0014258436 -0.0043125977 0.0043220064 -0.00396823 0.003299865 0.0013645812
-0.00096400693 -0.002914971 -0.0011115669 0.002557728 0.004070426 -0.000607013 -0.0008217982 -0.0038613556
0.00019307056 0.0047864406 0.004782532 -0.00084686384 0.0047239214 -0.0013136793 0.0012676415 -0.00016895302
0.00011480316 -0.0020790386 0.0017606746 -0.00071495975 0.0025426578 -0.0020266077 0.0026762993 -0.0030267932
0.005115997 0.00497519 -0.0031855507 0.0013537619 -0.0023581237 0.0019672406 -0.00045119977 0.00012904068
0.0065887216 -0.0059941737 0.0038046888 -0.00092043215 0.0012949759 0.00064985064 -0.003627991 0.0068686293
-0.0005013366 -0.0029685635 -0.00742116 -0.0023356513 -0.0002688968 -0.0044612833 0.00076189806 0.0021271035
0.0012514489 -0.0043815663 0.0004912543 0.005639664 -0.0030903395 0.00076808676 -0.0014161306 0.0070082895
0.001138483 -0.0021110568 -0.0017226221 -0.0061322837 -0.0006782363 0.0015440836 -0.006533585 0.00031282724
0.0012060377 -0.003490409 -0.0011392477 0.005002424 -0.0062645916 -0.0032601962 -0.0035460165 0.006684003
-0.006640818 -0.009308715 -0.0031125182 -0.0003936211 0.00599054 0.00083358126 -0.0024762184 -0.00091469794
0.0066358275 -0.0013720327 -0.0026223895 -0.00063075783 -0.001978034 0.0007512438 0.0021522336 -0.003077251
0.0048792623 -0.0038432044 -0.0018275331 -0.0015301699 0.00094276806 -0.0029862518 0.002386212 -0.0006896665
0.0025079856 -0.004807694 0.0049547697 -0.00025957474 -0.0051869005 0.00049256475 -0.000192028 0.0005711512
0.004465733 0.0037937784 -0.0031631573 -0.0042235153 -0.0010924557 -0.005293994 -0.0042431364 0.003143357
0.00014199944 0.0012427798 -0.00021383946 -0.0043673622 -0.008281904 0.0013674857 0.0054522455 -0.0076592313
-0.005067628 -0.0048934785 0.00024409793 0.001772752 -0.0012975375 0.0016075016 -0.007443693 -0.0034907733
-0.0003730945 -0.0034192016 -0.0063418145 -0.0024741502 0.0030488959 0.0011868107 0.0005047722 -0.0023118872
-0.0055571254 0.0029380317 0.0020804675 -0.005102102 -0.007721256 0.0036480105 0.0009912334 0.0026213336
-0.010366817 0.0033702715 -0.0028826974 0.0038025177 -0.006869832 -0.0040480183 0.0026969835 0.0028014837
0.0013435386 -0.0029335218 0.0030365803 0.00069349917 -0.0026643442 0.0025261526 0.003369649 -0.0046105003
-0.0043683476 0.0052478267 0.0037671605 0.0036087395 -0.001059179 -0.0018082057 -0.0020229355 -0.0039106766
0.004150996 0.0048925695 0.0028674565 0.0032481228 0.005365622 0.001811661 0.0009154325 0.0033947544
-0.0077775624 -0.0027427003 -0.0011406314 0.005219449 0.0002996915 0.0026355109 0.0022058666 0.0056299297
-0.0009993584 0.0028009461 0.00054379145 0.004548166 -0.005272531 0.003882007 0.0008592732 0.0014842617
2.9114083e-06 0.0027505788 -0.0026347565 0.0044082026 -0.00474877 -0.0004396359 -0.0029071423 0.0059274966
0.0046964753 -0.0029012198 0.0010381431 -0.00444011 -0.00521413 0.00050237664 -0.005269491 0.00348574
0.0030629586 -0.0061191274 0.006270905 0.00087992055 -0.0010446901 0.0045706495 0.008001349 -0.005570251
0.00051385857 -0.005685916 -0.005974091 -0.007812708 0.00039701042 0.0035782421 0.0027822524 -0.0018585268
0.00081258605 0.0017633387 -0.0049627568 -0.009090064 -0.0052821226 0.0020111625 0.0041776765 -0.0047859815

model.1.running_var f4 [256]
00000000: 6ebd 6f3d ad59 0f3d d909 7d3d 5948 a73d
00000010: 31b6 293d d6bd 213e 6b6e a43d dc9d 0a3d
00000020: 4dcb 073e c20e d43d ca2c 8c3d 33a0 bf3c
00000030: 6eb0 db3d 11c9 863d c8f3 0b3c 9c53 1a3d
00000040: af5f 573d 77f1 533d b743 ae3d 83be 483e
00000050: 94fe d63d 4bf4 353d ed67 cf3d b48c 613d
00000060: dd1f 013e c8be a03d 683e 3f3d 1db6 d73c
00000070: 0fbf b93d 4faf 4d3d 8d41 5d3d 4d4c d73c
00000080: 8fee ee3c 5cdb e63d 2eb6 093e 27df 183e
00000090: 4ab5 543d 1258 c43d 12ea 9a3d 06dd 153d
000000a0: f50e 023d 3c95 a73d 92fc 143d 5b9d e93c
000000b0: 9ef8 773d 113c bf3c 5f3f 6b3d 271f e23d
000000c0: 6c6f b03d 8dde bc3d 2edd 733d 90c4 053d
000000d0: 1ec3 173d c958 c33d 132d de3d c42d 1d3d
000000e0: 6b96 7c3d eca7 bc3d 0a04 843d 303c 2e3d
000000f0: 04b6 983c 09ed ad3d 233d 093e 4475 cc3d
00000100: 11d2 573d de31 4b3e 805e bc3d 3716 8c3d
00000110: 3fa9 a03d 8f02 043e 3458 a13d a7b8 343d
00000120: f031 143d a2aa cc3d b159 9d3d 7f10 a83d
00000130: 140b cc3c 81cd 0c3e d40f d93d ee7c df3d
00000140: c207 2b3d d031 283d f1e4 943d a955 a53d
00000150: 2142 cd3d 0b9a b13d 39db 1a3e 707d 423d
00000160: c631 403d 4796 f93c d13a f13d 85b4 a43d
00000170: 4245 e03d 3165 1f3e de53 fb3d b78a 813d
00000180: 3717 013e 56fe e93d bf43 9e3d 9b68 023e
00000190: 557d 843d af64 0e3e 03c6 1d3d e884 a13d
000001a0: f993 8b3d b37a d73d 185f fb3d bfb8 6d3d
000001b0: c825 083d 7eda ec3d 4024 313d 7dc5 7f3d
000001c0: 0161 823d 66a4 323d 90bc 2a3d 1ca4 8b3d
000001d0: 7b8e 943d 4e3b 083d 1e6e 293e 9ca3 a73d
000001e0: 186b 1b3e 7227 9a3d a1f0 623d 2a33 a53d
000001f0: 701b dc3d 5d21 c03d d94c ec3d c9df 5c3d
00000200: c9cc e13d 5540 fd3d 31b2 923d 1275 573d
00000210: 9e5d 2b3d 587d 103d 10de 883d 4daf 453d
00000220: 880d 0c3d 3a59 713d 921c d53c 7681 e03d
00000230: 87ee 973d 9cfe e93d dd00 c43d c86c b93d
00000240: 5164 043e 172c 073e 6510 b03d 8666 c13c
00000250: 3556 c53c c438 ba3d 6fca fb3d 4dc1 b53c
00000260: b1eb 1d3d fcd9 1e3e a80b ab3d 31e0 ad3d
00000270: 74d9 8f3d 3333 e93d dbdd 943d f85c b03d
00000280: 3631 373e 7705 873d 3f0c d73c dc51 103e
00000290: 6dda df3d 77d5 533d ee01 5c3d db7c 143d
000002a0: c3af 1a3e 8445 ca3d 6524 3d3c 396a 803d
000002b0: 6ad7 983d 0670 823d 82e3 433e bf1b 0f3e
000002c0: 58a8 2b3d b449 d43d 7d6d bc3d 60e5 893d
000002d0: ec46 cc3d 7f7e 8b3d 8ed8 373d f12d 8c3d
000002e0: fffa 0e3e ace8 a03d 7251 8c3d 5414 483d
000002f0: 5843 ad3c ede5 1a3d 29c9 f83d f0af a63c
00000300: afec 4d3d f88a 3d3d 293f ac3d c781 653d
00000310: 3c64 da3d 2ff3 ee3d 274a 123d fdbb af3d
00000320: 649a 083e 1492 2e3e ab66 d63d a043 e23d
00000330: 9677 ca3c 7272 753d c8f5 543d 3aa3 8c3d
00000340: 8842 ae3d db0b eb3d e73a 653d 6199 ad3d
00000350: 13aa 7b3d 64b0 bf3d 6e7e 6e3d de68 ab3d
00000360: 2776 ff3c df02 233d ae0c 013e ebab 943d
00000370: e162 043e ca86 933d 4eec 533d 74c2 5a3d
00000380: 3e7b 073e 478f a63d caff 983d 06c5 463d
00000390: a723 7a3d 987d 573d 3908 dc3d a7c1 823d
000003a0: 505b db3d d645 ab3d 6ad3 ae3d bafc 5e3d
000003b0: b88e 263e 3dd0 ad3d 4fe5 bb3d 125d dc3d
000003c0: df08 7c3d adbb e43d 11d0 9a3d 4720 a63d
000003d0: 69d3 0f3d b66d c93d c476 a43d 485a dc3d
000003e0: e56b 173d d6c1 ae3d a339 cd3d 1084 c73d
000003f0: 305f 963d 8c1f 823d 0019 c03d bf87 f73d
0.058530264 0.03499763 0.06177697 0.08168096 0.041433517 0.15795073 0.08028873 0.033841953
0.13261147 0.10354377 0.0684448 0.023391819 0.10727011 0.06581319 0.008542009 0.037677392
0.052581485 0.05174395 0.08509009 0.19603924 0.10497776 0.04442243 0.10127244 0.055065826
0.12609811 0.07848889 0.046690375 0.026331956 0.09069645 0.050216015 0.054017592 0.0262815
0.029166488 0.11272308 0.13448402 0.14928876 0.051930703 0.095871106 0.075641766 0.036587738
0.031752545 0.08182761 0.036373682 0.028517416 0.060539834 0.023344072 0.057433482 0.11041098
0.08615002 0.09222136 0.059537105 0.03265816 0.037051313 0.09538419 0.10848441 0.038373724
0.061666887 0.09211716 0.06446083 0.042537868 0.01864148 0.084924765 0.13402228 0.09983304
0.05269057 0.19843242 0.09197712 0.06840175 0.07844781 0.12891601 0.078781515 0.04412141
0.036180437 0.09993483 0.07683123 0.082062714 0.024907626 0.13750269 0.10598722 0.109125
0.041755445 0.04106313 0.072702296 0.08072979 0.10022379 0.086719595 0.1512269 0.047482908
0.046922468 0.030467166 0.117787965 0.08042244 0.1095071 0.15565945 0.12271856 0.06325286
0.12606512 0.11425464 0.07727765 0.12735216 0.06469218 0.13905595 0.038518917 0.07886678
0.06815333 0.1052145 0.12273997 0.058037516 0.033239156 0.115651116 0.04324746 0.0624442
0.06366158 0.043613814 0.041683733 0.06818411 0.072537385 0.033259682 0.16545913 0.08185503
0.15177572 0.07527055 0.055405263 0.080663994 0.10747421 0.093813635 0.11538095 0.053924356
0.11025388 0.12365786 0.071628936 0.05260188 0.041837327 0.035275787 0.0668298 0.048262883
0.034192592 0.058922984 0.0260146 0.10962193 0.07418542 0.11425516 0.09570477 0.090539515
0.12928893 0.13200413 0.08596877 0.023608457 0.024088958 0.090928584 0.122944705 0.0221869
0.03855485 0.15512842 0.08351833 0.08490027 0.07023898 0.113867186 0.07268878 0.086114824
0.17889866 0.06592839 0.026250957 0.14093727 0.10930333 0.051717248 0.053712778 0.036251884
0.1510611 0.0987654 0.011544322 0.0627026 0.07462962 0.06369023 0.19129756 0.13975428
0.041908592 0.1036562 0.09200571 0.06733203 0.09974465 0.068112366 0.044884257 0.068447
0.13962935 0.07856879 0.06851472 0.04884751 0.021150276 0.03781693 0.12147743 0.020347565
0.050274547 0.04627511 0.08410484 0.05603197 0.106636494 0.11667477 0.03571525 0.08580778
0.13340145 0.17047912 0.10468801 0.11048055 0.024715226 0.059923597 0.051992208 0.068670705
0.085087836 0.114768706 0.055964377 0.0847652 0.061441492 0.09359816 0.05822604 0.08369611
0.03118427 0.03979766 0.12602493 0.07259353 0.12928344 0.07203443 0.05173903 0.0534081
0.13230607 0.08132797 0.07470663 0.04852774 0.061069157 0.05261001 0.10743756 0.063845925
0.10710776 0.083629295 0.08536418 0.054440238 0.1626538 0.08486984 0.091745965 0.10759939
0.061531898 0.11168609 0.07559217 0.08111625 0.035113726 0.09835379 0.08030465 0.10759407
0.03696813 0.08533065 0.10020759 0.09741986 0.07342374 0.06353673 0.09379768 0.120864384

model.4.weight f4 [128, 256]
00000000: 5680 14bb cc2d 91bd d6a7 8b3c 4de3 19bd
00000010: b784 e6bc 9771 8dbc 8136 a63c 9f97 f63c
00000020: 7a60 123b df12 8d3c 9132 8cbb e302 dd3b
00000030: 66d2 c93c 09f8 e83b 0ce3 bcbb d171 ff3b
00000040: dadd 42bc 13e2 cfbc 056d 5bbc f5c2 48bc
00000050: a6e0 423b ae0d 273d 89ba 4bbb 46d4 a1bb
00000060: 35d2 d6bc d9fe 5cbc 9b84 b7bc 9b06 b83c
00000070: c604 3e3d 7285 373b b604 a9bb 9f72 c23c
00000080: 8b11 ff3b 0294 3e3d 926d 9fbc 0c22 cdbb
00000090: 848c 00bc 1a4e 693c 6663 90bb c0ba 96bb
000000a0: 4969 2cbb f1b6 dbbb 9fb7 e33c 479f d8ba
000000b0: d4f4 373b 9c20 4a3c b84d 783b 1319 11bd
000000c0: 5626 98bb d786 b93c 4a61 d43b acd1 e53c
000000d0: b0e3 9c3c 947f df3a a1c5 123d 5fda e13c
000000e0: 75b3 43ba da15 453c e636 063c 9659 353c
000000f0: 748c 55bc 7ede bf3c 9419 d13c ed15 b83c
00000100: a010 24bb c9ad 72bd 058a 09bd 2225 6abc
00000110: 5852 e1bc c80e 07bd 75c7 0d3d 3c92 8ebd
00000120: 84f1 5e3c 0db5 3cba 519b 11bc 36bb b3bc
00000130: 9184 e0b9 a17e 9abc 61fb 05bd 3e43 89bc
00000140: bcc0 25bc c8ce a4bc 7037 48bc 523e b3bc
00000150: cc82 fcbc c6e4 983c bb6c f6bc 8831 2b3c
00000160: 5075 073c 9b34 853b 629b abbc e7b0 debc
00000170: d8b5 b0bc d267 e8bc 2d31 9ebc 31d2 d6bc
00000180: e871 5b3a aba6 b63c 4886 b33c 4681 53bc
00000190: 1445 e1bc 133f 8fbd 2ef7 4b3c c53b b0bc
000001a0: a2bc 213c f6df d7ba 10c3 f03c bdf1 0d3c
000001b0: 5248 a2bc 4f05 ebbc 1a09 f7bc be1c a23c
000001c0: 809b 54bc c15f 5e3c 15ff 77bc fedc 4bbc
000001d0: 965b 08bc 3481 b239 13f5 8fbd 5e50 23bd
000001e0: f848 be3b 9e1d 81b9 8b23 bc3c 91b5 123d
000001f0: fb93 cbbc def0 1c3a 4776 833b 5e1e a63c
00000200: 5037 dfbc 1662 1dbc ad9d bc3c d16e 0b3b
00000210: 8e55 91bc e628 fd3c 5cc3 683b 4cb0 bd3c
00000220: cccd 8d3b 379e b13b 971b 283c 038a a63c
00000230: 284c a9b9 b26f c03c bb54 cc3c 34c3 0f3d
00000240: 08fa 3dbd 6c4e adbc 7f7c 3fbc 5907 f23c
00000250: 1416 13bd 58e6 f1bc 32db 11bb b57b 8d3c
00000260: 428e 14bb cfc3 9cbc 78f9 ab3b f52c 66bc
00000270: 5a47 12bd 6516 08bd cbba 0bbc a632 7839
00000280: 6d85 1dbc d740 adbc 2a73 383c 7c4a 06bd
00000290: 6976 85bc 0e49 2e3d 4087 edbc 54df f0bc
000002a0: 6c24 f6bc cc2e eebc 8206 a33b 7cc2 733c
000002b0: 4c2b 6f3c 2a55 99bb e1c5 79bd 918d 76bd
000002c0: 6e22 a53b 65af 25bc 63b9 b63c bc8e 423d
000002d0: 95a3 273d c133 8fbc fdc0 933c ae61 0539
000002e0: 419d f0bc 7d51 9ebb 5a80 c4bb 4e6f af3c
000002f0: 6d63 debc 2415 4fbb b9b8 d13c 8831 c93b
00000300: 74f2 e1bb 9312 a93b 6d0b 0ebb 4a5c a8bc
00000310: 898f eb3a c3c0 fcbb bf8f 093d e7c9 1abc
00000320: d057 9f3b af87 e1bc 3ea0 5abd 4110 163c
00000330: 6581 1dbc 483e 713c 5caa f33b 2fa3 84bd
00000340: 86d3 1ebd 1802 b33c d484 c63c 3b49 25bd
00000350: 663f 913c 7092 5abd c608 16bc 4753 8a3c
00000360: 4262 533b 96bd 9fbc c29f 333d 1b6c 7d3c
00000370: 43fa 35bd f5ed e7bc af19 90bb 6266 d53b
00000380: a625 9ebb 7fc4 c53c 2cc0 93bc 9a12 1cbc
00000390: 41b7 343c a09f 3ebb 65b3 2ebc 25b2 083c
000003a0: de38 e1bc b695 383d 3868 e13c ccca a43c
000003b0: b070 3cbd 1f17 f53c 0f4f 0dbc b1ea 12ba
000003c0: e0ed 93bc 531a 2ebd d084 a23c c653 e5bc
000003d0: 6b39 933b d301 54bc fbe0 c3bb 55eb 3ebc
000003e0: 7696 d83b 095a d9bc 4ca0 bdba 50f8 cebc
000003f0: 76eb 873c 47e7 71bc 5a12 09bc 0134 a6bd
-0.0022659502 -0.07088813 0.017047804 -0.037570287 -0.028139455 -0.017266078 0.020289661 0.030101595
0.0022335337 0.017220913 -0.004278489 0.006744729 0.024636459 0.007109646 -0.005764371 0.0077955504
-0.011893714 -0.025376355 -0.0133926915 -0.012253513 0.0029735952 0.04078453 -0.0031086525 -0.004938635
-0.026223281 -0.013488495 -0.022402098 0.022464087 0.04639127 0.0028003124 -0.0051580323 0.023736296
0.0077840737 0.04652787 -0.019461427 -0.006260162 -0.007846002 0.014239812 -0.0044063805 -0.004599899
-0.0026307872 -0.006705158 0.027797518 -0.001652696 0.0028069513 0.012336876 0.003788812 -0.035424303
-0.004643242 0.022647304 0.0064813243 0.02805408 0.019151539 0.0017051571 0.035833005 0.027569948
-0.0007465401 0.012029136 0.0081918 0.011068722 -0.013033975 0.023421522 0.025524892 0.022471393
-0.0025034323 -0.059247766 -0.03357889 -0.01429108 -0.027505085 -0.03297308 0.034614045 -0.06961486
0.0136073865 -0.00071986095 -0.008887128 -0.021939855 -0.0004282338 -0.01885921 -0.032710437 -0.016755696
-0.010116752 -0.020118132 -0.012220249 -0.021880303 -0.030824088 0.018663775 -0.030081144 0.010448821
0.008267716 0.004065109 -0.020948116 -0.027183963 -0.021571085 -0.028369818 -0.019310558 -0.026223274
0.00083711604 0.02229627 0.021914616 -0.012909239 -0.02749876 -0.06994452 0.012449069 -0.021512875
0.009871634 -0.0016469944 0.029389888 0.008663592 -0.019809876 -0.028689055 -0.030155707 0.019789096
-0.012976527 0.013572634 -0.0151365 -0.012442825 -0.008322617 0.0003404707 -0.07029166 -0.039871566
0.0058070384 -0.00024626864 0.022966167 0.035817686 -0.024850836 0.000598682 0.0040119025 0.020278152
-0.027248055 -0.009605905 0.023024404 0.0021275769 -0.017740991 0.030903291 0.0035516834 0.023155354
0.0043275114 0.005420472 0.010260484 0.020329481 -0.00032290933 0.02349076 0.024942746 0.03509827
-0.046381027 -0.021155559 -0.011687397 0.02954452 -0.035909727 -0.029528782 -0.0022255895 0.017270902
-0.00226678 -0.019136338 0.005248245 -0.0140488045 -0.035712577 -0.033224482 -0.008528422 0.00023669991
-0.009614331 -0.021149082 0.011257926 -0.032785878 -0.016291814 0.04255014 -0.028995156 -0.029403366
-0.030046664 -0.029075049 0.004975141 0.014877912 0.014597725 -0.004679342 -0.060979728 -0.060193602
0.0050395047 -0.010112618 0.022305196 0.047499403 0.04092749 -0.017480733 0.01803636 0.00012720257
-0.02937186 -0.0048314915 -0.005996746 0.021415379 -0.02714702 -0.0031598294 0.025600778 0.006139938
-0.0068953577 0.005159685 -0.002167429 -0.02055182 0.0017971854 -0.0077134087 0.033584353 -0.009447551
0.004862763 -0.02753052 -0.053375475 0.009159149 -0.00961337 0.014724322 0.00743608 -0.06476437
-0.038775943 0.021851584 0.02423326 -0.04035304 0.017730426 -0.05336231 -0.009157365 0.016885413
0.003225461 -0.019499581 0.04385353 0.015467669 -0.04442812 -0.028311709 -0.004397593 0.006512449
-0.0048262654 0.024141548 -0.01803597 -0.009525919 0.011030019 -0.0029086843 -0.010662888 0.008343254
-0.027492937 0.04506465 0.027515516 0.020116232 -0.046005905 0.029918252 -0.008624806 -0.000560443
-0.018057764 -0.042505573 0.01983872 -0.027994048 0.0044929287 -0.012939888 -0.0059777475 -0.011652787
0.006609733 -0.02653219 -0.0014467328 -0.025264889 0.016591769 -0.0147646135 -0.008366192 -0.08115388

model.4.bias f4 [128]
00000000: a0c2 d434 bd97 b6b5 b16d aeb4 1cfb 23b5
00000010: 38d4 a032 c83f 0f35 c977 3eb5 f768 6fb5
00000020: d617 4e34 647b ca34 7aa6 6ab5 5aee 1a35
00000030: bfce a7b4 8c23 6733 f9c1 9834 2ce9 66b4
00000040: 9cc9 9434 355b 9cb4 594f 74b5 7c71 a133
00000050: 667a 5534 6213 b535 a62c 2035 ca75 cf34
00000060: 8627 4e34 a8b7 66b4 120f 5034 7b93 c234
00000070: 6072 5a33 56f3 b3b4 7018 e8b4 d585 4235
00000080: 9290 27b6 a017 3ab3 d15c bb33 e08a 1e32
00000090: bc12 abb4 f2ce b5b6 14a4 ea34 7867 2034
000000a0: 15f4 ba35 f880 35b5 3087 6334 c6e9 68b5
000000b0: fbeb bd34 eea3 4633 c307 0734 bae0 fb33
000000c0: fcc1 fcb4 c0ce 1bb5 ef9d f034 1095 6fb3
000000d0: bfbd cbb2 d5a9 75b5 80b2 13b5 fe3f 09b5
000000e0: ce45 a3b3 90e3 e3b4 208f 72b5 617c 15b4
000000f0: 53e2 c135 9b4c edb4 f27b b5b4 cabe 88b4
00000100: 61bc a834 56ab 1e35 2074 15b6 2954 a9b3
00000110: 3ce2 c1b3 60b9 0134 8469 2e33 5ee8 6034
00000120: a060 fa33 96b0 2634 8d4e 2133 5ff4 9e34
00000130: 4015 acb6 cdd0 2937 bf2e 52b4 291a f134
00000140: 2378 f2b3 63cf e835 e637 97b5 237d b3b4
00000150: 746b 1036 774e be34 3e79 4935 1e1e a4b3
00000160: bb49 3db6 6873 4334 a294 0bb6 d67c 5935
00000170: 9447 cab4 0292 b633 0dc8 3235 b548 5e33
00000180: 297c 1e36 36ca 8b35 ccbc 3d35 0847 b9b2
00000190: 1414 a1b5 4738 b635 aff5 7533 6e2f 1cb6
000001a0: 4439 2ab3 57af fdb5 647b 6834 ceb1 a2b5
000001b0: ac67 e334 938e beb5 8fa6 0235 5031 feb5
000001c0: 726b a1b5 583e 8c35 4b12 3435 75cc a6b4
000001d0: d064 da34 0b99 37b5 00b6 d3b0 57bd c535
000001e0: d072 c433 b466 1f35 3d0c 9b35 f4ae 7bb4
000001f0: 3e6c 1a35 78d6 6735 56fa be34 e2e4 43b5
3.9629685e-07 -1.3604218e-06 -3.2489837e-07 -6.1087644e-07 1.8722957e-08 5.3364465e-07 -7.0954826e-07 -8.918718e-07
1.9193917e-07 3.771521e-07 -8.741405e-07 5.771632e-07 -3.1256602e-07 5.381621e-08 2.845334e-07 -2.1505247e-07
2.7713838e-07 -2.9123626e-07 -9.101255e-07 7.5177894e-08 1.9881699e-07 1.3491192e-06 5.9669617e-07 3.8642457e-07
1.9199624e-07 -2.1487233e-07 1.9376992e-07 3.6242622e-07 5.0861104e-08 -3.3518398e-07 -4.3231148e-07 7.2465383e-07
-2.496909e-06 -4.3327987e-08 8.724749e-08 9.228387e-09 -3.1864863e-07 -5.418312e-06 4.370528e-07 1.4938803e-07
1.3929117e-06 -6.761543e-07 2.1190203e-07 -8.676692e-07 3.5375692e-07 4.624956e-08 1.2575678e-07 1.1728976e-07
-4.70798e-07 -5.804286e-07 4.4818395e-07 -5.5782095e-08 -2.3718597e-08 -9.151675e-07 -5.502152e-07 -5.11296e-07
-7.6029764e-08 -4.2447618e-07 -9.03603e-07 -1.3921955e-07 1.444549e-06 -4.4200428e-07 -3.380406e-07 -2.547079e-07
3.1429502e-07 5.9108913e-07 -2.2270324e-06 -7.8849844e-08 -9.0284146e-08 1.20815e-07 4.0608498e-08 2.094616e-07
1.1659108e-07 1.5524196e-07 3.7557175e-08 2.9607597e-07 -5.1284733e-06 1.01218e-05 -1.957478e-07 4.4908782e-07
-1.1290856e-07 1.7345704e-06 -1.1266645e-06 -3.3432397e-07 2.1520218e-06 3.5447349e-07 7.5054766e-07 -7.6423234e-08
-2.8206111e-06 1.8202775e-07 -2.079913e-06 8.102046e-07 -3.7677512e-07 8.501594e-08 6.660128e-07 5.175453e-08
2.3616105e-06 1.0415158e-06 7.068272e-07 -2.1569136e-08 -1.2001278e-06 1.3576436e-06 5.7266956e-08 -2.327342e-06
-3.9633292e-08 -1.8901e-06 2.1651573e-07 -1.2121689e-06 4.2357476e-07 -1.4197598e-06 4.867115e-07 -1.8938827e-06
-1.2026705e-06 1.0448957e-06 6.7081845e-07 -3.1068672e-07 4.0679015e-07 -6.839552e-07 -1.5403998e-09 1.4732749e-06
9.1478455e-08 5.938157e-07 1.1551962e-06 -2.3439844e-07 5.7526984e-07 8.63663e-07 3.55724e-07 -7.297623e-07
