back_end/fraud_model.pth (torch, 191186 bytes, 19 tensors)

model.0.weight f4 [256, 10]
00000000: 7a54 153e fd19 363e 8ee2 eb3b c6f0 813d
00000010: d980 23bb 5413 0d3e c931 a13e 3d3b db3c
00000020: 3c4b ad3d 1dfa 333d 5ff4 c6be 884c 9abd
00000030: 73b7 4e3b a1b0 4abc 5482 1cbd 63ab a53d
00000040: b9cd 233d 367e 083e 3fdb 5abd 4c83 8fbe
00000050: 5df6 843e ca2a 80be b674 87bc 16b6 0ebc
00000060: 5bf9 dfbc 9cf1 863c 1a96 533d 2244 22be
00000070: f499 533a b08b 45bc 54b0 00bf b2b8 0cbe
00000080: 191e d4ba a0a2 08bc 2084 97bb ac76 163e
00000090: 7236 943c 92d5 0fbe c033 4dbc aabe 723c
000000a0: 70d6 9fbe ba88 1fbd ca08 d1bc 718e 053c
000000b0: 5e1a cebc 1cac c93d 1da8 75bd c1ca a8be
000000c0: 76df 6fbb b642 5b3b 1c1f c53d 31b1 9fbd
000000d0: 2faf ccbb 18b7 b4bd 7f2e ca3d 836d 7b3d
000000e0: 3fc8 f9be 710c 133e 3e35 173e c0a8 373d
000000f0: 1e42 833e 5958 23bd 54f8 8cbc 50e9 ce3d
00000100: 54b6 7dbc f3b9 463d 4ba6 953e 9c42 fdbd
00000110: cf18 e43d f49f 4f3c cf5e 64be 3dab 3bbd
00000120: 30c1 6bbc e45a 8a3d 0d8e 84ba b0c2 ad3c
00000130: 3201 f13d 2a63 cebe 5f8a 793c 4d82 a7bc
00000140: 93e8 7f3e aa7e 5c3e e821 e83c 9635 803d
00000150: d1db d53b 94eb 30bd b4c5 3c3d 40de 8fbe
00000160: 4ad1 963d 5050 4dbc 78b4 b43d 43bd 92be
00000170: f78f 1fbb f2e1 f8bd 31cb eabc 1b83 f83c
00000180: 0b16 3a3e c0f5 80be 9c06 25be a7c9 903d
00000190: e535 10bf c02c 08be 2776 503b 9d5c 42bc
000001a0: b6b8 493c eab3 bd3b 907d 2b3c 98e7 0abe
000001b0: c837 aabb 8968 2b3c 43b5 8c3e 4e5d 57be
000001c0: 9106 1abc 8eb4 3f3e 95e5 f93c bc8f 24bc
000001d0: 9485 523d 4db6 acbd b70c e83d 5e90 bb3d
000001e0: 5c64 633e 9cc1 48be 7876 a0bd e91b aabe
000001f0: 1ff3 df3c 2abc 6bbd 1a9f f83d f6ea 70bd
00000200: a816 6e3e 2dfa 89bc 55bc 39bc 1aa6 dfbd
00000210: 4de7 473c 82fd 45be f7ea 26bc fcc9 27be
00000220: 48dc 7d3e bf34 703e 27cf aabd 1173 29be
00000230: 25e3 263c 621f c93e e9cb 28bc f06a 3ebd
00000240: d03d 1fbc dd78 403c 6c52 023d 159f 093d
00000250: bea3 463e c1a8 17be 6933 213e 69fa 68bd
00000260: 184b 8fbd 0314 8cbc c67c 863d b1b0 083d
00000270: ce01 b3be f971 9c3e c411 1f3d d221 db3c
00000280: 87ba 973e a6eb 0dbe 9359 9b3c 5780 bfbd
00000290: a3a5 ee3c 139b 9d3c 25ee bfbc e97e c3be
000002a0: 3ec3 c13d eb04 0cbc 08df aa3e 3660 173d
000002b0: fd03 d5b9 c1aa 95bb 785e e2ba 27ce 41bd
000002c0: b68b ce3c d43d 8fbe 544d 46bb cc27 543b
000002d0: 4d23 21bf 90f8 313c a46f 97bb f543 c2bb
000002e0: e86a f9ba 7b14 bebc f867 013d afe0 31bd
000002f0: 9340 833c 9e42 893a 28da 04bf abb0 a23d
00000300: f690 5dbd 3a8d 48bd 2779 63bd 55bd 4fbd
00000310: 94de 38be 0fe0 98bd 6660 733d 9075 8cbd
00000320: 5b72 413e 8103 3cbc fe3e d53c 0a1b 033d
00000330: 1fc0 c23d b75e f2bd 1a28 453e 7f58 26bd
00000340: ba53 61be 09a2 f53d 6371 3d3b 661f de3e
00000350: 4769 263c 9356 923c b044 1fbc 782f 203d
00000360: cb1a ae3d 707d 03bd 6934 e93c 2345 b2bc
00000370: 5464 f3be 1347 b4bd dba7 013d f624 7fbd
00000380: d5b8 06bc 412e 1b3c 985b a73e 4c91 a1bd
00000390: 2b9f f1bd 3791 bd3b 36cb 2bbf 8845 f63c
000003a0: 92dc b2bb d6db 513b a4ab 85bb d2e6 2abd
000003b0: 300c 903d 2037 02be d36c 253b 9235 893c
000003c0: 0e06 823d f3fc a23e 969c 47bc 99c5 e0bc
000003d0: 4d3e 503d 3dd8 1fbe f4c0 563e b523 913d
000003e0: d004 ae3d 6e34 d5bd b164 0dbc e447 9fbe
000003f0: ef48 84bc 6cf8 ccbd 0f47 a13c 4b45 a93d
0.14583007 0.17783351 0.0071986383 0.06344752 -0.0024948625 0.13776904 0.31483296 0.026761645
0.084616154 0.0439397 -0.38858315 -0.075341284 0.003154245 -0.012371213 -0.038210228 0.0808933
0.039991114 0.13329396 -0.053431746 -0.2802986 0.2596921 -0.25032645 -0.016535144 -0.008710405
-0.027340582 0.01647263 0.05165682 -0.15846303 0.0008071952 -0.01205723 -0.50269055 -0.1374233
-0.0016183286 -0.008339554 -0.004623905 0.14693707 0.018092368 -0.14046314 -0.012524545 0.014815966
-0.3121829 -0.038948752 -0.025516886 0.008151636 -0.025159057 0.098472804 -0.05997478 -0.3296719
-0.00366017 0.003345651 0.09625074 -0.077974685 -0.0062464694 -0.08823985 0.0987215 0.061383735
-0.48785588 0.14360215 0.14766404 0.044838667 0.2563638 -0.039879177 -0.017208256 0.101030946
-0.015485365 0.04851718 0.29228434 -0.1236622 0.11137544 0.012672413 -0.22301792 -0.045817602
-0.014389321 0.06755617 -0.0010113135 0.021210998 0.11767806 -0.4031003 0.015230744 -0.020447874
0.24991064 0.21532694 0.02833648 0.06260221 0.0065264483 -0.043193415 0.046086982 -0.2809925
0.073641375 -0.012531355 0.08823484 -0.2866002 -0.0024347284 -0.12152471 -0.028661342 0.030335953
0.18172471 -0.25187492 -0.16115803 0.07069712 -0.56332237 -0.13298321 0.0031808706 -0.011862901
0.012312105 0.0057892697 0.010466948 -0.13564909 -0.005194638 0.010461935 0.27482042 -0.21031687
-0.00940098 0.1872122 0.030504981 -0.010044035 0.05139692 -0.084332086 0.1133055 0.09158395
0.22206253 -0.19605106 -0.07835096 -0.3322442 0.027337609 -0.057552494 0.12139721 -0.058817826
0.2325083 -0.016842926 -0.011336406 -0.10920353 0.0122011425 -0.19334987 -0.010187856 -0.16385645
0.24791062 0.23457621 -0.083402924 -0.165478 0.010185991 0.39281756 -0.010302522 -0.046488702
-0.009719327 0.011747566 0.031816885 0.033598978 0.193984 -0.14810468 0.15742268 -0.056879435
-0.06996745 -0.017099386 0.065667674 0.03337163 -0.34962314 0.30555704 0.038835302 0.026749525
0.29634497 -0.13859424 0.01896361 -0.09350651 0.029131716 0.019238984 -0.023428986 -0.38182762
0.094610676 -0.008546094 0.33373284 0.03695699 -0.00040629497 -0.0045674746 -0.0017270586 -0.047315743
0.025213104 -0.2797686 -0.0030258493 0.0032372354 -0.6294449 0.010862485 -0.004621463 -0.0059285113
-0.0019029053 -0.023203125 0.031593293 -0.043427166 0.016022002 0.0010472124 -0.5189538 0.07943853
-0.054093324 -0.04896281 -0.05553546 -0.05071767 -0.18053657 -0.07464611 0.059418105 -0.06858361
0.1889128 -0.011475445 0.026031014 0.03200821 0.095093004 -0.11834472 0.19253579 -0.04061174
-0.22004595 0.119937964 0.0028906695 0.4338333 0.010156936 0.017863547 -0.009720966 0.03910777
0.08501204 -0.03210205 0.028467374 -0.021761483 -0.47537482 -0.08802619 0.03165422 -0.062291108
-0.008222778 0.009471477 0.32687068 -0.07889041 -0.11797937 0.005785133 -0.6710695 0.030062452
-0.005458423 0.0032021902 -0.004079299 -0.041724034 0.070335746 -0.12716341 0.0025241866 0.016749177
0.06348811 0.3183361 -0.012183329 -0.027437972 0.050840665 -0.15609832 0.20972043 0.07086889
0.08497012 -0.10410391 -0.008629964 -0.31109536 -0.016148059 -0.1000832 0.019687204 0.0826517

model.0.bias f4 [256]
00000000: 48bd 3a35 893e 82b4 2fdf 1834 ce6b d1b2
00000010: cdb7 ec35 51fb ca35 c372 03b5 58d6 4635
00000020: 31ad 6cb5 1fe6 2234 9032 fdb4 9936 99b2
00000030: 1601 20b4 41e3 16b5 977b e234 f03d 8434
00000040: 14a6 18b5 7e17 56b6 6f8d dbb5 c7a1 6d34
00000050: d6d5 05b4 3d80 2cb4 7690 82b5 d0a9 8a35
00000060: 81b9 2734 57bc 45b4 f6ba e8b2 7b3f 90b4
00000070: 1ed9 00b6 149c a3b5 32ec 8133 87a0 16b4
00000080: 30c3 eab4 a6ec 21b6 ffdb 4db4 91f0 8cb4
00000090: aace e935 5c5f 6d35 288c 25b4 d419 39b4
000000a0: efee 29b4 70f9 1a37 356a fcb4 f3a7 8b33
000000b0: 298b cc35 90e5 1b35 0cba c935 a834 0eb4
000000c0: 1ad8 9334 162c 0736 6ce4 8133 0b7f 37b4
000000d0: 9200 3134 0aa0 3db4 0b17 abb4 a1c6 1ab3
000000e0: 741a dab3 3ae2 97b5 8eb5 67b6 cd37 dbb4
000000f0: 0f65 e0b3 610b c633 1d75 adb3 be67 b134
00000100: 2db6 4333 085c 9335 2e04 25b6 aac5 3eb4
00000110: 718c 4235 54a6 acb4 f6a2 07b2 3f48 59b5
00000120: 6eca 0933 fda5 4535 5b17 b2b6 5ef8 1034
00000130: 237e ea33 d4b8 00b4 181d 3d35 7f6f d4b3
00000140: 687e 9a34 67c9 5a33 3a0c 0ab4 0b70 31b5
00000150: 1f4d 2fb4 4c1b 1db5 4ea9 1fb5 1a4a 87b4
00000160: 39c5 8eb3 3da9 5235 abea 8735 d9c7 91b4
00000170: a9cc 7333 4ca1 8a31 65dc 91b4 9bbb ca33
00000180: bca9 5db4 e69c 5336 ff77 1ab4 e8c4 c133
00000190: 74da ca34 5576 8335 5433 e5b4 e41d 4432
000001a0: c49b 51b5 d9d0 0034 2245 e5b4 68ed 6a34
000001b0: 48aa 22b4 af59 a0b5 5b0a 95b5 e173 74b5
000001c0: f693 8ab4 2d4a 9634 e01d e834 4e51 ab32
000001d0: 48a2 7a34 d607 4ab3 1942 e5b3 f68b 2bb4
000001e0: ab75 a033 b18f e7b4 629c 2b34 76be ca34
000001f0: 95a9 94b5 00ac 2534 837c b1b3 95a1 1735
00000200: 9b2a 49b5 40da e234 d233 25b3 9e34 1c34
00000210: b006 b5b3 e9b3 0533 c27a 0eb4 a4d2 1937
00000220: 31f1 b935 cd12 0634 7815 8934 d3b2 4335
00000230: b7f4 b7b4 e35e 6f35 27af 4033 4ed0 5935
00000240: 584f eeb5 1c89 fd34 fb8e 50b4 523c 2e35
00000250: bd9e f734 c64a ebb3 d21a 1a32 7dac 00b5
00000260: 2ca9 1fb5 1a3c 0131 6fe5 43b4 f4d8 d9b5
00000270: 5bfb 99b4 7a4e bb35 41e6 b533 fa28 1fb5
00000280: fa6d 1b35 a8df 2ab4 5ccc 3fb4 0a52 be34
00000290: e096 1c34 c576 61b4 7618 a634 f11f a9b4
000002a0: 768d 8034 45a7 18b5 d7d5 70b4 828c 3533
000002b0: 3754 0233 8e1b 87b3 a0ae d5b4 33e6 bdb7
000002c0: 5015 9c35 f663 0d35 4405 4cb4 49e7 14b5
000002d0: c204 34b6 85fc 16b5 9982 2cb4 a1d2 c133
000002e0: 4229 e934 b588 e0b4 7f79 2f35 104d 28b3
000002f0: 6be1 f434 c845 17b5 ab44 f333 6e76 9a36
00000300: 344f 5032 1aed cdb3 9002 f9b1 0006 24b5
00000310: 7eab deb5 abb7 6033 013e b5b5 5bd3 e534
00000320: 66b0 2cb5 08d4 65b5 ff11 f534 0310 56b3
00000330: 6798 5c36 fda4 90b5 6fb9 ec34 b9af 8734
00000340: 3f5e 9134 283b e535 80f1 a0b4 a096 3e33
00000350: 189e 55b4 3f95 c8b4 f998 77b4 9142 dbb4
00000360: 2cd4 2c35 66d9 98b3 2354 54b4 e806 e635
00000370: 96ae 1a35 3746 2535 33f6 3e35 f7f2 fdb4
00000380: 7451 98b4 5512 4fb7 9936 4834 48e7 8932
00000390: 6d9b a8b3 bc70 bd34 72fc 1ab4 45bd 0db5
000003a0: b98f 45b5 6af2 0534 d4ad 8fb3 e85a 0435
000003b0: 5421 0834 6618 da32 1c3d 0535 7f53 84b4
000003c0: 6515 0c35 aa2d 86b5 c2f2 9fb4 118b 78b5
000003d0: 10a1 1bb3 8dc7 0c35 3b99 27b6 0586 6135
000003e0: 6633 81b4 22cc 4d34 bb92 b3b4 9ce9 1634
000003f0: 8eff a4b4 00b4 6bb3 48ef bcb3 6016 d134
6.956584e-07 -2.4259887e-07 1.4237297e-07 -2.4379826e-08 1.7636863e-06 1.5123316e-06 -4.8968303e-07 7.407266e-07
-8.816888e-07 1.5171143e-07 -4.716171e-07 -1.7836372e-08 -1.4901556e-07 -5.621005e-07 4.2185704e-07 2.4631981e-07
-5.686609e-07 -3.190216e-06 -1.6357934e-06 2.2131199e-07 -1.2464383e-07 -1.6065401e-07 -9.727798e-07 1.0331223e-06
1.5620573e-07 -1.8415572e-07 -2.7093375e-08 -2.6868278e-07 -1.9199865e-06 -1.2189871e-06 6.049994e-08 -1.4028238e-07
-4.3727914e-07 -2.4128617e-06 -1.9172147e-07 -2.6252067e-07 1.742e-06 8.8428146e-07 -1.5417811e-07 -1.7238864e-07
-1.5826275e-07 9.237192e-06 -4.7015934e-07 6.503242e-08 1.5239685e-06 5.8076057e-07 1.5029814e-06 -1.3243937e-07
2.7538118e-07 2.014223e-06 6.04858e-08 -1.7089421e-07 1.6484617e-07 -1.7660219e-07 -3.1867998e-07 -3.603657e-08
-1.0156228e-07 -1.1316217e-06 -3.452736e-06 -4.083253e-07 -1.0449195e-07 9.222163e-08 -8.077243e-08 3.3044302e-07
4.5567663e-08 1.0979138e-06 -2.458935e-06 -1.7767039e-07 7.2475e-07 -3.2158516e-07 -7.895087e-09 -8.094393e-07
3.2081907e-08 7.3629764e-07 -5.3075323e-06 1.35014e-07 1.0919418e-07 -1.1988169e-07 7.0450324e-07 -9.8923e-08
2.8776708e-07 5.0940255e-08 -1.28567e-07 -6.610068e-07 -1.6326202e-07 -5.852678e-07 -5.9478486e-07 -2.5199625e-07
-6.648265e-08 7.847737e-07 1.0126581e-06 -2.7153763e-07 5.6763984e-08 4.034666e-09 -2.7168713e-07 9.440483e-08
-2.0643978e-07 3.1532777e-06 -1.4386022e-07 9.02308e-08 3.7784378e-07 9.7947e-07 -4.269192e-07 1.1415498e-08
-7.8085236e-07 1.1996907e-07 -4.2704875e-07 2.1879316e-07 -1.5149374e-07 -1.194703e-06 -1.1104379e-06 -9.106571e-07
-2.581216e-07 2.7993647e-07 4.3235104e-07 1.9943993e-08 2.3342102e-07 -4.7038917e-08 -1.06756666e-07 -1.5976534e-07
7.471984e-08 -4.3131652e-07 1.5982508e-07 3.776401e-07 -1.1076214e-06 1.5429396e-07 -8.264853e-08 5.6487016e-07
-7.4940334e-07 4.2254578e-07 -3.8464187e-08 1.4547774e-07 -8.429686e-08 3.1130103e-08 -1.326944e-07 9.168554e-06
1.385377e-06 1.2486562e-07 2.553386e-07 7.2903384e-07 -3.426446e-07 8.9172516e-07 4.4862784e-08 8.114192e-07
-1.7755474e-06 4.7224682e-07 -1.9423526e-07 6.490783e-07 4.6122832e-07 -1.09566415e-07 8.970078e-09 -4.793472e-07
-5.9478293e-07 1.8806134e-09 -1.8244258e-07 -1.6230902e-06 -2.8681356e-07 1.3955425e-06 8.470352e-08 -5.9291744e-07
5.7902037e-07 -1.591385e-07 -1.7862607e-07 3.544995e-07 1.458352e-07 -2.0997966e-07 3.0937707e-07 -3.1501943e-07
2.3944784e-07 -5.686782e-07 -2.2429536e-07 4.2270138e-08 3.0344577e-08 -6.2914395e-08 -3.9801398e-07 -2.263775e-05
1.1629108e-06 5.2672056e-07 -1.9000896e-07 -5.547086e-07 -2.682486e-06 -5.624682e-07 -1.606626e-07 9.025576e-08
4.342965e-07 -4.182272e-07 6.536938e-07 -3.9185636e-08 4.5612555e-07 -5.635343e-07 1.132806e-07 4.6033447e-06
1.2125202e-08 -9.589185e-08 -7.247145e-09 -6.110349e-07 -1.65902e-06 5.232111e-08 -1.3503596e-06 4.2808355e-07
-6.4331687e-07 -8.5617694e-07 4.56479e-07 -4.984032e-08 3.2871264e-06 -1.0776854e-06 4.4093346e-07 2.5273565e-07
2.7076928e-07 1.7079046e-06 -2.9978037e-07 4.4374815e-08 -1.9894685e-07 -3.7361494e-07 -2.3059319e-07 -4.0840362e-07
6.4383744e-07 -7.117596e-08 -1.9774647e-07 1.7138345e-06 5.7623527e-07 6.1569466e-07 7.113878e-07 -4.7301702e-07
-2.837147e-07 -1.234243e-05 1.8646314e-07 1.6054074e-08 -7.8513814e-08 3.5286018e-07 -1.4434207e-07 -5.2802017e-07
-7.3597363e-07 1.247478e-07 -6.6905756e-08 4.930612e-07 1.2678112e-07 2.5389635e-08 4.9635287e-07 -2.4647667e-07
5.21852e-07 -9.997068e-07 -2.9792687e-07 -9.258957e-07 -3.6235235e-08 5.244445e-07 -2.497413e-06 8.4014056e-07
-2.406552e-07 1.9166376e-07 -3.344811e-07 1.4054825e-07 -3.073332e-07 -5.487891e-08 -8.797957e-08 3.8945564e-07

model.1.weight f4 [256]
00000000: 8bf9 153f abf3 053f a532 fb3e fdd6 2c3f
00000010: fd3a 343f a1f5 143f db29 223f 2578 2b3f
00000020: 3ef1 183f 23bd 1a3f 8ca5 3c3f 0640 f23e
00000030: 1586 073f afd0 ee3e 0554 0f3f 0bf2 153f
00000040: 228f 113f 6815 523f f2ef 6d3f 9de2 183f
00000050: ef8d bd3e c724 273f cb8e 383f 6b95 563f
00000060: 4d3f 0c3f 1e61 123f 8a5f 553f 0295 df3e
00000070: ac63 053f b6e0 0a3f 6756 b93e f2c4 e93e
00000080: 40a3 c43e fc3b fa3e 4a5e e33e 1335 e83e
00000090: f935 f03e 59dd 2d3f a857 d33e f394 f23e
000000a0: 5a41 f23e 1447 4e3f aab4 383f a895 df3e
000000b0: 7f71 e33e a26f f83e b56d 263f e004 183f
000000c0: 6eec 233f dbfc 5a3f 2082 f83e e474 363f
000000d0: 0e61 bc3e 3995 e53e 7dbd 0a3f bd65 d83e
000000e0: 4f43 0c3f ef8c 173f 6241 503f 1b3e e63e
000000f0: fb97 ca3e 0c52 fa3e 995e 163f d1f6 a63e
00000100: 67da c03e d348 5f3f c145 773f e62e 003f
00000110: edba 0b3f d708 2b3f 0e9c 2f3f acc2 483f
00000120: fe66 133f 5286 1e3f adfc 703f 5901 023f
00000130: 69c1 0e3f 0b86 ec3e 60df 183f aef1 0d3f
00000140: af74 2a3f b360 0c3f 4448 ff3e cb4c 1c3f
00000150: e7be 0f3f 6d70 723f 1ede 213f 0aea e83e
00000160: 7dcb 093f f4a2 2c3f b52b 093f 2177 ce3e
00000170: 5d01 f33e 2c5f 0f3f 472c 2f3f 4d3f ed3e
00000180: 8513 e13e f876 323f 7322 fe3e 441e 143f
00000190: 448d 1b3f 38d1 053f 7497 0d3f 01cf f93e
000001a0: 61cf dc3e ad99 043f a25d 183f 1bea 213f
000001b0: 3319 ff3e 4d6b 143f 131f ee3e 275a 1b3f
000001c0: 3372 033f 0d68 273f 3d52 1a3f 9df0 d33e
000001d0: d56c 043f 39b4 563f 9d4d f13e 924e eb3e
000001e0: 4ceb 0c3f 3157 d23e ca25 053f 79a4 133f
000001f0: b7c2 263f 381a e13e 41d7 d23e d8ab 4e3f
00000200: ee6b ea3e c78d 243f 5b8d cb3e 238a 043f
00000210: 14ca 053f 92bd ff3e ec5c 133f 31f5 633f
00000220: aeb8 313f 3acf 063f 26bf d33e 4cdc cd3e
00000230: 9b5b eb3e 924a 4a3f c2ba d83e 66b5 4a3f
00000240: cac0 193f c6a5 1d3f c53c 083f e155 263f
00000250: 5b4a 0a3f e684 f03e 4f73 c73e 212f 153f
00000260: fe98 173f 57e2 113f 7c0f fa3e c611 183f
00000270: d88f fb3e 5531 213f f95e 2c3f 4efc de3e
00000280: 2161 f83e e2fe f93e 77dc e83e 3eb2 203f
00000290: e32c cc3e a7da 1d3f e4c0 1b3f cc7e 043f
000002a0: 0ad6 153f 4995 f43e f648 0e3f 03a1 023f
000002b0: e47a 213f f1bc 143f 1962 1d3f cbb1 6f3f
000002c0: 4fa1 343f 9e77 093f 1c3e 163f b4f4 0d3f
000002d0: c2ad 163f 49c6 093f 4cbc 043f 352a 023f
000002e0: 1caa 2b3f 6f9d 263f e8c9 063f fc21 683f
000002f0: 9d92 293f 42f4 193f 9355 f83e ac27 5b3f
00000300: 3ea0 083f cbc1 da3e cc77 f83e 2163 3b3f
00000310: cd60 243f 77c6 0f3f b154 1e3f 4e3a 013f
00000320: 163b b43e e049 0f3f 02a0 263f d9fb c43e
00000330: 5eb6 3e3f 013f 873f f680 2d3f 3399 013f
00000340: 03ea 153f 45d9 283f 3bd6 373f 04cb c93e
00000350: c1aa 023f a012 183f 65ed 0b3f 6cce 123f
00000360: 6146 1d3f 36f3 b63e 99a4 093f 8991 123f
00000370: d345 233f 9bf1 db3e b0ca 0b3f 3861 1b3f
00000380: 9684 3d3f e742 433f 9ecc c63e b20b 303f
00000390: e5d6 f93e eb4e 1d3f 5e1b 063f 56e0 0f3f
000003a0: e67f 3a3f 0a29 243f e574 fc3e 4749 393f
000003b0: 5bad c93e ca5e 013f 454f 5f3f 59e8 2c3f
000003c0: fba4 703f 0a9e 2a3f 4a03 253f 9d2f 3c3f
000003d0: 8cde 153f 4639 093f f338 323f 4b12 1a3f
000003e0: e4ec 033f f5e6 153f 8ba3 063f f1e8 f93e
000003f0: 6173 0d3f 8ffb 143f a281 203f 770d 173f
0.585839 0.5232493 0.49062076 0.67515546 0.7040251 0.581873 0.63345116 0.669802
0.59743106 0.6044485 0.73690104 0.4731447 0.5293897 0.46643588 0.5598758 0.58572453
0.5685903 0.82063913 0.9294425 0.59720784 0.3702235 0.6529049 0.72092885 0.83821744
0.5478409 0.5717944 0.83348906 0.4366837 0.5210521 0.5424913 0.36198732 0.4565807
0.384058 0.4887389 0.44407874 0.45352992 0.46916178 0.67915875 0.41277814 0.47379264
0.47315484 0.80577207 0.7215067 0.43668866 0.44422528 0.4852267 0.6501115 0.5938244
0.6403264 0.85542077 0.48536777 0.7127211 0.36792797 0.4484041 0.54195386 0.4226512
0.54790205 0.5919942 0.81349766 0.44969258 0.39569077 0.48890722 0.58738095 0.3261018
0.37666628 0.87220496 0.9659081 0.5007156 0.545821 0.66810364 0.68597496 0.78422046
0.5757903 0.61923707 0.9413555 0.50783306 0.5576387 0.46196017 0.59715843 0.554469
0.66584295 0.5483505 0.49859822 0.61054677 0.5615067 0.947028 0.6322955 0.45491058
0.53826123 0.67436147 0.53582317 0.40325263 0.47461978 0.56004596 0.68426937 0.46337357
0.43960205 0.6971278 0.49635658 0.5785868 0.6076243 0.5227237 0.55309224 0.48790744
0.43126968 0.5179699 0.5951787 0.6324784 0.49823913 0.5797623 0.46508083 0.60684437
0.5134613 0.65393144 0.60281736 0.4139451 0.51728565 0.8386875 0.47129527 0.45958382
0.55046535 0.41082147 0.52010787 0.5767284 0.6514086 0.43965316 0.4117985 0.8073096
0.4578547 0.64278835 0.39756283 0.5177328 0.5226147 0.49949318 0.5756366 0.8904601
0.69422424 0.5265995 0.41356772 0.40207136 0.45968327 0.79020035 0.42329985 0.7918304
0.600598 0.61581075 0.53217727 0.6497479 0.5401971 0.46976393 0.3895516 0.5827504
0.5921782 0.5698599 0.4883994 0.5940212 0.49133182 0.629659 0.67332417 0.43551868
0.48511603 0.48827273 0.454807 0.62771976 0.39877996 0.6166176 0.608412 0.51755977
0.5852972 0.47770146 0.5558008 0.51026934 0.6307814 0.581008 0.6147781 0.93630666
0.7055864 0.53698146 0.5868852 0.5545151 0.58858883 0.53818184 0.5184982 0.5084565
0.6705644 0.65083975 0.52651834 0.90676856 0.6623934 0.6013833 0.48502788 0.8560741
0.5336951 0.42725977 0.48528898 0.73198134 0.64210206 0.5616221 0.6184798 0.5047959
0.3520133 0.559721 0.650879 0.38473395 0.7449702 1.0566102 0.67774904 0.5062439
0.585602 0.65956527 0.71811265 0.394127 0.510418 0.5940342 0.5465911 0.57346225
0.61435515 0.3573243 0.5376678 0.5725332 0.6377842 0.42957768 0.5460615 0.6069522
0.74030435 0.7627396 0.38827986 0.68767846 0.48796764 0.61448544 0.5238551 0.56201684
0.7285141 0.6412512 0.49307933 0.7237744 0.39390072 0.5053526 0.8723033 0.67542034
0.9400174 0.666474 0.64458144 0.7351015 0.58542705 0.5360302 0.6961815 0.6018416
0.5153334 0.5855554 0.52593297 0.48810533 0.5525418 0.5819635 0.62697804 0.5900492

model.1.bias f4 [256]
00000000: 96f1 26be df09 9a3c 3f2a abbe a34b 6bbd
00000010: 2644 16be e149 52be 9cac 53be 688b febe
00000020: eb5a b4bd 4e22 81be ffa4 94bd d000 2cbe
00000030: 8b03 bcbe 7a7b ecbc ff76 89be 665d 3dbe
00000040: 6be9 eabe f504 85be d5bc 76be 30c6 9abd
00000050: 3bea d1bd 5bfd ebbe 7129 b4bd dfe2 bbbe
00000060: 1957 96be 2703 81be f9fe c8bd 05c7 c8bd
00000070: 7f0a 33bd 5a18 a3be 1557 5cbe 9fee 5cbe
00000080: 455d ccbd 4647 a3bd 5edc 34bd c33b 0fbe
00000090: e8fa 28be 19ae e1bd 8c64 78bd 8c9a 07be
000000a0: 95f8 b8bd c2e5 44be 6c22 3fbe e177 84bc
000000b0: c299 e4bd e8ca 3cbe 808c c9be 8851 54be
000000c0: 43e5 acbe 71eb b1be 5629 d2bd 0994 5bbe
000000d0: a1a8 11be c2e4 86bd e7b5 6bbe 6445 27be
000000e0: cab5 abbe 5e7e 01be 8ec1 c2bd 80d1 c1bd
000000f0: 4c1c 76bd 1efa 633c ca31 91bd 8c47 e4bd
00000100: 447e debd 9655 493d 7128 c0be 0946 64be
00000110: 1d17 0ebe a4f9 9bbd 6789 69be e9c1 4dbe
00000120: 489f 6dbe a4f8 ecbc 1292 a4be 9be3 38be
00000130: 9016 6ebe 297b 75be f1a6 5fbe 3eca 34be
00000140: 02f9 b4bd 105e c4bd 4b94 42be 71be bbbe
00000150: c941 9ebe abe3 a3be 4d07 cfbe 8e5a 2bbe
00000160: 4b44 8bbe 5e1e 50be e6de bcbd e3c6 f8bd
00000170: df0b b0be 1a73 15be 6974 ce3c 1ca3 06be
00000180: 3b2b 1cbe 729f 213e a30d 0f3d 557b b4be
00000190: af5c 71be 18d4 813d 7022 0abe 505f 6fbe
000001a0: ee99 7b3c 9472 88be 6d89 ec3c c95e d2bd
000001b0: 9542 d1bd 85d4 a5be b75f 88bd f5e3 9cbe
000001c0: e9ae 4cbe 250e 153e 91ca 7dbe 0be5 b2bc
000001d0: c094 4fbe c2e3 64be 7597 bdbd a77b 27be
000001e0: aa15 aabe a0c0 7bbe 9ca3 2dbe e0cb 73be
000001f0: 167f 5e3c 513d 363d 6209 4fbe d28f a4be
00000200: a366 d0bd 415e 99be 4b0c 6abe 5c42 94be
00000210: 581c a6be 202a debd a4b8 d9be 4d5a 1d3d
00000220: 7f71 17be b3a6 93be c099 60bd 0433 66bd
00000230: 3b87 4bbe 332e 12be 87f1 4dbe ae97 27ba
00000240: 86d5 56be a6a3 e7bd 9f93 90be 02fc 24be
00000250: b92d 8cbe cc54 2abe 2475 19be 01ec 9ebe
00000260: a8d2 7fbd 28a5 93be 9bfb 8abe db8c 8ebe
00000270: 9040 2fbe f5c0 ecbe 61f1 15be c98c 2cbd
00000280: 57f5 63be f5e1 e0bc 0bb1 3bbe f0da 8cbd
00000290: dff9 60be e5a9 74be d820 8abe eb5f dfbd
000002a0: 388a 04be 7eb4 ebbd c2ec fbbd 02e0 b7be
000002b0: 1d9e bebe d393 99bd 9db5 41be a149 c8be
000002c0: 9821 13be e610 88be a397 50bd 67f0 18be
000002d0: 925c 06be 2d80 993d 5dfb 07be 953a c1bd
000002e0: 7d9a e8be 498e 89be ae80 8e3d 1b7d c2be
000002f0: 2ece 63be d913 afbe 3e9c d1bd 9d34 483d
00000300: b8fa b0be 2b39 2dbe 5d01 debc 4c97 25be
00000310: 4213 a5be ebba f4bd a0a0 e5be 4996 4fbe
00000320: 758b 08be f5d8 8cbd ebf9 4cbe 7ed0 34be
00000330: 2269 78be d9a3 e4be 305b d0be e773 13bd
00000340: b1b8 4bbe 9215 4dbe 92aa c3bd 3a91 46be
00000350: 15ff f3bd c93b 5dbe 68a3 0ebe d773 59be
00000360: 3a02 b2bd ee15 c8bd 3d5f ed3b 48ea 5ebe
00000370: 1f14 f2be fd50 86be c7b7 b2bd 86fb d93b
00000380: 04a0 01bf 847e 5cbe 6dc3 40bd fe31 41be
00000390: 7016 83be f78c 6ebe 1992 b8be 36ae c3be
000003a0: 98c9 babc ac20 bfbd eab8 f8bd 52c4 36be
000003b0: 46e3 1cbe 63e5 90bd 544a 9dbe ec14 75be
000003c0: 6040 aebe f8e9 e9be a049 0cbd 65f8 23be
000003d0: 4122 ebbe 401d 82be e195 1abe 807b b3be
000003e0: a5c8 57be f53b 92be 3778 0bbe 4b23 eb3c
000003f0: b82b 48be 85a8 9cbe 7b6f dcbe 8b9e e8bd
-0.16303095 0.018803535 -0.3343067 -0.05744518 -0.14674434 -0.20535995 -0.20671314 -0.49715734
-0.08806404 -0.25221485 -0.07258033 -0.16797185 -0.36721453 -0.028867472 -0.268486 -0.1849266
-0.4588121 -0.25980344 -0.24095471 -0.075573325 -0.10249754 -0.46091732 -0.08796967 -0.36696526
-0.29363325 -0.25197718 -0.09814257 -0.09803585 -0.04371118 -0.31854516 -0.21517594 -0.21575402
-0.09978727 -0.07972579 -0.04415547 -0.13987641 -0.16501963 -0.110195346 -0.060642764 -0.13242549
-0.09031788 -0.1922827 -0.18665475 -0.016170444 -0.111621395 -0.18436778 -0.39365005 -0.20734227
-0.33768663 -0.3474994 -0.102617905 -0.2144319 -0.14224483 -0.06586601 -0.23018609 -0.16335064
-0.33537132 -0.12645862 -0.09509574 -0.09463787 -0.06008558 0.013914613 -0.07089575 -0.11146459
-0.10863927 0.049153887 -0.37530854 -0.22292341 -0.13876005 -0.076159745 -0.22806321 -0.20093502
-0.23205292 -0.028927155 -0.32142693 -0.18055575 -0.23250794 -0.23972763 -0.21841027 -0.17655274
-0.08836557 -0.095882535 -0.19001882 -0.36668733 -0.30909565 -0.32009634 -0.40435258 -0.16733763
-0.2720054 -0.20324084 -0.09222202 -0.1214731 -0.34384057 -0.14594689 0.025201993 -0.13148159
-0.15250866 0.1578348 0.034925114 -0.35250345 -0.23570512 0.06339282 -0.134897 -0.23376203
0.015356524 -0.26649916 0.028874123 -0.10271985 -0.10217778 -0.32388702 -0.06658881 -0.30642667
-0.19988598 0.14556177 -0.24784304 -0.021837732 -0.20271587 -0.22352508 -0.09257404 -0.16355763
-0.33219653 -0.245852 -0.16956943 -0.23808241 0.013580104 0.04449207 -0.20218423 -0.32140976
-0.101758264 -0.29954723 -0.22856252 -0.28956878 -0.324435 -0.108478785 -0.42523682 0.038416196
-0.14789389 -0.2883812 -0.054834127 -0.056200996 -0.19875805 -0.14275436 -0.20111667 -0.00063931465
-0.2097989 -0.1131051 -0.28237626 -0.16111758 -0.27378634 -0.1663391 -0.14986092 -0.31039432
-0.062456757 -0.28836942 -0.27145085 -0.2784184 -0.17114472 -0.46240965 -0.1464286 -0.04212645
-0.22261558 -0.027451495 -0.18329255 -0.068776965 -0.21970318 -0.23892935 -0.26978183 -0.10906967
-0.12943351 -0.115090355 -0.12301017 -0.35913092 -0.37230006 -0.07498898 -0.18916936 -0.39118674
-0.14368284 -0.26575392 -0.050925862 -0.14935456 -0.1312125 0.07495151 -0.13279481 -0.09435002
-0.45430365 -0.26866367 0.069581375 -0.37986073 -0.2224662 -0.3419483 -0.10234879 0.0488783
-0.34566283 -0.16916339 -0.02710026 -0.16170996 -0.32241255 -0.11949714 -0.4484911 -0.20272173
-0.13334449 -0.06877319 -0.20017211 -0.17657658 -0.24258855 -0.44656256 -0.4069457 -0.035999205
-0.19894673 -0.2002776 -0.09554018 -0.19391337 -0.119138874 -0.21604837 -0.13929522 -0.21235596
-0.08691831 -0.09769808 0.0072440193 -0.21769059 -0.47280976 -0.26233664 -0.08726459 0.0066522984
-0.5063479 -0.21532637 -0.047061373 -0.18866727 -0.25603056 -0.23295961 -0.36048964 -0.3821885
-0.022801206 -0.093324035 -0.121446446 -0.17848328 -0.15321073 -0.07075002 -0.3072077 -0.23933762
-0.3403349 -0.45686316 -0.0342499 -0.16012724 -0.4592457 -0.2541294 -0.15096237 -0.3505516
-0.21072634 -0.2856137 -0.13620077 0.028703352 -0.19547927 -0.3059732 -0.43053803 -0.11358365

model.1.running_mean f4 [256]
00000000: 39b8 c6b9 3abb d93b 4274 843b d0d9 a739
00000010: 3aab 2bba cedf e1bb 9530 8c3b 6b51 423b
00000020: 8d84 c6ba ce50 3f3b 0920 bc3a 2baf 483b
00000030: f5af 4b3b a3bd f43b 1741 e6ba 020f 58bb
00000040: 430b 9a39 7af4 8738 7883 073a 1019 21ba
00000050: 8e76 163a e556 90bb 1d29 733b 5480 293a
00000060: 3c4d fc3a feae b73b e967 6a3b bd50 da3a
00000070: 2cd8 5e3a 4776 a1bb e160 0dba c218 06bb
00000080: a46e 31ba edfb e03a fbd6 6bba 5dcd c43a
00000090: d40e 043c 71fc 683b 7c86 5f3b f313 243b
000000a0: 58d1 22ba b6fe bc38 54de 45ba abe2 84bb
000000b0: 53d4 82bb 2fd1 943b f2fa dabb 0bdc 583b
000000c0: e1a0 1f3b 8ace db39 7491 2aba 87d9 653b
000000d0: 6925 d53a 0985 0a3b e210 b0bb b991 f03a
000000e0: 1a8e c7bb 2fd5 82ba 4bd6 d2bb d673 483a
000000f0: f7d7 c43b 4f3e d53b 0b8d 1dbb 8aba a93b
00000100: ce54 cc3b ba31 7ab9 d140 2438 2319 8e3b
00000110: 87c8 eaba 9141 153a 8487 ca39 41d3 a2ba
00000120: acfb 323a 203c 4dbb e9b2 ad3a 7da4 85bb
00000130: 14ad 5539 82d3 f23b 6e3f 98bb 95cd 88bb
00000140: 788e d23b 0926 7d3a a4ac 7d3b 372f 4eb9
00000150: c7cc 973b 0f13 3a3a ebd4 103b d6a7 f5ba
00000160: 8010 533b 4b3a 02ba 8ff0 2dbb b14e 7e3b
00000170: 48fa 373b 6a84 313b f5c9 b4ba e6cc 43bb
00000180: c6c2 f83b 189d e13b 4861 8dbb 4c2c 8f3b
00000190: 980b 3fbb bebf cbbb f481 e83a e136 8c3b
000001a0: 6709 00bb 0ac2 9dbb db93 82bb 146e 10bb
000001b0: 8810 d538 a03c 99bb 685b adbb 878b f7b9
000001c0: ccf0 ddba cd71 063c 89e2 b8bb 5ed0 5d3b
000001d0: 7313 99bb daa0 8939 b715 5bbb 9954 9f3a
000001e0: 359b 23bb cb94 f1bb 8bfc d4bb d35c a6bb
000001f0: aa0d 933a dd7f 6a3a fc3d 843b 2990 ddb9
00000200: bfa9 e1ba a57a 90ba a49d f4bb 5815 1bba
00000210: 04c6 bebb 2993 52ba 8463 8d3b 3de9 e7b8
00000220: 7f0b 2a3a 829e 01bb e776 1a3c 333b 3bbb
00000230: c5ff 3cbb 2dd5 1b3b aa10 aabb c354 573b
00000240: 8876 babb 8c47 0abc e93c 5dbb b65e 2e39
00000250: 2dff 70bb 0d82 8539 54b7 c0b9 95ef 1ebb
00000260: 4e7e a23b ff6f 893b 1bc4 ef3a f73b 10bc
00000270: 0ae4 c43b 2804 8cbb 0dec 99b7 350d 1f3b
00000280: 7029 8cbb 1fee df3a ca88 51bb 41c3 d4bb
00000290: be02 bd3a 134b 8b3b 19bf 1cbb a862 8f3a
000002a0: eed9 dabb a24b 543a b5fa 033b 5654 d43a
000002b0: 165b 0dbb 4f67 b3bb c391 e7ba 71c8 d9b9
000002c0: 50e2 2939 e393 b03a a7d4 16bb 7227 00b9
000002d0: 2760 63ba 8f97 433b 182b a6bb dbf5 483a
000002e0: 9cbc 9fbb 4b79 70ba 7ce9 16bb 4771 bd39
000002f0: 6faa 4cba 34d8 703a 091b adbb 5cca cd39
00000300: 74b4 7dbb d5f7 b33b b229 2c3b 02fe d938
00000310: 5f4e a9b7 9424 ee39 10ff 863a e471 6aba
00000320: 609c aebb 5151 85b9 f018 ab3b 866d 823b
00000330: 53e1 14ba 3452 1639 1d80 74bb aae9 c73b
00000340: 6488 b73b 6f90 59ba 5a7f f3b9 76f0 8f3b
00000350: 15cd 1e3b e811 b8ba 00a4 073b 169f f13a
00000360: 4126 393b d059 753b d1ae b7ba 9dec 59bb
00000370: 4ded d23b 3513 553a a08e 88bb b7ef 6c3a
00000380: 794e 973a c729 bd39 bcaa fc3a 6deb c938
00000390: 890d f63a d8b6 5b3b f134 8a3b 1996 39bb
000003a0: f6bf 11bb 1ff4 463b 2141 43bb 09cb 48ba
000003b0: 766d f33a 6782 8c3b 8dea f336 33ba 57bb
000003c0: eb67 353a 7033 463a 9a25 a3bb 6e0b c73a
000003d0: fec4 90bb 3b65 393b 1559 9f3a 37bb 603b
000003e0: 6d21 9fbb 6abb 6bba 84c7 d5bb 85ee 4abb
000003f0: ac36 12bc 6f8d 6639 2aea 6bbb 1eb9 e5bb
-0.0003790276 0.0066446336 0.0040421793 0.00032015005 -0.0006548647 -0.0068931347 0.0042782524 0.002965058
-0.0015145704 0.002919245 0.0014352809 0.0030621986 0.003108022 0.0074688955 -0.0017567006 -0.003296793
0.0002938156 6.482839e-05 0.00051694317 -0.0006145397 0.0005739712 -0.00440489 0.0037103363 0.0006465961
0.0019249092 0.0056055775 0.0035767502 0.0016656142 0.000850084 -0.00492743 -0.0005393159 -0.0020461534
-0.0006768501 0.0017164923 -0.0008996573 0.0015014816 0.008060176 0.0035550857 0.0034107259 0.0025036305
-0.0006211004 9.011982e-05 -0.0007548083 -0.0040553412 -0.003992596 0.004541538 -0.006682747 0.003309014
0.0024357366 0.0004192482 -0.00065066596 0.0035072283 0.001626176 0.0021136424 -0.0053731063 0.0018353976
-0.006089938 -0.0009981747 -0.006434237 0.00076466554 0.0060071903 0.006507672 -0.0024040367 0.005179708
0.0062356954 -0.00023860382 3.9161012e-05 0.0043364926 -0.0017912545 0.0005693669 0.0003862941 -0.0012422578
0.0006827663 -0.0031316355 0.0013252172 -0.0040784464 0.0002037774 0.0074104676 -0.0046462333 -0.004174898
0.006425675 0.0009656852 0.0038707638 -0.0001966328 0.0046325657 0.0007098177 0.0022099565 -0.0018742036
0.003220588 -0.0004967793 -0.002654109 0.0038804228 0.0028072763 0.0027086982 -0.0013793098 -0.0029876768
0.007591578 0.006885182 -0.0043145753 0.0043692943 -0.0029151198 -0.006217926 0.0017738924 0.004279003
-0.0019536854 -0.004814391 -0.003984911 -0.0022038268 0.00010159711 -0.0046764165 -0.0052904375 -0.00047215467
-0.0016932725 0.008205843 -0.0056422395 0.003384612 -0.004671508 0.0002625052 -0.003342969 0.0012155949
-0.0024964337 -0.007372474 -0.006499832 -0.0050769835 0.0011219282 0.0008945445 0.0040357094 -0.00042259812
-0.0017216726 -0.0011022879 -0.0074650813 -0.0005915961 -0.005821945 -0.0008032793 0.0043148417 -0.000110583824
0.00064866984 -0.0019778316 0.009427763 -0.002856922 -0.0028838974 0.0023778186 -0.005189975 0.0032856918
-0.0056903996 -0.00843991 -0.003375823 0.00016629216 -0.003677319 0.00025464632 -0.00036757684 -0.0024251689
0.0049589043 0.004194259 0.0018292697 -0.008803359 0.0060086297 -0.0042729564 -1.8348941e-05 0.0024269347
-0.0042774007 0.0017084515 -0.0031972402 -0.0064930026 0.0014420373 0.004250893 -0.0023917614 0.0010939436
-0.0066788113 0.00080984284 0.0020138447 0.001619945 -0.0021569184 -0.005474962 -0.0017667342 -0.00041538806
0.00016201404 0.0013471808 -0.0023014934 -0.00012221726 -0.00086736906 0.0029844975 -0.005071055 0.000766603
-0.004874779 -0.00091733475 -0.002302735 0.00036133287 -0.0007807379 0.000918749 -0.005282764 0.00039251416
-0.0038712295 0.0054921904 0.002626997 0.00010394679 -2.0182864e-05 0.0004542215 0.0010299403 -0.00089433626
-0.0053287 -0.00025428322 0.0052214786 0.0039803414 -0.0005679328 0.00014335738 -0.0037307807 0.006100853
0.005600976 -0.00082994153 -0.00046443456 0.004392679 0.0024231125 -0.0014043422 0.0020697117 0.0018434252
0.002825156 0.0037437566 -0.0014013891 -0.0033252605 0.00643698 0.0008128167 -0.004167393 0.0009038406
0.0011543772 0.00036080016 0.0019276957 9.628278e-05 0.0018772344 0.0033525731 0.004217737 -0.0028318225
-0.0022239662 0.003035791 -0.0029793459 -0.0007659649 0.0018572051 0.004288006 7.2692696e-06 -0.003291738
0.0006920087 0.00075607654 -0.0049788477 0.0015185901 -0.0044180145 0.0028289098 0.0012157286 0.0034291276
-0.0048562796 -0.00089924654 -0.0065240283 -0.0030964923 -0.008924168 0.00021987197 -0.0035997727 -0.007010593

model.1.running_var f4 [256]
00000000: 6c33 863e 3bd7 3e3e 399a 053e 9d92 913e
00000010: ead6 803e 55ad 963e 42f9 663e 8430 793e
00000020: db56 193e 034b 743e 5792 a63e 8f9a 2c3e
00000030: 9b80 7a3e c8ff 393e cf8a 753e d55b 613e
00000040: 1d99 563e c46f 003e 8e8f 963e 7c4f ab3e
00000050: 2c65 203e b124 513e c01d 803e 61f0 b53e
00000060: 85cf 633e d5d3 083e 45d7 953e 6870 023e
00000070: 4e3a 663e bad0 413e 277b f13d 3ce2 1d3e
00000080: b047 233e 3ff1 133e 44d3 5c3e 7d63 f43d
00000090: f61e 463e 1c08 903e 1313 193e ee7f 5d3e
000000a0: 9b12 1c3e c35b 973e 0992 133e 3ea3 203e
000000b0: 7203 313e ad0c 553e 40fe 7a3e fb74 193e
000000c0: 4d26 5f3e 7cf0 a13e e1e0 303e 0809 6d3e
000000d0: efa4 373e 20c4 8c3e f0fc 253e fd55 383e
000000e0: 200f 603e 8b18 183e 0b15 a43e 0427 fd3d
000000f0: 7649 4f3e 2f35 023e 6743 d63e 04df 123e
00000100: 9153 123e 8092 803e 26da aa3e d6bd 823e
00000110: 6213 953e a4da 3a3e 8745 3a3e 1202 a53e
00000120: c519 1c3e de31 8e3e 4855 b63e 2501 433e
00000130: 3e27 963e ab80 5c3e 796e 923e ef79 4a3e
00000140: 1ae0 0f3e dafc 383e 70bc 353e 4c5b 433e
00000150: f24d 2e3e e50e d73e ea43 613e f482 793e
00000160: 88c9 4c3e fe46 663e 3def 9d3e 2421 a03d
00000170: eb42 203e 4456 113e bb9f d13e de1a 2d3e
00000180: 0e76 043e da23 213e 8a3f ab3e 6da5 633e
00000190: 8625 3c3e 4b3a 613e 9494 343e fb5f 493e
000001a0: db08 263e ecf4 273e 9527 693e a212 a33e
000001b0: 8c61 223e 9b93 833e 0cd8 533e 59d5 6b3e
000001c0: 3fcc 9a3e 98e6 753e 9097 7a3e bcda 143e
000001d0: 2384 8f3e 6c61 ac3e 1928 733e 3ba0 8c3e
000001e0: 8899 833e 477e 1f3e e1f0 5c3e 01e5 483e
000001f0: f711 173e 9e01 033e 7eb2 3e3e 58a8 133e
00000200: 0481 2b3e 4b35 243e 2229 833e 2b73 6b3e
00000210: e72b 8d3e 69b7 313e bcac e43d 2151 983e
00000220: 64f6 8b3e 8443 4c3e 3b28 443e ff9d 413e
00000230: 21a1 3f3e 78a4 9e3e 1ba7 3c3e bdad 853e
00000240: 46b0 7a3e f8ba b33e 8991 793e 1d84 7e3e
00000250: bfa3 3c3e 6290 313e 6fd3 573e 8b65 ab3e
00000260: 4c24 913e b48e 5c3e 9d6f 343e ce24 323e
00000270: 703b 1f3e 21b2 943e 6356 673e 9181 1e3e
00000280: 3754 5a3e 5342 353e 2d38 793e 6904 b93e
00000290: 3668 2d3e 807e 223e 02db 3a3e 904d 2d3e
000002a0: fc18 b23e 4d7e 053e 9f6c 493e 7ed3 253e
000002b0: e5ef 7a3e e22e 973e a5d6 783e dc7f cd3e
000002c0: 8c6f e33d c2e4 373e 586c b53e 7bc7 873e
000002d0: ea9e 493e c4e8 1a3e 8c4c 183e 1d90 963e
000002e0: ea65 8b3e 838c ec3d 6dda a83e 4fd1 c93e
000002f0: 742b cf3d b414 433e 4b5f 5c3e 7bd4 073e
00000300: 513e 5d3e d0d8 653e 4d95 7c3e c3c3 ca3e
00000310: 2093 973e 6a59 2e3e 1069 523e 6e26 0e3e
00000320: 58d8 ff3d 6e14 6f3e a694 363e a03d 113e
00000330: 4dea 953e c128 d73e 7cf0 563e dc39 1f3e
00000340: 25f2 803e 9a0f bd3e 9d18 683e b289 de3d
00000350: fc1c 303e 061f 663e 7e9f 563e 6877 df3d
00000360: 2332 363e a090 4f3e b7b3 d73d 937b 793e
00000370: e1e3 383e c801 0e3e 18f8 2d3e a1fc 493e
00000380: a96e 633e e65d b43e bd50 653e 9031 d43d
00000390: ba8c 4b3e 7f3a 743e 257e 413e 41d4 643e
000003a0: 6bbe 883e d570 9d3e 8e3e 6d3e 136f ac3e
000003b0: d6cb 1b3e 72da 263e 8bad 8f3e 5e31 413e
000003c0: 2756 c23e ee45 113e b798 143e e12c 0e3e
000003d0: 5aad 7d3e 7b46 c13d 6ce0 9c3e 3291 773e
000003e0: 337a 363e fa24 9b3e 0a89 5c3e 3202 553e
000003f0: 92bb 733e 19f6 a53e 9a00 823e e049 a83e
0.26211107 0.18636791 0.13047113 0.2843217 0.25163966 0.29429117 0.22556022 0.24334913
0.14974539 0.2385674 0.32533523 0.16855834 0.24463122 0.18163979 0.23978733 0.22007687
0.20956846 0.12542635 0.294064 0.3345908 0.15663594 0.20424153 0.25022697 0.35534957
0.22247131 0.13362058 0.292658 0.12738192 0.22483179 0.18927279 0.117910676 0.15418333
0.15945315 0.14447497 0.21564966 0.119330384 0.19347748 0.28131187 0.14948682 0.21630833
0.15241472 0.29562196 0.14411177 0.15687272 0.1728647 0.20805617 0.24511051 0.14986031
0.21791954 0.31628788 0.17273284 0.23147976 0.17934011 0.27493382 0.16209769 0.18001552
0.2188077 0.14853112 0.32047305 0.12360957 0.20242867 0.127156 0.418483 0.14342886
0.1428969 0.2511177 0.3336956 0.25535458 0.2911635 0.18247467 0.18190585 0.32228142
0.15244205 0.2777242 0.3561194 0.19043405 0.29326814 0.21533458 0.2859991 0.19773076
0.14050332 0.18065205 0.17747664 0.19077796 0.17021921 0.4200355 0.21998563 0.24366361
0.19998753 0.22488019 0.30846587 0.07818821 0.15650527 0.14193064 0.40942177 0.1690478
0.1293566 0.15736333 0.33446914 0.22231074 0.18373689 0.21994893 0.17634803 0.1966552
0.16214316 0.16402024 0.22769006 0.31850153 0.15857524 0.25698552 0.20687884 0.23030604
0.30233952 0.24013746 0.24471879 0.14536566 0.280305 0.33668077 0.23745765 0.27465996
0.25703073 0.15575515 0.21576263 0.19618608 0.14752947 0.12793586 0.18622777 0.14419687
0.16748434 0.16035955 0.2561732 0.22993152 0.27572557 0.17355122 0.11165759 0.29749396
0.2733642 0.1994763 0.19155972 0.18907927 0.1871381 0.30984855 0.1842312 0.26109114
0.24481305 0.35103583 0.24371924 0.24855085 0.18421839 0.17340234 0.2107675 0.3347591
0.28348005 0.21538812 0.17620702 0.17396852 0.15550017 0.29042152 0.22591548 0.15479113
0.21321188 0.17701082 0.24337836 0.36136177 0.16934285 0.15868568 0.18247607 0.16924119
0.34784687 0.13036461 0.19670342 0.16193959 0.24505575 0.29527956 0.2430063 0.4013661
0.1110526 0.17958358 0.35434222 0.2651938 0.19689527 0.15127856 0.1487295 0.29406825
0.27226192 0.11550238 0.32979146 0.39417502 0.1011571 0.19050866 0.21520726 0.13264649
0.21605803 0.22445989 0.24666329 0.3960248 0.29604435 0.17026296 0.2054789 0.13881847
0.12492436 0.23347637 0.17830142 0.14183664 0.2928032 0.4202328 0.20990175 0.15549415
0.25184742 0.36925966 0.22665639 0.10866107 0.17198557 0.22472772 0.20959279 0.10911447
0.17792563 0.20270014 0.10532325 0.24363546 0.18055679 0.13867867 0.16989172 0.19725277
0.22210182 0.3522789 0.2239408 0.10361016 0.19877902 0.2385044 0.18895777 0.22346593
0.26707777 0.30750147 0.23168394 0.33678493 0.15214476 0.16294268 0.2806209 0.18866488
0.37956354 0.14186832 0.14511381 0.13884307 0.2477316 0.09437271 0.3063997 0.24176481
0.17820053 0.30301648 0.21536651 0.20801619 0.23802021 0.3241432 0.25391084 0.32868862

model.4.weight f4 [128, 256]
00000000: c59f 6dbc 7119 75bb 31a6 8abc 4e75 a53b
00000010: bc70 82bd e82c c93c f357 d8bb d9c6 a9bd
00000020: 565d 673d 43f0 bcbd 14b3 543d b6bf 01bd
00000030: 8c73 d9bc 7380 9aba 38ff a23d cd89 90bc
00000040: 95ec 62bd eb67 0d3d a2e3 8e3d e9c3 b0bc
00000050: c6f1 053d 4d16 c53c 8297 4cbd a305 853c
00000060: fc60 063c 85b4 2c3d 2abd 233c 3274 92bd
00000070: f379 373d c99b dbbc e140 083d 2091 10bd
00000080: 7e48 a1bc c5c0 b7bb 8584 bf3a 12eb 31bd
00000090: c4c1 1abd 4e28 8abc 2092 a03c b815 a8bd
000000a0: 5473 39bd 12c6 d53c a77e 103d 4314 203c
000000b0: e56e 7fbc d8a3 9f3d 87b5 aebc df43 563d
000000c0: c550 02be c171 5cbd 2021 ee3c 357d 73bd
000000d0: a99b af3d 91f9 23bd ddb8 973d 2352 223c
000000e0: 0b8e 4cbd db7f bbbc c3eb 0c3e ee60 f73c
000000f0: 6620 443d 02b4 9a3c abbe ed3c face 84bc
00000100: ad49 f9bc daf5 6bbd d6ea f0bc 6ac3 0dbd
00000110: 6134 c03c 272d 1cbd 1d2d 01be a294 f7bc
00000120: 0b88 563d ec88 213c 35e3 cebc 498f c2bc
00000130: 5ac6 c7bd 4bd2 d13d 1f6c ef3c d210 ccbd
00000140: f935 803d 7738 9f3c c9c2 1dbd 7dfc 11bd
00000150: f1d5 19bd 16e4 0c3d 6f58 81bd 0b96 15bd
00000160: b544 bfbc 7cac 923d d0a8 babb f818 04bd
00000170: 3666 823c 760d 69bc 5c26 963b f0da 10bd
00000180: 1a4f 43bd 7da7 01bc 1c20 1e3d 1036 abbc
00000190: 25eb fabc df7f 2b3d 8c90 423d 97bb 04bc
000001a0: 90b6 673d 5559 ddba 8be5 023d 5746 f63d
000001b0: 0c4a 3fbb 873b f8bc 567e 0b3c d672 c33c
000001c0: 6c91 6dbd aa46 833d c29a 163d 9b76 97bd
000001d0: 3073 b73c 1274 03bd 8325 283d 550f 6ebd
000001e0: d75a 65bd 8ed1 37bd 00a2 13bd 3c66 0fbd
000001f0: a5d9 36bd cc5d 873c cb3d 0f3d e409 b53c
00000200: fd77 003e a530 bbbd 61e4 07bd 7a4e 8ebd
00000210: 780b d8bd 4709 84bd 2c61 e1bc 6af0 c1bc
00000220: ad30 9b3a 2e8c 843d 92fe 5bbd 3b36 27bd
00000230: 0515 5abd 1e93 003d 1f81 4fbd 8165 93bd
00000240: 6e8c 48bc 9581 393d 8fa1 4abd 48ef d5bd
00000250: b1a3 debc 21da da3c 4133 75bc e655 61bd
00000260: 1fc7 a73c 24d6 e23c 1d8a 58bd daaa 473d
00000270: 7dc1 4bbd 6ddb 2cbd 4f0d 8fbc 2ab8 6cba
00000280: 96c6 85bd 39fd a63c 5804 50bd f31e a33d
00000290: 6989 2abd 75da 0e3d eca1 083d cdd7 2cbd
000002a0: ae4d 243c 5913 42bd 84df 583d 6a73 853b
000002b0: a3fc cabd a157 ba3d 501c d3bb 57fb 50bc
000002c0: c553 7cbc d2be 0cbd 8e64 b1bc 410c 15bd
000002d0: 6c04 ed3c 2ddc d63d 8672 02bc aa73 9ebb
000002e0: ae60 44bd 6c20 c73b e8b0 763d 4951 0dbc
000002f0: f411 c73c 0095 debd 6242 053d 4a55 1b3d
00000300: e83c 84bc 49ea 333c 2627 9e3c 4980 3ebb
00000310: 896c a9bd ee5f 173d a634 02bd 0df1 bcbd
00000320: 6730 88bd ace1 4ebd a863 f33d 1b53 48bc
00000330: b62e d13c cf7d 9abb 3c06 a6bc 1c77 e1bd
00000340: ca21 e4ba 8708 1a3b fc12 f63b e9cb ad3d
00000350: 8a98 223d 1d90 6abd bf0d d83c e5da 09bd
00000360: 29ac 723d 2a99 4b3d ef1d 5d3d 93f0 83bc
00000370: ddc3 0dbd 2120 22bd 10b7 34bd bc4b e9bb
00000380: 7502 09be 98eb 8ebb 53ae 17bc ecf4 e2bc
00000390: 0799 713d 6de6 003b e912 e7bc 6360 e0bd
000003a0: f92a 403c 09d0 083d ec83 0b3d 7773 01bd
000003b0: c4c7 573d 5dbe 5a3c 73fb bdbb 4c86 9a3d
000003c0: e0ee 9c3c c282 cebc ce29 e43c 6eac 42bc
000003d0: 8118 81bd a7b8 89bc 3a92 f8ba 09b7 36bd
000003e0: 57eb a139 c2f6 07bd a8af 36bc 3bbb debc
000003f0: 8429 073e 190a 90bc d328 6dbc 3e0c b13d
-0.014503424 -0.0037399197 -0.01692495 0.005049384 -0.063691586 0.024557546 -0.0066022812 -0.0828988
0.056485496 -0.09225514 0.051928595 -0.03167697 -0.026544355 -0.0011787548 0.07958835 -0.017643834
-0.055401403 0.034522932 0.06977011 -0.021577792 0.032701276 0.024058485 -0.049949177 0.01623804
0.008201834 0.042164344 0.009993831 -0.07151069 0.044794034 -0.026807683 0.033265 -0.035294652
-0.019687887 -0.0056076967 0.0014611637 -0.04343707 -0.037782446 -0.016864922 0.019600928 -0.082072675
-0.045276 0.026095424 0.035277035 0.009770456 -0.015590404 0.077949226 -0.021326793 0.05231082
-0.12726124 -0.05381942 0.02906853 -0.05944558 0.08574612 -0.040032927 0.07408307 0.009907278
-0.04994015 -0.022888115 0.13761811 0.030197587 0.04788246 0.018884663 0.029021582 -0.016211975
-0.03043064 -0.05760751 -0.029408854 -0.03461019 0.023462476 -0.038128998 -0.12614866 -0.03022224
0.052375834 0.009859305 -0.025254825 -0.023749964 -0.097546294 0.10245188 0.02922636 -0.09964146
0.062602945 0.019436104 -0.03851584 -0.035641182 -0.037557546 0.034397207 -0.063156955 -0.036520045
-0.023348192 0.07161805 -0.0056963935 -0.032250375 0.015917879 -0.014224401 0.0045822095 -0.035365045
-0.04768286 -0.0079134675 0.03860484 -0.020899802 -0.030629704 0.041869994 0.047501132 -0.0081013655
0.05657059 -0.0016887585 0.03195719 0.12025135 -0.0029188422 -0.030301822 0.008514008 0.023858469
-0.058000013 0.064099625 0.036768682 -0.07395669 0.022393793 -0.032093115 0.0410514 -0.05812009
-0.055994835 -0.04487758 -0.036043167 -0.035009608 -0.044641156 0.016524218 0.03497104 0.022099443
0.12545772 -0.091401376 -0.033176783 -0.06948562 -0.105490625 -0.06447082 -0.027512155 -0.023674209
0.0011840068 0.0647205 -0.053709574 -0.040823203 -0.053242702 0.031390302 -0.05066025 -0.07197095
-0.012240512 0.045289595 -0.04947048 -0.1044603 -0.027177664 0.02671534 -0.014965833 -0.05501356
0.02048069 0.02769 -0.05286609 0.04874692 -0.04974507 -0.04220145 -0.0174624 -0.0009030128
-0.06532018 0.020384418 -0.050785393 0.079648875 -0.04163495 0.034876306 0.033357546 -0.04219799
0.010028286 -0.047381733 0.052947536 0.0040725963 -0.09911468 0.09098745 -0.006442584 -0.012755237
-0.015400832 -0.034361668 -0.021654394 -0.03638864 0.028932773 0.10491214 -0.007961875 -0.0048355656
-0.047943763 0.006076863 0.060227305 -0.008625337 0.024300553 -0.10868263 0.03253401 0.037923135
-0.016142324 0.010981151 0.019305777 -0.0029068163 -0.082726546 0.03695672 -0.03178849 -0.09225664
-0.06649857 -0.050508186 0.11884242 -0.012226845 0.025534969 -0.0047147046 -0.020266645 -0.110090464
-0.001740509 0.0023503618 0.0075095873 0.084861584 0.039696254 -0.057266343 0.026373742 -0.03365602
0.059246216 0.049706616 0.053983625 -0.016105926 -0.034610618 -0.03958142 -0.044119895 -0.007119624
-0.13379844 -0.004361581 -0.009257871 -0.027704678 0.05898383 0.0019668594 -0.02820726 -0.10955884
0.0117289955 0.033401523 0.034061357 -0.031604256 0.052680746 0.01335105 -0.0057977973 0.07545146
0.019156873 -0.025208835 0.027851965 -0.011881931 -0.06303502 -0.016811682 -0.0018964477 -0.04460815
0.00030883655 -0.03319431 -0.011150278 -0.027188888 0.1319943 -0.01758294 -0.014475065 0.08644913

model.4.bias f4 [128]
00000000: 166b 7635 30cd 8ab5 4a58 dcb4 c616 0134
00000010: cebb 8f34 f92d 0835 f784 27b6 3153 83b5
00000020: 1e74 bc34 1e92 2c36 2d66 46b5 f498 d634
00000030: 3a4b 30b7 c00d c1b3 65ae fb35 49c6 76b6
00000040: 75c3 27b2 ac25 f2b5 4291 6c34 d6a6 95b6
00000050: 3f95 f034 f55e 6335 2a61 c6b5 9bf9 f535
00000060: 5b27 4936 0ec5 7136 3289 aeb5 2a0b f6b6
00000070: f214 2136 92b4 86b5 f71f 2736 0051 84b3
00000080: 46ed 5935 011f 0c36 e424 0f35 18a9 23b4
00000090: 3236 2336 9606 6836 dc2d 4b36 75de 2935
000000a0: de55 bbb5 ffa6 95b5 874c 85b5 0f22 9a35
000000b0: 9c31 2a35 0868 3835 ca94 06b6 20bd c5b3
000000c0: ff57 28b5 c48a 9435 26cd f8b5 052f bc34
000000d0: d83c 41b6 4214 dc35 6079 9d33 bc89 d034
000000e0: 7e09 8eb3 8466 d1b5 50f7 3333 e07e 2934
000000f0: 55cc 46b6 e12e a9b5 1cfe feb5 788f 4b35
00000100: 0003 4333 09a8 9ab5 c3fd 4d35 1516 fbb5
00000110: c7ef 4e34 10c3 1032 ec21 b2b5 9bcd 3335
00000120: fad4 8833 f24d de34 4543 4db6 7ea1 2db5
00000130: da1c 5935 46ad 0eb6 8186 4834 939a e336
00000140: 3965 d6b4 c206 f534 3861 cd35 7683 47b5
00000150: 9809 9035 7205 ceb5 7ce0 92b5 3b3c a8b3
00000160: 16e6 bbb4 acd0 7b36 e208 4835 10fd b735
00000170: e7db 4cb5 86d2 71b5 9ae9 dd35 870b ccb6
00000180: cc7d 0ab7 2960 b534 27a0 6e35 4a85 f035
00000190: 4752 3535 3c94 9cb5 c067 7136 d2b1 da34
000001a0: 70d7 3f34 0d41 3135 e044 0b34 5df4 0035
000001b0: 02d0 0eb3 6a3b ca35 55b7 d234 cace cab5
000001c0: c29f 95b5 c46b a2b5 f180 e736 b2ed af35
000001d0: 2cdf 5335 5298 f8b5 b505 b835 8b3f bab4
000001e0: 0579 6b35 3266 9c34 50b4 d735 d0af 9335
000001f0: 8677 11b5 a547 1db6 631d 8eb5 727f a235
9.179797e-07 -1.0341519e-06 -4.1042432e-07 1.2022346e-07 2.6772472e-07 5.0730847e-07 -2.4962335e-06 -9.784472e-07
3.5102215e-07 2.5715049e-06 -7.3909433e-07 3.9971894e-07 -1.05079325e-05 -8.989764e-08 1.8751713e-06 -3.6772274e-06
-9.765121e-09 -1.8041369e-06 2.2032057e-07 -4.4599683e-06 4.4812074e-07 8.470227e-07 -1.4780428e-06 1.8326567e-06
2.9974242e-06 3.60265e-06 -1.3003939e-06 -7.332671e-06 2.4003061e-06 -1.0036331e-06 2.4903545e-06 -6.161463e-08
8.118408e-07 2.0879672e-06 5.3325334e-07 -1.5242074e-07 2.4320439e-06 3.4574527e-06 3.027605e-06 6.3281124e-07
-1.3957576e-06 -1.1149967e-06 -9.931545e-07 1.1483806e-06 6.3402126e-07 6.8696727e-07 -2.0054163e-06 -9.207929e-08
-6.271293e-07 1.1067245e-06 -1.8537146e-06 3.505194e-07 -2.8794657e-06 1.6397173e-06 7.33296e-08 3.8843234e-07
-6.614117e-08 -1.5601549e-06 4.1901615e-08 1.5785508e-07 -2.9623236e-06 -1.2605125e-06 -1.899843e-06 7.583217e-07
4.5404704e-08 -1.1522799e-06 7.6737723e-07 -1.8707384e-06 1.9272476e-07 8.426255e-09 -1.3271906e-06 6.698189e-07
6.371734e-08 4.1407435e-07 -3.0586536e-06 -6.4682524e-07 8.0880784e-07 -2.1260507e-06 1.8675384e-07 6.783122e-06
-3.9934255e-07 4.5639723e-07 1.5301985e-06 -7.432458e-07 1.0731628e-06 -1.5349781e-06 -1.0943181e-06 -7.8340655e-08
-3.4998874e-07 3.7523378e-06 7.451873e-07 1.3708213e-06 -7.631592e-07 -9.008585e-07 1.653377e-06 -6.0810157e-06
-8.25473e-06 3.3783843e-07 8.889496e-07 1.7920186e-06 6.7547484e-07 -1.1666048e-06 3.597219e-06 4.0735046e-07
1.7866637e-07 6.60323e-07 1.297044e-07 4.803931e-07 -3.3251133e-08 1.5067465e-06 3.924894e-07 -1.5110356e-06
-1.1147861e-06 -1.2101304e-06 6.899347e-06 1.3107694e-06 7.8928383e-07 -1.8521771e-06 1.3710729e-06 -3.4691433e-07
8.772043e-07 2.913162e-07 1.6071226e-06 1.1003522e-06 -5.419064e-07 -2.3436526e-06 -1.0588377e-06 1.2107032e-06
